…
I1104 10:45:10.851909 27012 net.cpp:313] The NetState phase (0) differed from the phase (1) specified by a rule in layer loss3/top-1
I1104 10:45:10.852491 27012 net.cpp:49] Initializing net from parameters: 
name: "GoogLeNet_cifar10"
state {
  phase: TRAIN
}
layer {
  name: "cifar"
  type: "Data"
  top: "data"
  top: "label"
  include {
    phase: TRAIN
  }
  transform_param {
    crop_size: 32
    mean_file: "examples/cifar10/1parts/mean.binaryproto.0"
  }
  data_param {
    source: "examples/cifar10/1parts/cifar10_train_lmdb.0"
    batch_size: 128
    backend: LMDB
  }
}
layer {
  name: "conv1/7x7_s2"
  type: "Convolution"
  bottom: "data"
  top: "conv1/7x7_s2"
  param {
    lr_mult: 1
    decay_mult: 1
  }
  param {
    lr_mult: 2
    decay_mult: 0
  }
  convolution_param {
    num_output: 64
    pad: 3
    kernel_size: 7
    stride: 2
    weight_filler {
      type: "xavier"
      std: 0.1
    }
    bias_filler {
      type: "constant"
      value: 0.2
    }
  }
}
layer {
  name: "conv1/relu_7x7"
  type: "ReLU"
  bottom: "conv1/7x7_s2"
  top: "conv1/7x7_s2"
}
layer {
  name: "pool1/3x3_s2"
  type: "Pooling"
  bottom: "conv1/7x7_s2"
  top: "pool1/3x3_s2"
  pooling_param {
    pool: MAX
    kernel_size: 3
    stride: 2
  }
}
layer {
  name: "pool1/norm1"
  type: "LRN"
  bottom: "pool1/3x3_s2"
  top: "pool1/norm1"
  lrn_param {
    local_size: 5
    alpha: 0.0001
    beta: 0.75
  }
}
layer {
  name: "conv2/3x3_reduce"
  type: "Convolution"
  bottom: "pool1/norm1"
  top: "conv2/3x3_reduce"
  param {
    lr_mult: 1
    decay_mult: 1
  }
  param {
    lr_mult: 2
    decay_mult: 0
  }
  convolution_param {
    num_output: 64
    kernel_size: 1
    weight_filler {
      type: "xavier"
      std: 0.1
    }
    bias_filler {
      type: "constant"
      value: 0.2
    }
  }
}
layer {
  name: "conv2/relu_3x3_reduce"
  type: "ReLU"
  bottom: "conv2/3x3_reduce"
  top: "conv2/3x3_reduce"
}
layer {
  name: "conv2/3x3"
  type: "Convolution"
  bottom: "conv2/3x3_reduce"
  top: "conv2/3x3"
  param {
    lr_mult: 1
    decay_mult: 1
  }
  param {
    lr_mult: 2
    decay_mult: 0
  }
  convolution_param {
    num_output: 192
    pad: 1
    kernel_size: 3
    weight_filler {
      type: "xavier"
      std: 0.03
    }
    bias_filler {
      type: "constant"
      value: 0.2
    }
  }
}
layer {
  name: "conv2/relu_3x3"
  type: "ReLU"
  bottom: "conv2/3x3"
  top: "conv2/3x3"
}
layer {
  name: "conv2/norm2"
  type: "LRN"
  bottom: "conv2/3x3"
  top: "conv2/norm2"
  lrn_param {
    local_size: 5
    alpha: 0.0001
    beta: 0.75
  }
}
layer {
  name: "pool2/3x3_s2"
  type: "Pooling"
  bottom: "conv2/norm2"
  top: "pool2/3x3_s2"
  pooling_param {
    pool: MAX
    kernel_size: 3
    stride: 2
  }
}
layer {
  name: "inception_3a/1x1"
  type: "Convolution"
  bottom: "pool2/3x3_s2"
  top: "inception_3a/1x1"
  param {
    lr_mult: 1
    decay_mult: 1
  }
  param {
    lr_mult: 2
    decay_mult: 0
  }
  convolution_param {
    num_output: 64
    kernel_size: 1
    weight_filler {
      type: "xavier"
      std: 0.03
    }
    bias_filler {
      type: "constant"
      value: 0.2
    }
  }
}
layer {
  name: "inception_3a/relu_1x1"
  type: "ReLU"
  bottom: "inception_3a/1x1"
  top: "inception_3a/1x1"
}
layer {
  name: "inception_3a/3x3_reduce"
  type: "Convolution"
  bottom: "pool2/3x3_s2"
  top: "inception_3a/3x3_reduce"
  param {
    lr_mult: 1
    decay_mult: 1
  }
  param {
    lr_mult: 2
    decay_mult: 0
  }
  convolution_param {
    num_output: 96
    kernel_size: 1
    weight_filler {
      type: "xavier"
      std: 0.09
    }
    bias_filler {
      type: "constant"
      value: 0.2
    }
  }
}
layer {
  name: "inception_3a/relu_3x3_reduce"
  type: "ReLU"
  bottom: "inception_3a/3x3_reduce"
  top: "inception_3a/3x3_reduce"
}
layer {
  name: "inception_3a/3x3"
  type: "Convolution"
  bottom: "inception_3a/3x3_reduce"
  top: "inception_3a/3x3"
  param {
    lr_mult: 1
    decay_mult: 1
  }
  param {
    lr_mult: 2
    decay_mult: 0
  }
  convolution_param {
    num_output: 128
    pad: 1
    kernel_size: 3
    weight_filler {
      type: "xavier"
      std: 0.03
    }
    bias_filler {
      type: "constant"
      value: 0.2
    }
  }
}
layer {
  name: "inception_3a/relu_3x3"
  type: "ReLU"
  bottom: "inception_3a/3x3"
  top: "inception_3a/3x3"
}
layer {
  name: "inception_3a/5x5_reduce"
  type: "Convolution"
  bottom: "pool2/3x3_s2"
  top: "inception_3a/5x5_reduce"
  param {
    lr_mult: 1
    decay_mult: 1
  }
  param {
    lr_mult: 2
    decay_mult: 0
  }
  convolution_param {
    num_output: 16
    kernel_size: 1
    weight_filler {
      type: "xavier"
      std: 0.2
    }
    bias_filler {
      type: "constant"
      value: 0.2
    }
  }
}
layer {
  name: "inception_3a/relu_5x5_reduce"
  type: "ReLU"
  bottom: "inception_3a/5x5_reduce"
  top: "inception_3a/5x5_reduce"
}
layer {
  name: "inception_3a/5x5"
  type: "Convolution"
  bottom: "inception_3a/5x5_reduce"
  top: "inception_3a/5x5"
  param {
    lr_mult: 1
    decay_mult: 1
  }
  param {
    lr_mult: 2
    decay_mult: 0
  }
  convolution_param {
    num_output: 32
    pad: 2
    kernel_size: 5
    weight_filler {
      type: "xavier"
      std: 0.03
    }
    bias_filler {
      type: "constant"
      value: 0.2
    }
  }
}
layer {
  name: "inception_3a/relu_5x5"
  type: "ReLU"
  bottom: "inception_3a/5x5"
  top: "inception_3a/5x5"
}
layer {
  name: "inception_3a/pool"
  type: "Pooling"
  bottom: "pool2/3x3_s2"
  top: "inception_3a/pool"
  pooling_param {
    pool: MAX
    kernel_size: 3
    stride: 1
    pad: 1
  }
}
layer {
  name: "inception_3a/pool_proj"
  type: "Convolution"
  bottom: "inception_3a/pool"
  top: "inception_3a/pool_proj"
  param {
    lr_mult: 1
    decay_mult: 1
  }
  param {
    lr_mult: 2
    decay_mult: 0
  }
  convolution_param {
    num_output: 32
    kernel_size: 1
    weight_filler {
      type: "xavier"
      std: 0.1
    }
    bias_filler {
      type: "constant"
      value: 0.2
    }
  }
}
layer {
  name: "inception_3a/relu_pool_proj"
  type: "ReLU"
  bottom: "inception_3a/pool_proj"
  top: "inception_3a/pool_proj"
}
layer {
  name: "inception_3a/output"
  type: "Concat"
  bottom: "inception_3a/1x1"
  bottom: "inception_3a/3x3"
  bottom: "inception_3a/5x5"
  bottom: "inception_3a/pool_proj"
  top: "inception_3a/output"
}
layer {
  name: "inception_3b/1x1"
  type: "Convolution"
  bottom: "inception_3a/output"
  top: "inception_3b/1x1"
  param {
    lr_mult: 1
    decay_mult: 1
  }
  param {
    lr_mult: 2
    decay_mult: 0
  }
  convolution_param {
    num_output: 128
    kernel_size: 1
    weight_filler {
      type: "xavier"
      std: 0.03
    }
    bias_filler {
      type: "constant"
      value: 0.2
    }
  }
}
layer {
  name: "inception_3b/relu_1x1"
  type: "ReLU"
  bottom: "inception_3b/1x1"
  top: "inception_3b/1x1"
}
layer {
  name: "inception_3b/3x3_reduce"
  type: "Convolution"
  bottom: "inception_3a/output"
  top: "inception_3b/3x3_reduce"
  param {
    lr_mult: 1
    decay_mult: 1
  }
  param {
    lr_mult: 2
    decay_mult: 0
  }
  convolution_param {
    num_output: 128
    kernel_size: 1
    weight_filler {
      type: "xavier"
      std: 0.09
    }
    bias_filler {
      type: "constant"
      value: 0.2
    }
  }
}
layer {
  name: "inception_3b/relu_3x3_reduce"
  type: "ReLU"
  bottom: "inception_3b/3x3_reduce"
  top: "inception_3b/3x3_reduce"
}
layer {
  name: "inception_3b/3x3"
  type: "Convolution"
  bottom: "inception_3b/3x3_reduce"
  top: "inception_3b/3x3"
  param {
    lr_mult: 1
    decay_mult: 1
  }
  param {
    lr_mult: 2
    decay_mult: 0
  }
  convolution_param {
    num_output: 192
    pad: 1
    kernel_size: 3
    weight_filler {
      type: "xavier"
      std: 0.03
    }
    bias_filler {
      type: "constant"
      value: 0.2
    }
  }
}
layer {
  name: "inception_3b/relu_3x3"
  type: "ReLU"
  bottom: "inception_3b/3x3"
  top: "inception_3b/3x3"
}
layer {
  name: "inception_3b/5x5_reduce"
  type: "Convolution"
  bottom: "inception_3a/output"
  top: "inception_3b/5x5_reduce"
  param {
    lr_mult: 1
    decay_mult: 1
  }
  param {
    lr_mult: 2
    decay_mult: 0
  }
  convolution_param {
    num_output: 32
    kernel_size: 1
    weight_filler {
      type: "xavier"
      std: 0.2
    }
    bias_filler {
      type: "constant"
      value: 0.2
    }
  }
}
layer {
  name: "inception_3b/relu_5x5_reduce"
  type: "ReLU"
  bottom: "inception_3b/5x5_reduce"
  top: "inception_3b/5x5_reduce"
}
layer {
  name: "inception_3b/5x5"
  type: "Convolution"
  bottom: "inception_3b/5x5_reduce"
  top: "inception_3b/5x5"
  param {
    lr_mult: 1
    decay_mult: 1
  }
  param {
    lr_mult: 2
    decay_mult: 0
  }
  convolution_param {
    num_output: 96
    pad: 2
    kernel_size: 5
    weight_filler {
      type: "xavier"
      std: 0.03
    }
    bias_filler {
      type: "constant"
      value: 0.2
    }
  }
}
layer {
  name: "inception_3b/relu_5x5"
  type: "ReLU"
  bottom: "inception_3b/5x5"
  top: "inception_3b/5x5"
}
layer {
  name: "inception_3b/pool"
  type: "Pooling"
  bottom: "inception_3a/output"
  top: "inception_3b/pool"
  pooling_param {
    pool: MAX
    kernel_size: 3
    stride: 1
    pad: 1
  }
}
layer {
  name: "inception_3b/pool_proj"
  type: "Convolution"
  bottom: "inception_3b/pool"
  top: "inception_3b/pool_proj"
  param {
    lr_mult: 1
    decay_mult: 1
  }
  param {
    lr_mult: 2
    decay_mult: 0
  }
  convolution_param {
    num_output: 64
    kernel_size: 1
    weight_filler {
      type: "xavier"
      std: 0.1
    }
    bias_filler {
      type: "constant"
      value: 0.2
    }
  }
}
layer {
  name: "inception_3b/relu_pool_proj"
  type: "ReLU"
  bottom: "inception_3b/pool_proj"
  top: "inception_3b/pool_proj"
}
layer {
  name: "inception_3b/output"
  type: "Concat"
  bottom: "inception_3b/1x1"
  bottom: "inception_3b/3x3"
  bottom: "inception_3b/5x5"
  bottom: "inception_3b/pool_proj"
  top: "inception_3b/output"
}
layer {
  name: "pool3/3x3_s2"
  type: "Pooling"
  bottom: "inception_3b/output"
  top: "pool3/3x3_s2"
  pooling_param {
    pool: MAX
    kernel_size: 3
    stride: 2
  }
}
layer {
  name: "inception_4a/1x1"
  type: "Convolution"
  bottom: "pool3/3x3_s2"
  top: "inception_4a/1x1"
  param {
    lr_mult: 1
    decay_mult: 1
  }
  param {
    lr_mult: 2
    decay_mult: 0
  }
  convolution_param {
    num_output: 192
    kernel_size: 1
    weight_filler {
      type: "xavier"
      std: 0.03
    }
    bias_filler {
      type: "constant"
      value: 0.2
    }
  }
}
layer {
  name: "inception_4a/relu_1x1"
  type: "ReLU"
  bottom: "inception_4a/1x1"
  top: "inception_4a/1x1"
}
layer {
  name: "inception_4a/3x3_reduce"
  type: "Convolution"
  bottom: "pool3/3x3_s2"
  top: "inception_4a/3x3_reduce"
  param {
    lr_mult: 1
    decay_mult: 1
  }
  param {
    lr_mult: 2
    decay_mult: 0
  }
  convolution_param {
    num_output: 96
    kernel_size: 1
    weight_filler {
      type: "xavier"
      std: 0.09
    }
    bias_filler {
      type: "constant"
      value: 0.2
    }
  }
}
layer {
  name: "inception_4a/relu_3x3_reduce"
  type: "ReLU"
  bottom: "inception_4a/3x3_reduce"
  top: "inception_4a/3x3_reduce"
}
layer {
  name: "inception_4a/3x3"
  type: "Convolution"
  bottom: "inception_4a/3x3_reduce"
  top: "inception_4a/3x3"
  param {
    lr_mult: 1
    decay_mult: 1
  }
  param {
    lr_mult: 2
    decay_mult: 0
  }
  convolution_param {
    num_output: 208
    pad: 1
    kernel_size: 3
    weight_filler {
      type: "xavier"
      std: 0.03
    }
    bias_filler {
      type: "constant"
      value: 0.2
    }
  }
}
layer {
  name: "inception_4a/relu_3x3"
  type: "ReLU"
  bottom: "inception_4a/3x3"
  top: "inception_4a/3x3"
}
layer {
  name: "inception_4a/5x5_reduce"
  type: "Convolution"
  bottom: "pool3/3x3_s2"
  top: "inception_4a/5x5_reduce"
  param {
    lr_mult: 1
    decay_mult: 1
  }
  param {
    lr_mult: 2
    decay_mult: 0
  }
  convolution_param {
    num_output: 16
    kernel_size: 1
    weight_filler {
      type: "xavier"
      std: 0.2
    }
    bias_filler {
      type: "constant"
      value: 0.2
    }
  }
}
layer {
  name: "inception_4a/relu_5x5_reduce"
  type: "ReLU"
  bottom: "inception_4a/5x5_reduce"
  top: "inception_4a/5x5_reduce"
}
layer {
  name: "inception_4a/5x5"
  type: "Convolution"
  bottom: "inception_4a/5x5_reduce"
  top: "inception_4a/5x5"
  param {
    lr_mult: 1
    decay_mult: 1
  }
  param {
    lr_mult: 2
    decay_mult: 0
  }
  convolution_param {
    num_output: 48
    pad: 2
    kernel_size: 5
    weight_filler {
      type: "xavier"
      std: 0.03
    }
    bias_filler {
      type: "constant"
      value: 0.2
    }
  }
}
layer {
  name: "inception_4a/relu_5x5"
  type: "ReLU"
  bottom: "inception_4a/5x5"
  top: "inception_4a/5x5"
}
layer {
  name: "inception_4a/pool"
  type: "Pooling"
  bottom: "pool3/3x3_s2"
  top: "inception_4a/pool"
  pooling_param {
    pool: MAX
    kernel_size: 3
    stride: 1
    pad: 1
  }
}
layer {
  name: "inception_4a/pool_proj"
  type: "Convolution"
  bottom: "inception_4a/pool"
  top: "inception_4a/pool_proj"
  param {
    lr_mult: 1
    decay_mult: 1
  }
  param {
    lr_mult: 2
    decay_mult: 0
  }
  convolution_param {
    num_output: 64
    kernel_size: 1
    weight_filler {
      type: "xavier"
      std: 0.1
    }
    bias_filler {
      type: "constant"
      value: 0.2
    }
  }
}
layer {
  name: "inception_4a/relu_pool_proj"
  type: "ReLU"
  bottom: "inception_4a/pool_proj"
  top: "inception_4a/pool_proj"
}
layer {
  name: "inception_4a/output"
  type: "Concat"
  bottom: "inception_4a/1x1"
  bottom: "inception_4a/3x3"
  bottom: "inception_4a/5x5"
  bottom: "inception_4a/pool_proj"
  top: "inception_4a/output"
}
layer {
  name: "loss1/ave_pool"
  type: "Pooling"
  bottom: "inception_4a/output"
  top: "loss1/ave_pool"
  pooling_param {
    pool: AVE
    kernel_size: 2
    stride: 1
  }
}
layer {
  name: "loss1/conv"
  type: "Convolution"
  bottom: "loss1/ave_pool"
  top: "loss1/conv"
  param {
    lr_mult: 1
    decay_mult: 1
  }
  param {
    lr_mult: 2
    decay_mult: 0
  }
  convolution_param {
    num_output: 128
    kernel_size: 1
    weight_filler {
      type: "xavier"
      std: 0.08
    }
    bias_filler {
      type: "constant"
      value: 0.2
    }
  }
}
layer {
  name: "loss1/relu_conv"
  type: "ReLU"
  bottom: "loss1/conv"
  top: "loss1/conv"
}
layer {
  name: "loss1/fc"
  type: "InnerProduct"
  bottom: "loss1/conv"
  top: "loss1/fc"
  param {
    lr_mult: 1
    decay_mult: 1
  }
  param {
    lr_mult: 2
    decay_mult: 0
  }
  inner_product_param {
    num_output: 1024
    weight_filler {
      type: "xavier"
      std: 0.02
    }
    bias_filler {
      type: "constant"
      value: 0.2
    }
  }
}
layer {
  name: "loss1/relu_fc"
  type: "ReLU"
  bottom: "loss1/fc"
  top: "loss1/fc"
}
layer {
  name: "loss1/drop_fc"
  type: "Dropout"
  bottom: "loss1/fc"
  top: "loss1/fc"
  dropout_param {
    dropout_ratio: 0.7
  }
}
layer {
  name: "loss1/classifier"
  type: "InnerProduct"
  bottom: "loss1/fc"
  top: "loss1/classifier"
  param {
    lr_mult: 1
    decay_mult: 1
  }
  param {
    lr_mult: 2
    decay_mult: 0
  }
  inner_product_param {
    num_output: 10
    weight_filler {
      type: "xavier"
      std: 0.0009765625
    }
    bias_filler {
      type: "constant"
      value: 0
    }
  }
}
layer {
  name: "loss1/loss"
  type: "SoftmaxWithLoss"
  bottom: "loss1/classifier"
  bottom: "label"
  top: "loss1/loss"
  loss_weight: 0.3
}
layer {
  name: "inception_4b/1x1"
  type: "Convolution"
  bottom: "inception_4a/output"
  top: "inception_4b/1x1"
  param {
    lr_mult: 1
    decay_mult: 1
  }
  param {
    lr_mult: 2
    decay_mult: 0
  }
  convolution_param {
    num_output: 160
    kernel_size: 1
    weight_filler {
      type: "xavier"
      std: 0.03
    }
    bias_filler {
      type: "constant"
      value: 0.2
    }
  }
}
layer {
  name: "inception_4b/relu_1x1"
  type: "ReLU"
  bottom: "inception_4b/1x1"
  top: "inception_4b/1x1"
}
layer {
  name: "inception_4b/3x3_reduce"
  type: "Convolution"
  bottom: "inception_4a/output"
  top: "inception_4b/3x3_reduce"
  param {
    lr_mult: 1
    decay_mult: 1
  }
  param {
    lr_mult: 2
    decay_mult: 0
  }
  convolution_param {
    num_output: 112
    kernel_size: 1
    weight_filler {
      type: "xavier"
      std: 0.09
    }
    bias_filler {
      type: "constant"
      value: 0.2
    }
  }
}
layer {
  name: "inception_4b/relu_3x3_reduce"
  type: "ReLU"
  bottom: "inception_4b/3x3_reduce"
  top: "inception_4b/3x3_reduce"
}
layer {
  name: "inception_4b/3x3"
  type: "Convolution"
  bottom: "inception_4b/3x3_reduce"
  top: "inception_4b/3x3"
  param {
    lr_mult: 1
    decay_mult: 1
  }
  param {
    lr_mult: 2
    decay_mult: 0
  }
  convolution_param {
    num_output: 224
    pad: 1
    kernel_size: 3
    weight_filler {
      type: "xavier"
      std: 0.03
    }
    bias_filler {
      type: "constant"
      value: 0.2
    }
  }
}
layer {
  name: "inception_4b/relu_3x3"
  type: "ReLU"
  bottom: "inception_4b/3x3"
  top: "inception_4b/3x3"
}
layer {
  name: "inception_4b/5x5_reduce"
  type: "Convolution"
  bottom: "inception_4a/output"
  top: "inception_4b/5x5_reduce"
  param {
    lr_mult: 1
    decay_mult: 1
  }
  param {
    lr_mult: 2
    decay_mult: 0
  }
  convolution_param {
    num_output: 24
    kernel_size: 1
    weight_filler {
      type: "xavier"
      std: 0.2
    }
    bias_filler {
      type: "constant"
      value: 0.2
    }
  }
}
layer {
  name: "inception_4b/relu_5x5_reduce"
  type: "ReLU"
  bottom: "inception_4b/5x5_reduce"
  top: "inception_4b/5x5_reduce"
}
layer {
  name: "inception_4b/5x5"
  type: "Convolution"
  bottom: "inception_4b/5x5_reduce"
  top: "inception_4b/5x5"
  param {
    lr_mult: 1
    decay_mult: 1
  }
  param {
    lr_mult: 2
    decay_mult: 0
  }
  convolution_param {
    num_output: 64
    pad: 2
    kernel_size: 5
    weight_filler {
      type: "xavier"
      std: 0.03
    }
    bias_filler {
      type: "constant"
      value: 0.2
    }
  }
}
layer {
  name: "inception_4b/relu_5x5"
  type: "ReLU"
  bottom: "inception_4b/5x5"
  top: "inception_4b/5x5"
}
layer {
  name: "inception_4b/pool"
  type: "Pooling"
  bottom: "inception_4a/output"
  top: "inception_4b/pool"
  pooling_param {
    pool: MAX
    kernel_size: 3
    stride: 1
    pad: 1
  }
}
layer {
  name: "inception_4b/pool_proj"
  type: "Convolution"
  bottom: "inception_4b/pool"
  top: "inception_4b/pool_proj"
  param {
    lr_mult: 1
    decay_mult: 1
  }
  param {
    lr_mult: 2
    decay_mult: 0
  }
  convolution_param {
    num_output: 64
    kernel_size: 1
    weight_filler {
      type: "xavier"
      std: 0.1
    }
    bias_filler {
      type: "constant"
      value: 0.2
    }
  }
}
layer {
  name: "inception_4b/relu_pool_proj"
  type: "ReLU"
  bottom: "inception_4b/pool_proj"
  top: "inception_4b/pool_proj"
}
layer {
  name: "inception_4b/output"
  type: "Concat"
  bottom: "inception_4b/1x1"
  bottom: "inception_4b/3x3"
  bottom: "inception_4b/5x5"
  bottom: "inception_4b/pool_proj"
  top: "inception_4b/output"
}
layer {
  name: "inception_4c/1x1"
  type: "Convolution"
  bottom: "inception_4b/output"
  top: "inception_4c/1x1"
  param {
    lr_mult: 1
    decay_mult: 1
  }
  param {
    lr_mult: 2
    decay_mult: 0
  }
  convolution_param {
    num_output: 128
    kernel_size: 1
    weight_filler {
      type: "xavier"
      std: 0.03
    }
    bias_filler {
      type: "constant"
      value: 0.2
    }
  }
}
layer {
  name: "inception_4c/relu_1x1"
  type: "ReLU"
  bottom: "inception_4c/1x1"
  top: "inception_4c/1x1"
}
layer {
  name: "inception_4c/3x3_reduce"
  type: "Convolution"
  bottom: "inception_4b/output"
  top: "inception_4c/3x3_reduce"
  param {
    lr_mult: 1
    decay_mult: 1
  }
  param {
    lr_mult: 2
    decay_mult: 0
  }
  convolution_param {
    num_output: 128
    kernel_size: 1
    weight_filler {
      type: "xavier"
      std: 0.09
    }
    bias_filler {
      type: "constant"
      value: 0.2
    }
  }
}
layer {
  name: "inception_4c/relu_3x3_reduce"
  type: "ReLU"
  bottom: "inception_4c/3x3_reduce"
  top: "inception_4c/3x3_reduce"
}
layer {
  name: "inception_4c/3x3"
  type: "Convolution"
  bottom: "inception_4c/3x3_reduce"
  top: "inception_4c/3x3"
  param {
    lr_mult: 1
    decay_mult: 1
  }
  param {
    lr_mult: 2
    decay_mult: 0
  }
  convolution_param {
    num_output: 256
    pad: 1
    kernel_size: 3
    weight_filler {
      type: "xavier"
      std: 0.03
    }
    bias_filler {
      type: "constant"
      value: 0.2
    }
  }
}
layer {
  name: "inception_4c/relu_3x3"
  type: "ReLU"
  bottom: "inception_4c/3x3"
  top: "inception_4c/3x3"
}
layer {
  name: "inception_4c/5x5_reduce"
  type: "Convolution"
  bottom: "inception_4b/output"
  top: "inception_4c/5x5_reduce"
  param {
    lr_mult: 1
    decay_mult: 1
  }
  param {
    lr_mult: 2
    decay_mult: 0
  }
  convolution_param {
    num_output: 24
    kernel_size: 1
    weight_filler {
      type: "xavier"
      std: 0.2
    }
    bias_filler {
      type: "constant"
      value: 0.2
    }
  }
}
layer {
  name: "inception_4c/relu_5x5_reduce"
  type: "ReLU"
  bottom: "inception_4c/5x5_reduce"
  top: "inception_4c/5x5_reduce"
}
layer {
  name: "inception_4c/5x5"
  type: "Convolution"
  bottom: "inception_4c/5x5_reduce"
  top: "inception_4c/5x5"
  param {
    lr_mult: 1
    decay_mult: 1
  }
  param {
    lr_mult: 2
    decay_mult: 0
  }
  convolution_param {
    num_output: 64
    pad: 2
    kernel_size: 5
    weight_filler {
      type: "xavier"
      std: 0.03
    }
    bias_filler {
      type: "constant"
      value: 0.2
    }
  }
}
layer {
  name: "inception_4c/relu_5x5"
  type: "ReLU"
  bottom: "inception_4c/5x5"
  top: "inception_4c/5x5"
}
layer {
  name: "inception_4c/pool"
  type: "Pooling"
  bottom: "inception_4b/output"
  top: "inception_4c/pool"
  pooling_param {
    pool: MAX
    kernel_size: 3
    stride: 1
    pad: 1
  }
}
layer {
  name: "inception_4c/pool_proj"
  type: "Convolution"
  bottom: "inception_4c/pool"
  top: "inception_4c/pool_proj"
  param {
    lr_mult: 1
    decay_mult: 1
  }
  param {
    lr_mult: 2
    decay_mult: 0
  }
  convolution_param {
    num_output: 64
    kernel_size: 1
    weight_filler {
      type: "xavier"
      std: 0.1
    }
    bias_filler {
      type: "constant"
      value: 0.2
    }
  }
}
layer {
  name: "inception_4c/relu_pool_proj"
  type: "ReLU"
  bottom: "inception_4c/pool_proj"
  top: "inception_4c/pool_proj"
}
layer {
  name: "inception_4c/output"
  type: "Concat"
  bottom: "inception_4c/1x1"
  bottom: "inception_4c/3x3"
  bottom: "inception_4c/5x5"
  bottom: "inception_4c/pool_proj"
  top: "inception_4c/output"
}
layer {
  name: "inception_4d/1x1"
  type: "Convolution"
  bottom: "inception_4c/output"
  top: "inception_4d/1x1"
  param {
    lr_mult: 1
    decay_mult: 1
  }
  param {
    lr_mult: 2
    decay_mult: 0
  }
  convolution_param {
    num_output: 112
    kernel_size: 1
    weight_filler {
      type: "xavier"
      std: 0.03
    }
    bias_filler {
      type: "constant"
      value: 0.2
    }
  }
}
layer {
  name: "inception_4d/relu_1x1"
  type: "ReLU"
  bottom: "inception_4d/1x1"
  top: "inception_4d/1x1"
}
layer {
  name: "inception_4d/3x3_reduce"
  type: "Convolution"
  bottom: "inception_4c/output"
  top: "inception_4d/3x3_reduce"
  param {
    lr_mult: 1
    decay_mult: 1
  }
  param {
    lr_mult: 2
    decay_mult: 0
  }
  convolution_param {
    num_output: 144
    kernel_size: 1
    weight_filler {
      type: "xavier"
      std: 0.09
    }
    bias_filler {
      type: "constant"
      value: 0.2
    }
  }
}
layer {
  name: "inception_4d/relu_3x3_reduce"
  type: "ReLU"
  bottom: "inception_4d/3x3_reduce"
  top: "inception_4d/3x3_reduce"
}
layer {
  name: "inception_4d/3x3"
  type: "Convolution"
  bottom: "inception_4d/3x3_reduce"
  top: "inception_4d/3x3"
  param {
    lr_mult: 1
    decay_mult: 1
  }
  param {
    lr_mult: 2
    decay_mult: 0
  }
  convolution_param {
    num_output: 288
    pad: 1
    kernel_size: 3
    weight_filler {
      type: "xavier"
      std: 0.03
    }
    bias_filler {
      type: "constant"
      value: 0.2
    }
  }
}
layer {
  name: "inception_4d/relu_3x3"
  type: "ReLU"
  bottom: "inception_4d/3x3"
  top: "inception_4d/3x3"
}
layer {
  name: "inception_4d/5x5_reduce"
  type: "Convolution"
  bottom: "inception_4c/output"
  top: "inception_4d/5x5_reduce"
  param {
    lr_mult: 1
    decay_mult: 1
  }
  param {
    lr_mult: 2
    decay_mult: 0
  }
  convolution_param {
    num_output: 32
    kernel_size: 1
    weight_filler {
      type: "xavier"
      std: 0.2
    }
    bias_filler {
      type: "constant"
      value: 0.2
    }
  }
}
layer {
  name: "inception_4d/relu_5x5_reduce"
  type: "ReLU"
  bottom: "inception_4d/5x5_reduce"
  top: "inception_4d/5x5_reduce"
}
layer {
  name: "inception_4d/5x5"
  type: "Convolution"
  bottom: "inception_4d/5x5_reduce"
  top: "inception_4d/5x5"
  param {
    lr_mult: 1
    decay_mult: 1
  }
  param {
    lr_mult: 2
    decay_mult: 0
  }
  convolution_param {
    num_output: 64
    pad: 2
    kernel_size: 5
    weight_filler {
      type: "xavier"
      std: 0.03
    }
    bias_filler {
      type: "constant"
      value: 0.2
    }
  }
}
layer {
  name: "inception_4d/relu_5x5"
  type: "ReLU"
  bottom: "inception_4d/5x5"
  top: "inception_4d/5x5"
}
layer {
  name: "inception_4d/pool"
  type: "Pooling"
  bottom: "inception_4c/output"
  top: "inception_4d/pool"
  pooling_param {
    pool: MAX
    kernel_size: 3
    stride: 1
    pad: 1
  }
}
layer {
  name: "inception_4d/pool_proj"
  type: "Convolution"
  bottom: "inception_4d/pool"
  top: "inception_4d/pool_proj"
  param {
    lr_mult: 1
    decay_mult: 1
  }
  param {
    lr_mult: 2
    decay_mult: 0
  }
  convolution_param {
    num_output: 64
    kernel_size: 1
    weight_filler {
      type: "xavier"
      std: 0.1
    }
    bias_filler {
      type: "constant"
      value: 0.2
    }
  }
}
layer {
  name: "inception_4d/relu_pool_proj"
  type: "ReLU"
  bottom: "inception_4d/pool_proj"
  top: "inception_4d/pool_proj"
}
layer {
  name: "inception_4d/output"
  type: "Concat"
  bottom: "inception_4d/1x1"
  bottom: "inception_4d/3x3"
  bottom: "inception_4d/5x5"
  bottom: "inception_4d/pool_proj"
  top: "inception_4d/output"
}
layer {
  name: "loss2/ave_pool"
  type: "Pooling"
  bottom: "inception_4d/output"
  top: "loss2/ave_pool"
  pooling_param {
    pool: AVE
    kernel_size: 2
    stride: 1
  }
}
layer {
  name: "loss2/conv"
  type: "Convolution"
  bottom: "loss2/ave_pool"
  top: "loss2/conv"
  param {
    lr_mult: 1
    decay_mult: 1
  }
  param {
    lr_mult: 2
    decay_mult: 0
  }
  convolution_param {
    num_output: 128
    kernel_size: 1
    weight_filler {
      type: "xavier"
      std: 0.08
    }
    bias_filler {
      type: "constant"
      value: 0.2
    }
  }
}
layer {
  name: "loss2/relu_conv"
  type: "ReLU"
  bottom: "loss2/conv"
  top: "loss2/conv"
}
layer {
  name: "loss2/fc"
  type: "InnerProduct"
  bottom: "loss2/conv"
  top: "loss2/fc"
  param {
    lr_mult: 1
    decay_mult: 1
  }
  param {
    lr_mult: 2
    decay_mult: 0
  }
  inner_product_param {
    num_output: 1024
    weight_filler {
      type: "xavier"
      std: 0.02
    }
    bias_filler {
      type: "constant"
      value: 0.2
    }
  }
}
layer {
  name: "loss2/relu_fc"
  type: "ReLU"
  bottom: "loss2/fc"
  top: "loss2/fc"
}
layer {
  name: "loss2/drop_fc"
  type: "Dropout"
  bottom: "loss2/fc"
  top: "loss2/fc"
  dropout_param {
    dropout_ratio: 0.7
  }
}
layer {
  name: "loss2/classifier"
  type: "InnerProduct"
  bottom: "loss2/fc"
  top: "loss2/classifier"
  param {
    lr_mult: 1
    decay_mult: 1
  }
  param {
    lr_mult: 2
    decay_mult: 0
  }
  inner_product_param {
    num_output: 10
    weight_filler {
      type: "xavier"
      std: 0.0009765625
    }
    bias_filler {
      type: "constant"
      value: 0
    }
  }
}
layer {
  name: "loss2/loss"
  type: "SoftmaxWithLoss"
  bottom: "loss2/classifier"
  bottom: "label"
  top: "loss2/loss"
  loss_weight: 0.3
}
layer {
  name: "inception_4e/1x1"
  type: "Convolution"
  bottom: "inception_4d/output"
  top: "inception_4e/1x1"
  param {
    lr_mult: 1
    decay_mult: 1
  }
  param {
    lr_mult: 2
    decay_mult: 0
  }
  convolution_param {
    num_output: 256
    kernel_size: 1
    weight_filler {
      type: "xavier"
      std: 0.03
    }
    bias_filler {
      type: "constant"
      value: 0.2
    }
  }
}
layer {
  name: "inception_4e/relu_1x1"
  type: "ReLU"
  bottom: "inception_4e/1x1"
  top: "inception_4e/1x1"
}
layer {
  name: "inception_4e/3x3_reduce"
  type: "Convolution"
  bottom: "inception_4d/output"
  top: "inception_4e/3x3_reduce"
  param {
    lr_mult: 1
    decay_mult: 1
  }
  param {
    lr_mult: 2
    decay_mult: 0
  }
  convolution_param {
    num_output: 160
    kernel_size: 1
    weight_filler {
      type: "xavier"
      std: 0.09
    }
    bias_filler {
      type: "constant"
      value: 0.2
    }
  }
}
layer {
  name: "inception_4e/relu_3x3_reduce"
  type: "ReLU"
  bottom: "inception_4e/3x3_reduce"
  top: "inception_4e/3x3_reduce"
}
layer {
  name: "inception_4e/3x3"
  type: "Convolution"
  bottom: "inception_4e/3x3_reduce"
  top: "inception_4e/3x3"
  param {
    lr_mult: 1
    decay_mult: 1
  }
  param {
    lr_mult: 2
    decay_mult: 0
  }
  convolution_param {
    num_output: 320
    pad: 1
    kernel_size: 3
    weight_filler {
      type: "xavier"
      std: 0.03
    }
    bias_filler {
      type: "constant"
      value: 0.2
    }
  }
}
layer {
  name: "inception_4e/relu_3x3"
  type: "ReLU"
  bottom: "inception_4e/3x3"
  top: "inception_4e/3x3"
}
layer {
  name: "inception_4e/5x5_reduce"
  type: "Convolution"
  bottom: "inception_4d/output"
  top: "inception_4e/5x5_reduce"
  param {
    lr_mult: 1
    decay_mult: 1
  }
  param {
    lr_mult: 2
    decay_mult: 0
  }
  convolution_param {
    num_output: 32
    kernel_size: 1
    weight_filler {
      type: "xavier"
      std: 0.2
    }
    bias_filler {
      type: "constant"
      value: 0.2
    }
  }
}
layer {
  name: "inception_4e/relu_5x5_reduce"
I1104 10:45:10.852990 27012 layer_factory.hpp:77] Creating layer cifar
I1104 10:45:10.853401 27012 net.cpp:91] Creating Layer cifar
I1104 10:45:10.853407 27012 net.cpp:399] cifar -> data
I1104 10:45:10.853425 27012 net.cpp:399] cifar -> label
I1104 10:45:10.853432 27012 data_transformer.cpp:25] Loading mean file from: examples/cifar10/1parts/mean.binaryproto.0
I1104 10:45:10.854421 27025 db_lmdb.cpp:38] Opened lmdb examples/cifar10/1parts/cifar10_train_lmdb.0
I1104 10:45:10.863096 27012 data_layer.cpp:41] output data size: 128,3,32,32
I1104 10:45:10.866014 27012 net.cpp:141] Setting up cifar
I1104 10:45:10.866027 27012 net.cpp:148] Top shape: 128 3 32 32 (393216)
I1104 10:45:10.866030 27012 net.cpp:148] Top shape: 128 (128)
I1104 10:45:10.866031 27012 net.cpp:156] Memory required for data: 1573376
I1104 10:45:10.866055 27012 layer_factory.hpp:77] Creating layer label_cifar_1_split
I1104 10:45:10.866065 27012 net.cpp:91] Creating Layer label_cifar_1_split
I1104 10:45:10.866070 27012 net.cpp:425] label_cifar_1_split <- label
I1104 10:45:10.866077 27012 net.cpp:399] label_cifar_1_split -> label_cifar_1_split_0
I1104 10:45:10.866083 27012 net.cpp:399] label_cifar_1_split -> label_cifar_1_split_1
I1104 10:45:10.866087 27012 net.cpp:399] label_cifar_1_split -> label_cifar_1_split_2
I1104 10:45:10.866120 27012 net.cpp:141] Setting up label_cifar_1_split
I1104 10:45:10.866125 27012 net.cpp:148] Top shape: 128 (128)
I1104 10:45:10.866127 27012 net.cpp:148] Top shape: 128 (128)
I1104 10:45:10.866130 27012 net.cpp:148] Top shape: 128 (128)
I1104 10:45:10.866132 27012 net.cpp:156] Memory required for data: 1574912
I1104 10:45:10.866143 27012 layer_factory.hpp:77] Creating layer conv1/7x7_s2
I1104 10:45:10.866153 27012 net.cpp:91] Creating Layer conv1/7x7_s2
I1104 10:45:10.866156 27012 net.cpp:425] conv1/7x7_s2 <- data
I1104 10:45:10.866161 27012 net.cpp:399] conv1/7x7_s2 -> conv1/7x7_s2
I1104 10:45:10.866878 27012 net.cpp:141] Setting up conv1/7x7_s2
I1104 10:45:10.866888 27012 net.cpp:148] Top shape: 128 64 16 16 (2097152)
I1104 10:45:10.866889 27012 net.cpp:156] Memory required for data: 9963520
I1104 10:45:10.866916 27012 layer_factory.hpp:77] Creating layer conv1/relu_7x7
I1104 10:45:10.866921 27012 net.cpp:91] Creating Layer conv1/relu_7x7
I1104 10:45:10.866925 27012 net.cpp:425] conv1/relu_7x7 <- conv1/7x7_s2
I1104 10:45:10.866927 27012 net.cpp:386] conv1/relu_7x7 -> conv1/7x7_s2 (in-place)
I1104 10:45:10.866932 27012 net.cpp:141] Setting up conv1/relu_7x7
I1104 10:45:10.866935 27012 net.cpp:148] Top shape: 128 64 16 16 (2097152)
I1104 10:45:10.866937 27012 net.cpp:156] Memory required for data: 18352128
I1104 10:45:10.866940 27012 layer_factory.hpp:77] Creating layer pool1/3x3_s2
I1104 10:45:10.866945 27012 net.cpp:91] Creating Layer pool1/3x3_s2
I1104 10:45:10.866946 27012 net.cpp:425] pool1/3x3_s2 <- conv1/7x7_s2
I1104 10:45:10.866950 27012 net.cpp:399] pool1/3x3_s2 -> pool1/3x3_s2
I1104 10:45:10.866973 27012 net.cpp:141] Setting up pool1/3x3_s2
I1104 10:45:10.866977 27012 net.cpp:148] Top shape: 128 64 8 8 (524288)
I1104 10:45:10.866979 27012 net.cpp:156] Memory required for data: 20449280
I1104 10:45:10.866981 27012 layer_factory.hpp:77] Creating layer pool1/norm1
I1104 10:45:10.866986 27012 net.cpp:91] Creating Layer pool1/norm1
I1104 10:45:10.866987 27012 net.cpp:425] pool1/norm1 <- pool1/3x3_s2
I1104 10:45:10.866989 27012 net.cpp:399] pool1/norm1 -> pool1/norm1
I1104 10:45:10.867007 27012 net.cpp:141] Setting up pool1/norm1
I1104 10:45:10.867012 27012 net.cpp:148] Top shape: 128 64 8 8 (524288)
I1104 10:45:10.867013 27012 net.cpp:156] Memory required for data: 22546432
I1104 10:45:10.867015 27012 layer_factory.hpp:77] Creating layer conv2/3x3_reduce
I1104 10:45:10.867019 27012 net.cpp:91] Creating Layer conv2/3x3_reduce
I1104 10:45:10.867023 27012 net.cpp:425] conv2/3x3_reduce <- pool1/norm1
I1104 10:45:10.867027 27012 net.cpp:399] conv2/3x3_reduce -> conv2/3x3_reduce
I1104 10:45:10.867146 27012 net.cpp:141] Setting up conv2/3x3_reduce
I1104 10:45:10.867151 27012 net.cpp:148] Top shape: 128 64 8 8 (524288)
I1104 10:45:10.867154 27012 net.cpp:156] Memory required for data: 24643584
I1104 10:45:10.867158 27012 layer_factory.hpp:77] Creating layer conv2/relu_3x3_reduce
I1104 10:45:10.867161 27012 net.cpp:91] Creating Layer conv2/relu_3x3_reduce
I1104 10:45:10.867163 27012 net.cpp:425] conv2/relu_3x3_reduce <- conv2/3x3_reduce
I1104 10:45:10.867167 27012 net.cpp:386] conv2/relu_3x3_reduce -> conv2/3x3_reduce (in-place)
I1104 10:45:10.867171 27012 net.cpp:141] Setting up conv2/relu_3x3_reduce
I1104 10:45:10.867173 27012 net.cpp:148] Top shape: 128 64 8 8 (524288)
I1104 10:45:10.867175 27012 net.cpp:156] Memory required for data: 26740736
I1104 10:45:10.867177 27012 layer_factory.hpp:77] Creating layer conv2/3x3
I1104 10:45:10.867182 27012 net.cpp:91] Creating Layer conv2/3x3
I1104 10:45:10.867184 27012 net.cpp:425] conv2/3x3 <- conv2/3x3_reduce
I1104 10:45:10.867187 27012 net.cpp:399] conv2/3x3 -> conv2/3x3
I1104 10:45:10.867687 27012 net.cpp:141] Setting up conv2/3x3
I1104 10:45:10.867693 27012 net.cpp:148] Top shape: 128 192 8 8 (1572864)
I1104 10:45:10.867696 27012 net.cpp:156] Memory required for data: 33032192
I1104 10:45:10.867699 27012 layer_factory.hpp:77] Creating layer conv2/relu_3x3
I1104 10:45:10.867703 27012 net.cpp:91] Creating Layer conv2/relu_3x3
I1104 10:45:10.867705 27012 net.cpp:425] conv2/relu_3x3 <- conv2/3x3
I1104 10:45:10.867708 27012 net.cpp:386] conv2/relu_3x3 -> conv2/3x3 (in-place)
I1104 10:45:10.867712 27012 net.cpp:141] Setting up conv2/relu_3x3
I1104 10:45:10.867714 27012 net.cpp:148] Top shape: 128 192 8 8 (1572864)
I1104 10:45:10.867718 27012 net.cpp:156] Memory required for data: 39323648
I1104 10:45:10.867753 27012 layer_factory.hpp:77] Creating layer conv2/norm2
I1104 10:45:10.867758 27012 net.cpp:91] Creating Layer conv2/norm2
I1104 10:45:10.867760 27012 net.cpp:425] conv2/norm2 <- conv2/3x3
I1104 10:45:10.867763 27012 net.cpp:399] conv2/norm2 -> conv2/norm2
I1104 10:45:10.867782 27012 net.cpp:141] Setting up conv2/norm2
I1104 10:45:10.867786 27012 net.cpp:148] Top shape: 128 192 8 8 (1572864)
I1104 10:45:10.867803 27012 net.cpp:156] Memory required for data: 45615104
I1104 10:45:10.867805 27012 layer_factory.hpp:77] Creating layer pool2/3x3_s2
I1104 10:45:10.867810 27012 net.cpp:91] Creating Layer pool2/3x3_s2
I1104 10:45:10.867827 27012 net.cpp:425] pool2/3x3_s2 <- conv2/norm2
I1104 10:45:10.867830 27012 net.cpp:399] pool2/3x3_s2 -> pool2/3x3_s2
I1104 10:45:10.867848 27012 net.cpp:141] Setting up pool2/3x3_s2
I1104 10:45:10.867851 27012 net.cpp:148] Top shape: 128 192 4 4 (393216)
I1104 10:45:10.867853 27012 net.cpp:156] Memory required for data: 47187968
I1104 10:45:10.867856 27012 layer_factory.hpp:77] Creating layer pool2/3x3_s2_pool2/3x3_s2_0_split
I1104 10:45:10.867859 27012 net.cpp:91] Creating Layer pool2/3x3_s2_pool2/3x3_s2_0_split
I1104 10:45:10.867875 27012 net.cpp:425] pool2/3x3_s2_pool2/3x3_s2_0_split <- pool2/3x3_s2
I1104 10:45:10.867879 27012 net.cpp:399] pool2/3x3_s2_pool2/3x3_s2_0_split -> pool2/3x3_s2_pool2/3x3_s2_0_split_0
I1104 10:45:10.867900 27012 net.cpp:399] pool2/3x3_s2_pool2/3x3_s2_0_split -> pool2/3x3_s2_pool2/3x3_s2_0_split_1
I1104 10:45:10.867904 27012 net.cpp:399] pool2/3x3_s2_pool2/3x3_s2_0_split -> pool2/3x3_s2_pool2/3x3_s2_0_split_2
I1104 10:45:10.867910 27012 net.cpp:399] pool2/3x3_s2_pool2/3x3_s2_0_split -> pool2/3x3_s2_pool2/3x3_s2_0_split_3
I1104 10:45:10.867952 27012 net.cpp:141] Setting up pool2/3x3_s2_pool2/3x3_s2_0_split
I1104 10:45:10.867956 27012 net.cpp:148] Top shape: 128 192 4 4 (393216)
I1104 10:45:10.867959 27012 net.cpp:148] Top shape: 128 192 4 4 (393216)
I1104 10:45:10.867961 27012 net.cpp:148] Top shape: 128 192 4 4 (393216)
I1104 10:45:10.867980 27012 net.cpp:148] Top shape: 128 192 4 4 (393216)
I1104 10:45:10.867982 27012 net.cpp:156] Memory required for data: 53479424
I1104 10:45:10.867985 27012 layer_factory.hpp:77] Creating layer inception_3a/1x1
I1104 10:45:10.867988 27012 net.cpp:91] Creating Layer inception_3a/1x1
I1104 10:45:10.867991 27012 net.cpp:425] inception_3a/1x1 <- pool2/3x3_s2_pool2/3x3_s2_0_split_0
I1104 10:45:10.867995 27012 net.cpp:399] inception_3a/1x1 -> inception_3a/1x1
I1104 10:45:10.868233 27012 net.cpp:141] Setting up inception_3a/1x1
I1104 10:45:10.868238 27012 net.cpp:148] Top shape: 128 64 4 4 (131072)
I1104 10:45:10.868240 27012 net.cpp:156] Memory required for data: 54003712
I1104 10:45:10.868244 27012 layer_factory.hpp:77] Creating layer inception_3a/relu_1x1
I1104 10:45:10.868247 27012 net.cpp:91] Creating Layer inception_3a/relu_1x1
I1104 10:45:10.868249 27012 net.cpp:425] inception_3a/relu_1x1 <- inception_3a/1x1
I1104 10:45:10.868253 27012 net.cpp:386] inception_3a/relu_1x1 -> inception_3a/1x1 (in-place)
I1104 10:45:10.868283 27012 net.cpp:141] Setting up inception_3a/relu_1x1
I1104 10:45:10.868285 27012 net.cpp:148] Top shape: 128 64 4 4 (131072)
I1104 10:45:10.868288 27012 net.cpp:156] Memory required for data: 54528000
I1104 10:45:10.868289 27012 layer_factory.hpp:77] Creating layer inception_3a/3x3_reduce
I1104 10:45:10.868309 27012 net.cpp:91] Creating Layer inception_3a/3x3_reduce
I1104 10:45:10.868312 27012 net.cpp:425] inception_3a/3x3_reduce <- pool2/3x3_s2_pool2/3x3_s2_0_split_1
I1104 10:45:10.868330 27012 net.cpp:399] inception_3a/3x3_reduce -> inception_3a/3x3_reduce
I1104 10:45:10.868960 27012 net.cpp:141] Setting up inception_3a/3x3_reduce
I1104 10:45:10.868968 27012 net.cpp:148] Top shape: 128 96 4 4 (196608)
I1104 10:45:10.868970 27012 net.cpp:156] Memory required for data: 55314432
I1104 10:45:10.868993 27012 layer_factory.hpp:77] Creating layer inception_3a/relu_3x3_reduce
I1104 10:45:10.868999 27012 net.cpp:91] Creating Layer inception_3a/relu_3x3_reduce
I1104 10:45:10.869002 27012 net.cpp:425] inception_3a/relu_3x3_reduce <- inception_3a/3x3_reduce
I1104 10:45:10.869014 27012 net.cpp:386] inception_3a/relu_3x3_reduce -> inception_3a/3x3_reduce (in-place)
I1104 10:45:10.869019 27012 net.cpp:141] Setting up inception_3a/relu_3x3_reduce
I1104 10:45:10.869022 27012 net.cpp:148] Top shape: 128 96 4 4 (196608)
I1104 10:45:10.869024 27012 net.cpp:156] Memory required for data: 56100864
I1104 10:45:10.869026 27012 layer_factory.hpp:77] Creating layer inception_3a/3x3
I1104 10:45:10.869031 27012 net.cpp:91] Creating Layer inception_3a/3x3
I1104 10:45:10.869035 27012 net.cpp:425] inception_3a/3x3 <- inception_3a/3x3_reduce
I1104 10:45:10.869037 27012 net.cpp:399] inception_3a/3x3 -> inception_3a/3x3
I1104 10:45:10.869529 27012 net.cpp:141] Setting up inception_3a/3x3
I1104 10:45:10.869534 27012 net.cpp:148] Top shape: 128 128 4 4 (262144)
I1104 10:45:10.869536 27012 net.cpp:156] Memory required for data: 57149440
I1104 10:45:10.869540 27012 layer_factory.hpp:77] Creating layer inception_3a/relu_3x3
I1104 10:45:10.869544 27012 net.cpp:91] Creating Layer inception_3a/relu_3x3
I1104 10:45:10.869546 27012 net.cpp:425] inception_3a/relu_3x3 <- inception_3a/3x3
I1104 10:45:10.869550 27012 net.cpp:386] inception_3a/relu_3x3 -> inception_3a/3x3 (in-place)
I1104 10:45:10.869554 27012 net.cpp:141] Setting up inception_3a/relu_3x3
I1104 10:45:10.869557 27012 net.cpp:148] Top shape: 128 128 4 4 (262144)
I1104 10:45:10.869558 27012 net.cpp:156] Memory required for data: 58198016
I1104 10:45:10.869560 27012 layer_factory.hpp:77] Creating layer inception_3a/5x5_reduce
I1104 10:45:10.869565 27012 net.cpp:91] Creating Layer inception_3a/5x5_reduce
I1104 10:45:10.869568 27012 net.cpp:425] inception_3a/5x5_reduce <- pool2/3x3_s2_pool2/3x3_s2_0_split_2
I1104 10:45:10.869571 27012 net.cpp:399] inception_3a/5x5_reduce -> inception_3a/5x5_reduce
I1104 10:45:10.869702 27012 net.cpp:141] Setting up inception_3a/5x5_reduce
I1104 10:45:10.869707 27012 net.cpp:148] Top shape: 128 16 4 4 (32768)
I1104 10:45:10.869709 27012 net.cpp:156] Memory required for data: 58329088
I1104 10:45:10.869711 27012 layer_factory.hpp:77] Creating layer inception_3a/relu_5x5_reduce
I1104 10:45:10.869715 27012 net.cpp:91] Creating Layer inception_3a/relu_5x5_reduce
I1104 10:45:10.869719 27012 net.cpp:425] inception_3a/relu_5x5_reduce <- inception_3a/5x5_reduce
I1104 10:45:10.869721 27012 net.cpp:386] inception_3a/relu_5x5_reduce -> inception_3a/5x5_reduce (in-place)
I1104 10:45:10.869724 27012 net.cpp:141] Setting up inception_3a/relu_5x5_reduce
I1104 10:45:10.869726 27012 net.cpp:148] Top shape: 128 16 4 4 (32768)
I1104 10:45:10.869729 27012 net.cpp:156] Memory required for data: 58460160
I1104 10:45:10.869730 27012 layer_factory.hpp:77] Creating layer inception_3a/5x5
I1104 10:45:10.869735 27012 net.cpp:91] Creating Layer inception_3a/5x5
I1104 10:45:10.869737 27012 net.cpp:425] inception_3a/5x5 <- inception_3a/5x5_reduce
I1104 10:45:10.869741 27012 net.cpp:399] inception_3a/5x5 -> inception_3a/5x5
I1104 10:45:10.870126 27012 net.cpp:141] Setting up inception_3a/5x5
I1104 10:45:10.870131 27012 net.cpp:148] Top shape: 128 32 4 4 (65536)
I1104 10:45:10.870133 27012 net.cpp:156] Memory required for data: 58722304
I1104 10:45:10.870137 27012 layer_factory.hpp:77] Creating layer inception_3a/relu_5x5
I1104 10:45:10.870141 27012 net.cpp:91] Creating Layer inception_3a/relu_5x5
I1104 10:45:10.870142 27012 net.cpp:425] inception_3a/relu_5x5 <- inception_3a/5x5
I1104 10:45:10.870146 27012 net.cpp:386] inception_3a/relu_5x5 -> inception_3a/5x5 (in-place)
I1104 10:45:10.870151 27012 net.cpp:141] Setting up inception_3a/relu_5x5
I1104 10:45:10.870153 27012 net.cpp:148] Top shape: 128 32 4 4 (65536)
I1104 10:45:10.870154 27012 net.cpp:156] Memory required for data: 58984448
I1104 10:45:10.870157 27012 layer_factory.hpp:77] Creating layer inception_3a/pool
I1104 10:45:10.870160 27012 net.cpp:91] Creating Layer inception_3a/pool
I1104 10:45:10.870162 27012 net.cpp:425] inception_3a/pool <- pool2/3x3_s2_pool2/3x3_s2_0_split_3
I1104 10:45:10.870167 27012 net.cpp:399] inception_3a/pool -> inception_3a/pool
I1104 10:45:10.870193 27012 net.cpp:141] Setting up inception_3a/pool
I1104 10:45:10.870198 27012 net.cpp:148] Top shape: 128 192 4 4 (393216)
I1104 10:45:10.870200 27012 net.cpp:156] Memory required for data: 60557312
I1104 10:45:10.870203 27012 layer_factory.hpp:77] Creating layer inception_3a/pool_proj
I1104 10:45:10.870206 27012 net.cpp:91] Creating Layer inception_3a/pool_proj
I1104 10:45:10.870209 27012 net.cpp:425] inception_3a/pool_proj <- inception_3a/pool
I1104 10:45:10.870214 27012 net.cpp:399] inception_3a/pool_proj -> inception_3a/pool_proj
I1104 10:45:10.870349 27012 net.cpp:141] Setting up inception_3a/pool_proj
I1104 10:45:10.870355 27012 net.cpp:148] Top shape: 128 32 4 4 (65536)
I1104 10:45:10.870357 27012 net.cpp:156] Memory required for data: 60819456
I1104 10:45:10.870363 27012 layer_factory.hpp:77] Creating layer inception_3a/relu_pool_proj
I1104 10:45:10.870368 27012 net.cpp:91] Creating Layer inception_3a/relu_pool_proj
I1104 10:45:10.870370 27012 net.cpp:425] inception_3a/relu_pool_proj <- inception_3a/pool_proj
I1104 10:45:10.870374 27012 net.cpp:386] inception_3a/relu_pool_proj -> inception_3a/pool_proj (in-place)
I1104 10:45:10.870378 27012 net.cpp:141] Setting up inception_3a/relu_pool_proj
I1104 10:45:10.870380 27012 net.cpp:148] Top shape: 128 32 4 4 (65536)
I1104 10:45:10.870383 27012 net.cpp:156] Memory required for data: 61081600
I1104 10:45:10.870384 27012 layer_factory.hpp:77] Creating layer inception_3a/output
I1104 10:45:10.870388 27012 net.cpp:91] Creating Layer inception_3a/output
I1104 10:45:10.870390 27012 net.cpp:425] inception_3a/output <- inception_3a/1x1
I1104 10:45:10.870393 27012 net.cpp:425] inception_3a/output <- inception_3a/3x3
I1104 10:45:10.870395 27012 net.cpp:425] inception_3a/output <- inception_3a/5x5
I1104 10:45:10.870398 27012 net.cpp:425] inception_3a/output <- inception_3a/pool_proj
I1104 10:45:10.870400 27012 net.cpp:399] inception_3a/output -> inception_3a/output
I1104 10:45:10.870414 27012 net.cpp:141] Setting up inception_3a/output
I1104 10:45:10.870419 27012 net.cpp:148] Top shape: 128 256 4 4 (524288)
I1104 10:45:10.870422 27012 net.cpp:156] Memory required for data: 63178752
I1104 10:45:10.870424 27012 layer_factory.hpp:77] Creating layer inception_3a/output_inception_3a/output_0_split
I1104 10:45:10.870427 27012 net.cpp:91] Creating Layer inception_3a/output_inception_3a/output_0_split
I1104 10:45:10.870429 27012 net.cpp:425] inception_3a/output_inception_3a/output_0_split <- inception_3a/output
I1104 10:45:10.870434 27012 net.cpp:399] inception_3a/output_inception_3a/output_0_split -> inception_3a/output_inception_3a/output_0_split_0
I1104 10:45:10.870437 27012 net.cpp:399] inception_3a/output_inception_3a/output_0_split -> inception_3a/output_inception_3a/output_0_split_1
I1104 10:45:10.870441 27012 net.cpp:399] inception_3a/output_inception_3a/output_0_split -> inception_3a/output_inception_3a/output_0_split_2
I1104 10:45:10.870445 27012 net.cpp:399] inception_3a/output_inception_3a/output_0_split -> inception_3a/output_inception_3a/output_0_split_3
I1104 10:45:10.870478 27012 net.cpp:141] Setting up inception_3a/output_inception_3a/output_0_split
I1104 10:45:10.870483 27012 net.cpp:148] Top shape: 128 256 4 4 (524288)
I1104 10:45:10.870513 27012 net.cpp:148] Top shape: 128 256 4 4 (524288)
I1104 10:45:10.870517 27012 net.cpp:148] Top shape: 128 256 4 4 (524288)
I1104 10:45:10.870520 27012 net.cpp:148] Top shape: 128 256 4 4 (524288)
I1104 10:45:10.870522 27012 net.cpp:156] Memory required for data: 71567360
I1104 10:45:10.870523 27012 layer_factory.hpp:77] Creating layer inception_3b/1x1
I1104 10:45:10.870529 27012 net.cpp:91] Creating Layer inception_3b/1x1
I1104 10:45:10.870532 27012 net.cpp:425] inception_3b/1x1 <- inception_3a/output_inception_3a/output_0_split_0
I1104 10:45:10.870537 27012 net.cpp:399] inception_3b/1x1 -> inception_3b/1x1
I1104 10:45:10.870771 27012 net.cpp:141] Setting up inception_3b/1x1
I1104 10:45:10.870776 27012 net.cpp:148] Top shape: 128 128 4 4 (262144)
I1104 10:45:10.870779 27012 net.cpp:156] Memory required for data: 72615936
I1104 10:45:10.870788 27012 layer_factory.hpp:77] Creating layer inception_3b/relu_1x1
I1104 10:45:10.870792 27012 net.cpp:91] Creating Layer inception_3b/relu_1x1
I1104 10:45:10.870795 27012 net.cpp:425] inception_3b/relu_1x1 <- inception_3b/1x1
I1104 10:45:10.870798 27012 net.cpp:386] inception_3b/relu_1x1 -> inception_3b/1x1 (in-place)
I1104 10:45:10.870801 27012 net.cpp:141] Setting up inception_3b/relu_1x1
I1104 10:45:10.870805 27012 net.cpp:148] Top shape: 128 128 4 4 (262144)
I1104 10:45:10.870807 27012 net.cpp:156] Memory required for data: 73664512
I1104 10:45:10.870810 27012 layer_factory.hpp:77] Creating layer inception_3b/3x3_reduce
I1104 10:45:10.870815 27012 net.cpp:91] Creating Layer inception_3b/3x3_reduce
I1104 10:45:10.870816 27012 net.cpp:425] inception_3b/3x3_reduce <- inception_3a/output_inception_3a/output_0_split_1
I1104 10:45:10.870821 27012 net.cpp:399] inception_3b/3x3_reduce -> inception_3b/3x3_reduce
I1104 10:45:10.871045 27012 net.cpp:141] Setting up inception_3b/3x3_reduce
I1104 10:45:10.871050 27012 net.cpp:148] Top shape: 128 128 4 4 (262144)
I1104 10:45:10.871052 27012 net.cpp:156] Memory required for data: 74713088
I1104 10:45:10.871055 27012 layer_factory.hpp:77] Creating layer inception_3b/relu_3x3_reduce
I1104 10:45:10.871059 27012 net.cpp:91] Creating Layer inception_3b/relu_3x3_reduce
I1104 10:45:10.871062 27012 net.cpp:425] inception_3b/relu_3x3_reduce <- inception_3b/3x3_reduce
I1104 10:45:10.871065 27012 net.cpp:386] inception_3b/relu_3x3_reduce -> inception_3b/3x3_reduce (in-place)
I1104 10:45:10.871069 27012 net.cpp:141] Setting up inception_3b/relu_3x3_reduce
I1104 10:45:10.871071 27012 net.cpp:148] Top shape: 128 128 4 4 (262144)
I1104 10:45:10.871075 27012 net.cpp:156] Memory required for data: 75761664
I1104 10:45:10.871078 27012 layer_factory.hpp:77] Creating layer inception_3b/3x3
I1104 10:45:10.871086 27012 net.cpp:91] Creating Layer inception_3b/3x3
I1104 10:45:10.871089 27012 net.cpp:425] inception_3b/3x3 <- inception_3b/3x3_reduce
I1104 10:45:10.871093 27012 net.cpp:399] inception_3b/3x3 -> inception_3b/3x3
I1104 10:45:10.872355 27012 net.cpp:141] Setting up inception_3b/3x3
I1104 10:45:10.872364 27012 net.cpp:148] Top shape: 128 192 4 4 (393216)
I1104 10:45:10.872365 27012 net.cpp:156] Memory required for data: 77334528
I1104 10:45:10.872370 27012 layer_factory.hpp:77] Creating layer inception_3b/relu_3x3
I1104 10:45:10.872373 27012 net.cpp:91] Creating Layer inception_3b/relu_3x3
I1104 10:45:10.872375 27012 net.cpp:425] inception_3b/relu_3x3 <- inception_3b/3x3
I1104 10:45:10.872380 27012 net.cpp:386] inception_3b/relu_3x3 -> inception_3b/3x3 (in-place)
I1104 10:45:10.872385 27012 net.cpp:141] Setting up inception_3b/relu_3x3
I1104 10:45:10.872388 27012 net.cpp:148] Top shape: 128 192 4 4 (393216)
I1104 10:45:10.872390 27012 net.cpp:156] Memory required for data: 78907392
I1104 10:45:10.872392 27012 layer_factory.hpp:77] Creating layer inception_3b/5x5_reduce
I1104 10:45:10.872397 27012 net.cpp:91] Creating Layer inception_3b/5x5_reduce
I1104 10:45:10.872400 27012 net.cpp:425] inception_3b/5x5_reduce <- inception_3a/output_inception_3a/output_0_split_2
I1104 10:45:10.872404 27012 net.cpp:399] inception_3b/5x5_reduce -> inception_3b/5x5_reduce
I1104 10:45:10.872555 27012 net.cpp:141] Setting up inception_3b/5x5_reduce
I1104 10:45:10.872560 27012 net.cpp:148] Top shape: 128 32 4 4 (65536)
I1104 10:45:10.872561 27012 net.cpp:156] Memory required for data: 79169536
I1104 10:45:10.872565 27012 layer_factory.hpp:77] Creating layer inception_3b/relu_5x5_reduce
I1104 10:45:10.872568 27012 net.cpp:91] Creating Layer inception_3b/relu_5x5_reduce
I1104 10:45:10.872571 27012 net.cpp:425] inception_3b/relu_5x5_reduce <- inception_3b/5x5_reduce
I1104 10:45:10.872573 27012 net.cpp:386] inception_3b/relu_5x5_reduce -> inception_3b/5x5_reduce (in-place)
I1104 10:45:10.872577 27012 net.cpp:141] Setting up inception_3b/relu_5x5_reduce
I1104 10:45:10.872581 27012 net.cpp:148] Top shape: 128 32 4 4 (65536)
I1104 10:45:10.872582 27012 net.cpp:156] Memory required for data: 79431680
I1104 10:45:10.872591 27012 layer_factory.hpp:77] Creating layer inception_3b/5x5
I1104 10:45:10.872596 27012 net.cpp:91] Creating Layer inception_3b/5x5
I1104 10:45:10.872601 27012 net.cpp:425] inception_3b/5x5 <- inception_3b/5x5_reduce
I1104 10:45:10.872603 27012 net.cpp:399] inception_3b/5x5 -> inception_3b/5x5
I1104 10:45:10.872972 27012 net.cpp:141] Setting up inception_3b/5x5
I1104 10:45:10.872977 27012 net.cpp:148] Top shape: 128 96 4 4 (196608)
I1104 10:45:10.872979 27012 net.cpp:156] Memory required for data: 80218112
I1104 10:45:10.872982 27012 layer_factory.hpp:77] Creating layer inception_3b/relu_5x5
I1104 10:45:10.872987 27012 net.cpp:91] Creating Layer inception_3b/relu_5x5
I1104 10:45:10.872988 27012 net.cpp:425] inception_3b/relu_5x5 <- inception_3b/5x5
I1104 10:45:10.872994 27012 net.cpp:386] inception_3b/relu_5x5 -> inception_3b/5x5 (in-place)
I1104 10:45:10.872998 27012 net.cpp:141] Setting up inception_3b/relu_5x5
I1104 10:45:10.873001 27012 net.cpp:148] Top shape: 128 96 4 4 (196608)
I1104 10:45:10.873003 27012 net.cpp:156] Memory required for data: 81004544
I1104 10:45:10.873005 27012 layer_factory.hpp:77] Creating layer inception_3b/pool
I1104 10:45:10.873008 27012 net.cpp:91] Creating Layer inception_3b/pool
I1104 10:45:10.873010 27012 net.cpp:425] inception_3b/pool <- inception_3a/output_inception_3a/output_0_split_3
I1104 10:45:10.873014 27012 net.cpp:399] inception_3b/pool -> inception_3b/pool
I1104 10:45:10.873035 27012 net.cpp:141] Setting up inception_3b/pool
I1104 10:45:10.873041 27012 net.cpp:148] Top shape: 128 256 4 4 (524288)
I1104 10:45:10.873044 27012 net.cpp:156] Memory required for data: 83101696
I1104 10:45:10.873046 27012 layer_factory.hpp:77] Creating layer inception_3b/pool_proj
I1104 10:45:10.873051 27012 net.cpp:91] Creating Layer inception_3b/pool_proj
I1104 10:45:10.873054 27012 net.cpp:425] inception_3b/pool_proj <- inception_3b/pool
I1104 10:45:10.873060 27012 net.cpp:399] inception_3b/pool_proj -> inception_3b/pool_proj
I1104 10:45:10.873230 27012 net.cpp:141] Setting up inception_3b/pool_proj
I1104 10:45:10.873236 27012 net.cpp:148] Top shape: 128 64 4 4 (131072)
I1104 10:45:10.873239 27012 net.cpp:156] Memory required for data: 83625984
I1104 10:45:10.873241 27012 layer_factory.hpp:77] Creating layer inception_3b/relu_pool_proj
I1104 10:45:10.873245 27012 net.cpp:91] Creating Layer inception_3b/relu_pool_proj
I1104 10:45:10.873248 27012 net.cpp:425] inception_3b/relu_pool_proj <- inception_3b/pool_proj
I1104 10:45:10.873250 27012 net.cpp:386] inception_3b/relu_pool_proj -> inception_3b/pool_proj (in-place)
I1104 10:45:10.873253 27012 net.cpp:141] Setting up inception_3b/relu_pool_proj
I1104 10:45:10.873256 27012 net.cpp:148] Top shape: 128 64 4 4 (131072)
I1104 10:45:10.873260 27012 net.cpp:156] Memory required for data: 84150272
I1104 10:45:10.873261 27012 layer_factory.hpp:77] Creating layer inception_3b/output
I1104 10:45:10.873265 27012 net.cpp:91] Creating Layer inception_3b/output
I1104 10:45:10.873267 27012 net.cpp:425] inception_3b/output <- inception_3b/1x1
I1104 10:45:10.873270 27012 net.cpp:425] inception_3b/output <- inception_3b/3x3
I1104 10:45:10.873272 27012 net.cpp:425] inception_3b/output <- inception_3b/5x5
I1104 10:45:10.873275 27012 net.cpp:425] inception_3b/output <- inception_3b/pool_proj
I1104 10:45:10.873277 27012 net.cpp:399] inception_3b/output -> inception_3b/output
I1104 10:45:10.873291 27012 net.cpp:141] Setting up inception_3b/output
I1104 10:45:10.873296 27012 net.cpp:148] Top shape: 128 480 4 4 (983040)
I1104 10:45:10.873297 27012 net.cpp:156] Memory required for data: 88082432
I1104 10:45:10.873299 27012 layer_factory.hpp:77] Creating layer pool3/3x3_s2
I1104 10:45:10.873302 27012 net.cpp:91] Creating Layer pool3/3x3_s2
I1104 10:45:10.873304 27012 net.cpp:425] pool3/3x3_s2 <- inception_3b/output
I1104 10:45:10.873308 27012 net.cpp:399] pool3/3x3_s2 -> pool3/3x3_s2
I1104 10:45:10.873327 27012 net.cpp:141] Setting up pool3/3x3_s2
I1104 10:45:10.873332 27012 net.cpp:148] Top shape: 128 480 2 2 (245760)
I1104 10:45:10.873339 27012 net.cpp:156] Memory required for data: 89065472
I1104 10:45:10.873342 27012 layer_factory.hpp:77] Creating layer pool3/3x3_s2_pool3/3x3_s2_0_split
I1104 10:45:10.873344 27012 net.cpp:91] Creating Layer pool3/3x3_s2_pool3/3x3_s2_0_split
I1104 10:45:10.873347 27012 net.cpp:425] pool3/3x3_s2_pool3/3x3_s2_0_split <- pool3/3x3_s2
I1104 10:45:10.873351 27012 net.cpp:399] pool3/3x3_s2_pool3/3x3_s2_0_split -> pool3/3x3_s2_pool3/3x3_s2_0_split_0
I1104 10:45:10.873355 27012 net.cpp:399] pool3/3x3_s2_pool3/3x3_s2_0_split -> pool3/3x3_s2_pool3/3x3_s2_0_split_1
I1104 10:45:10.873359 27012 net.cpp:399] pool3/3x3_s2_pool3/3x3_s2_0_split -> pool3/3x3_s2_pool3/3x3_s2_0_split_2
I1104 10:45:10.873363 27012 net.cpp:399] pool3/3x3_s2_pool3/3x3_s2_0_split -> pool3/3x3_s2_pool3/3x3_s2_0_split_3
I1104 10:45:10.873394 27012 net.cpp:141] Setting up pool3/3x3_s2_pool3/3x3_s2_0_split
I1104 10:45:10.873399 27012 net.cpp:148] Top shape: 128 480 2 2 (245760)
I1104 10:45:10.873401 27012 net.cpp:148] Top shape: 128 480 2 2 (245760)
I1104 10:45:10.873404 27012 net.cpp:148] Top shape: 128 480 2 2 (245760)
I1104 10:45:10.873406 27012 net.cpp:148] Top shape: 128 480 2 2 (245760)
I1104 10:45:10.873409 27012 net.cpp:156] Memory required for data: 92997632
I1104 10:45:10.873410 27012 layer_factory.hpp:77] Creating layer inception_4a/1x1
I1104 10:45:10.873416 27012 net.cpp:91] Creating Layer inception_4a/1x1
I1104 10:45:10.873436 27012 net.cpp:425] inception_4a/1x1 <- pool3/3x3_s2_pool3/3x3_s2_0_split_0
I1104 10:45:10.873440 27012 net.cpp:399] inception_4a/1x1 -> inception_4a/1x1
I1104 10:45:10.873904 27012 net.cpp:141] Setting up inception_4a/1x1
I1104 10:45:10.873910 27012 net.cpp:148] Top shape: 128 192 2 2 (98304)
I1104 10:45:10.873912 27012 net.cpp:156] Memory required for data: 93390848
I1104 10:45:10.873915 27012 layer_factory.hpp:77] Creating layer inception_4a/relu_1x1
I1104 10:45:10.873935 27012 net.cpp:91] Creating Layer inception_4a/relu_1x1
I1104 10:45:10.873939 27012 net.cpp:425] inception_4a/relu_1x1 <- inception_4a/1x1
I1104 10:45:10.873941 27012 net.cpp:386] inception_4a/relu_1x1 -> inception_4a/1x1 (in-place)
I1104 10:45:10.873944 27012 net.cpp:141] Setting up inception_4a/relu_1x1
I1104 10:45:10.873947 27012 net.cpp:148] Top shape: 128 192 2 2 (98304)
I1104 10:45:10.873950 27012 net.cpp:156] Memory required for data: 93784064
I1104 10:45:10.873951 27012 layer_factory.hpp:77] Creating layer inception_4a/3x3_reduce
I1104 10:45:10.873956 27012 net.cpp:91] Creating Layer inception_4a/3x3_reduce
I1104 10:45:10.873960 27012 net.cpp:425] inception_4a/3x3_reduce <- pool3/3x3_s2_pool3/3x3_s2_0_split_1
I1104 10:45:10.873965 27012 net.cpp:399] inception_4a/3x3_reduce -> inception_4a/3x3_reduce
I1104 10:45:10.874249 27012 net.cpp:141] Setting up inception_4a/3x3_reduce
I1104 10:45:10.874254 27012 net.cpp:148] Top shape: 128 96 2 2 (49152)
I1104 10:45:10.874256 27012 net.cpp:156] Memory required for data: 93980672
I1104 10:45:10.874264 27012 layer_factory.hpp:77] Creating layer inception_4a/relu_3x3_reduce
I1104 10:45:10.874284 27012 net.cpp:91] Creating Layer inception_4a/relu_3x3_reduce
I1104 10:45:10.874287 27012 net.cpp:425] inception_4a/relu_3x3_reduce <- inception_4a/3x3_reduce
I1104 10:45:10.874291 27012 net.cpp:386] inception_4a/relu_3x3_reduce -> inception_4a/3x3_reduce (in-place)
I1104 10:45:10.874295 27012 net.cpp:141] Setting up inception_4a/relu_3x3_reduce
I1104 10:45:10.874297 27012 net.cpp:148] Top shape: 128 96 2 2 (49152)
I1104 10:45:10.874300 27012 net.cpp:156] Memory required for data: 94177280
I1104 10:45:10.874301 27012 layer_factory.hpp:77] Creating layer inception_4a/3x3
I1104 10:45:10.874306 27012 net.cpp:91] Creating Layer inception_4a/3x3
I1104 10:45:10.874308 27012 net.cpp:425] inception_4a/3x3 <- inception_4a/3x3_reduce
I1104 10:45:10.874312 27012 net.cpp:399] inception_4a/3x3 -> inception_4a/3x3
I1104 10:45:10.875464 27012 net.cpp:141] Setting up inception_4a/3x3
I1104 10:45:10.875473 27012 net.cpp:148] Top shape: 128 208 2 2 (106496)
I1104 10:45:10.875475 27012 net.cpp:156] Memory required for data: 94603264
I1104 10:45:10.875484 27012 layer_factory.hpp:77] Creating layer inception_4a/relu_3x3
I1104 10:45:10.875489 27012 net.cpp:91] Creating Layer inception_4a/relu_3x3
I1104 10:45:10.875494 27012 net.cpp:425] inception_4a/relu_3x3 <- inception_4a/3x3
I1104 10:45:10.875497 27012 net.cpp:386] inception_4a/relu_3x3 -> inception_4a/3x3 (in-place)
I1104 10:45:10.875501 27012 net.cpp:141] Setting up inception_4a/relu_3x3
I1104 10:45:10.875504 27012 net.cpp:148] Top shape: 128 208 2 2 (106496)
I1104 10:45:10.875505 27012 net.cpp:156] Memory required for data: 95029248
I1104 10:45:10.875507 27012 layer_factory.hpp:77] Creating layer inception_4a/5x5_reduce
I1104 10:45:10.875514 27012 net.cpp:91] Creating Layer inception_4a/5x5_reduce
I1104 10:45:10.875516 27012 net.cpp:425] inception_4a/5x5_reduce <- pool3/3x3_s2_pool3/3x3_s2_0_split_2
I1104 10:45:10.875521 27012 net.cpp:399] inception_4a/5x5_reduce -> inception_4a/5x5_reduce
I1104 10:45:10.875669 27012 net.cpp:141] Setting up inception_4a/5x5_reduce
I1104 10:45:10.875674 27012 net.cpp:148] Top shape: 128 16 2 2 (8192)
I1104 10:45:10.875676 27012 net.cpp:156] Memory required for data: 95062016
I1104 10:45:10.875680 27012 layer_factory.hpp:77] Creating layer inception_4a/relu_5x5_reduce
I1104 10:45:10.875684 27012 net.cpp:91] Creating Layer inception_4a/relu_5x5_reduce
I1104 10:45:10.875686 27012 net.cpp:425] inception_4a/relu_5x5_reduce <- inception_4a/5x5_reduce
I1104 10:45:10.875689 27012 net.cpp:386] inception_4a/relu_5x5_reduce -> inception_4a/5x5_reduce (in-place)
I1104 10:45:10.875694 27012 net.cpp:141] Setting up inception_4a/relu_5x5_reduce
I1104 10:45:10.875696 27012 net.cpp:148] Top shape: 128 16 2 2 (8192)
I1104 10:45:10.875699 27012 net.cpp:156] Memory required for data: 95094784
I1104 10:45:10.875700 27012 layer_factory.hpp:77] Creating layer inception_4a/5x5
I1104 10:45:10.875705 27012 net.cpp:91] Creating Layer inception_4a/5x5
I1104 10:45:10.875707 27012 net.cpp:425] inception_4a/5x5 <- inception_4a/5x5_reduce
I1104 10:45:10.875711 27012 net.cpp:399] inception_4a/5x5 -> inception_4a/5x5
I1104 10:45:10.875892 27012 net.cpp:141] Setting up inception_4a/5x5
I1104 10:45:10.875897 27012 net.cpp:148] Top shape: 128 48 2 2 (24576)
I1104 10:45:10.875900 27012 net.cpp:156] Memory required for data: 95193088
I1104 10:45:10.875902 27012 layer_factory.hpp:77] Creating layer inception_4a/relu_5x5
I1104 10:45:10.875905 27012 net.cpp:91] Creating Layer inception_4a/relu_5x5
I1104 10:45:10.875908 27012 net.cpp:425] inception_4a/relu_5x5 <- inception_4a/5x5
I1104 10:45:10.875911 27012 net.cpp:386] inception_4a/relu_5x5 -> inception_4a/5x5 (in-place)
I1104 10:45:10.875914 27012 net.cpp:141] Setting up inception_4a/relu_5x5
I1104 10:45:10.875918 27012 net.cpp:148] Top shape: 128 48 2 2 (24576)
I1104 10:45:10.875921 27012 net.cpp:156] Memory required for data: 95291392
I1104 10:45:10.875921 27012 layer_factory.hpp:77] Creating layer inception_4a/pool
I1104 10:45:10.875926 27012 net.cpp:91] Creating Layer inception_4a/pool
I1104 10:45:10.875927 27012 net.cpp:425] inception_4a/pool <- pool3/3x3_s2_pool3/3x3_s2_0_split_3
I1104 10:45:10.875931 27012 net.cpp:399] inception_4a/pool -> inception_4a/pool
I1104 10:45:10.875949 27012 net.cpp:141] Setting up inception_4a/pool
I1104 10:45:10.875954 27012 net.cpp:148] Top shape: 128 480 2 2 (245760)
I1104 10:45:10.875957 27012 net.cpp:156] Memory required for data: 96274432
I1104 10:45:10.875958 27012 layer_factory.hpp:77] Creating layer inception_4a/pool_proj
I1104 10:45:10.875962 27012 net.cpp:91] Creating Layer inception_4a/pool_proj
I1104 10:45:10.875965 27012 net.cpp:425] inception_4a/pool_proj <- inception_4a/pool
I1104 10:45:10.875968 27012 net.cpp:399] inception_4a/pool_proj -> inception_4a/pool_proj
I1104 10:45:10.876185 27012 net.cpp:141] Setting up inception_4a/pool_proj
I1104 10:45:10.876189 27012 net.cpp:148] Top shape: 128 64 2 2 (32768)
I1104 10:45:10.876191 27012 net.cpp:156] Memory required for data: 96405504
I1104 10:45:10.876194 27012 layer_factory.hpp:77] Creating layer inception_4a/relu_pool_proj
I1104 10:45:10.876199 27012 net.cpp:91] Creating Layer inception_4a/relu_pool_proj
I1104 10:45:10.876206 27012 net.cpp:425] inception_4a/relu_pool_proj <- inception_4a/pool_proj
I1104 10:45:10.876209 27012 net.cpp:386] inception_4a/relu_pool_proj -> inception_4a/pool_proj (in-place)
I1104 10:45:10.876212 27012 net.cpp:141] Setting up inception_4a/relu_pool_proj
I1104 10:45:10.876215 27012 net.cpp:148] Top shape: 128 64 2 2 (32768)
I1104 10:45:10.876217 27012 net.cpp:156] Memory required for data: 96536576
I1104 10:45:10.876219 27012 layer_factory.hpp:77] Creating layer inception_4a/output
I1104 10:45:10.876222 27012 net.cpp:91] Creating Layer inception_4a/output
I1104 10:45:10.876224 27012 net.cpp:425] inception_4a/output <- inception_4a/1x1
I1104 10:45:10.876227 27012 net.cpp:425] inception_4a/output <- inception_4a/3x3
I1104 10:45:10.876230 27012 net.cpp:425] inception_4a/output <- inception_4a/5x5
I1104 10:45:10.876231 27012 net.cpp:425] inception_4a/output <- inception_4a/pool_proj
I1104 10:45:10.876235 27012 net.cpp:399] inception_4a/output -> inception_4a/output
I1104 10:45:10.876248 27012 net.cpp:141] Setting up inception_4a/output
I1104 10:45:10.876252 27012 net.cpp:148] Top shape: 128 512 2 2 (262144)
I1104 10:45:10.876255 27012 net.cpp:156] Memory required for data: 97585152
I1104 10:45:10.876256 27012 layer_factory.hpp:77] Creating layer inception_4a/output_inception_4a/output_0_split
I1104 10:45:10.876260 27012 net.cpp:91] Creating Layer inception_4a/output_inception_4a/output_0_split
I1104 10:45:10.876262 27012 net.cpp:425] inception_4a/output_inception_4a/output_0_split <- inception_4a/output
I1104 10:45:10.876266 27012 net.cpp:399] inception_4a/output_inception_4a/output_0_split -> inception_4a/output_inception_4a/output_0_split_0
I1104 10:45:10.876269 27012 net.cpp:399] inception_4a/output_inception_4a/output_0_split -> inception_4a/output_inception_4a/output_0_split_1
I1104 10:45:10.876276 27012 net.cpp:399] inception_4a/output_inception_4a/output_0_split -> inception_4a/output_inception_4a/output_0_split_2
I1104 10:45:10.876279 27012 net.cpp:399] inception_4a/output_inception_4a/output_0_split -> inception_4a/output_inception_4a/output_0_split_3
I1104 10:45:10.876283 27012 net.cpp:399] inception_4a/output_inception_4a/output_0_split -> inception_4a/output_inception_4a/output_0_split_4
I1104 10:45:10.876322 27012 net.cpp:141] Setting up inception_4a/output_inception_4a/output_0_split
I1104 10:45:10.876327 27012 net.cpp:148] Top shape: 128 512 2 2 (262144)
I1104 10:45:10.876328 27012 net.cpp:148] Top shape: 128 512 2 2 (262144)
I1104 10:45:10.876332 27012 net.cpp:148] Top shape: 128 512 2 2 (262144)
I1104 10:45:10.876333 27012 net.cpp:148] Top shape: 128 512 2 2 (262144)
I1104 10:45:10.876336 27012 net.cpp:148] Top shape: 128 512 2 2 (262144)
I1104 10:45:10.876338 27012 net.cpp:156] Memory required for data: 102828032
I1104 10:45:10.876339 27012 layer_factory.hpp:77] Creating layer loss1/ave_pool
I1104 10:45:10.876343 27012 net.cpp:91] Creating Layer loss1/ave_pool
I1104 10:45:10.876344 27012 net.cpp:425] loss1/ave_pool <- inception_4a/output_inception_4a/output_0_split_0
I1104 10:45:10.876348 27012 net.cpp:399] loss1/ave_pool -> loss1/ave_pool
I1104 10:45:10.876360 27012 net.cpp:141] Setting up loss1/ave_pool
I1104 10:45:10.876365 27012 net.cpp:148] Top shape: 128 512 1 1 (65536)
I1104 10:45:10.876366 27012 net.cpp:156] Memory required for data: 103090176
I1104 10:45:10.876368 27012 layer_factory.hpp:77] Creating layer loss1/conv
I1104 10:45:10.876374 27012 net.cpp:91] Creating Layer loss1/conv
I1104 10:45:10.876376 27012 net.cpp:425] loss1/conv <- loss1/ave_pool
I1104 10:45:10.876380 27012 net.cpp:399] loss1/conv -> loss1/conv
I1104 10:45:10.876706 27012 net.cpp:141] Setting up loss1/conv
I1104 10:45:10.876711 27012 net.cpp:148] Top shape: 128 128 1 1 (16384)
I1104 10:45:10.876714 27012 net.cpp:156] Memory required for data: 103155712
I1104 10:45:10.876718 27012 layer_factory.hpp:77] Creating layer loss1/relu_conv
I1104 10:45:10.876719 27012 net.cpp:91] Creating Layer loss1/relu_conv
I1104 10:45:10.876721 27012 net.cpp:425] loss1/relu_conv <- loss1/conv
I1104 10:45:10.876730 27012 net.cpp:386] loss1/relu_conv -> loss1/conv (in-place)
I1104 10:45:10.876734 27012 net.cpp:141] Setting up loss1/relu_conv
I1104 10:45:10.876736 27012 net.cpp:148] Top shape: 128 128 1 1 (16384)
I1104 10:45:10.876737 27012 net.cpp:156] Memory required for data: 103221248
I1104 10:45:10.876740 27012 layer_factory.hpp:77] Creating layer loss1/fc
I1104 10:45:10.876744 27012 net.cpp:91] Creating Layer loss1/fc
I1104 10:45:10.876747 27012 net.cpp:425] loss1/fc <- loss1/conv
I1104 10:45:10.876751 27012 net.cpp:399] loss1/fc -> loss1/fc
I1104 10:45:10.877655 27012 net.cpp:141] Setting up loss1/fc
I1104 10:45:10.877662 27012 net.cpp:148] Top shape: 128 1024 (131072)
I1104 10:45:10.877665 27012 net.cpp:156] Memory required for data: 103745536
I1104 10:45:10.877668 27012 layer_factory.hpp:77] Creating layer loss1/relu_fc
I1104 10:45:10.877672 27012 net.cpp:91] Creating Layer loss1/relu_fc
I1104 10:45:10.877676 27012 net.cpp:425] loss1/relu_fc <- loss1/fc
I1104 10:45:10.877678 27012 net.cpp:386] loss1/relu_fc -> loss1/fc (in-place)
I1104 10:45:10.877683 27012 net.cpp:141] Setting up loss1/relu_fc
I1104 10:45:10.877687 27012 net.cpp:148] Top shape: 128 1024 (131072)
I1104 10:45:10.877689 27012 net.cpp:156] Memory required for data: 104269824
I1104 10:45:10.877691 27012 layer_factory.hpp:77] Creating layer loss1/drop_fc
I1104 10:45:10.877703 27012 net.cpp:91] Creating Layer loss1/drop_fc
I1104 10:45:10.877707 27012 net.cpp:425] loss1/drop_fc <- loss1/fc
I1104 10:45:10.877709 27012 net.cpp:386] loss1/drop_fc -> loss1/fc (in-place)
I1104 10:45:10.877722 27012 net.cpp:141] Setting up loss1/drop_fc
I1104 10:45:10.877725 27012 net.cpp:148] Top shape: 128 1024 (131072)
I1104 10:45:10.877728 27012 net.cpp:156] Memory required for data: 104794112
I1104 10:45:10.877730 27012 layer_factory.hpp:77] Creating layer loss1/classifier
I1104 10:45:10.877733 27012 net.cpp:91] Creating Layer loss1/classifier
I1104 10:45:10.877735 27012 net.cpp:425] loss1/classifier <- loss1/fc
I1104 10:45:10.877739 27012 net.cpp:399] loss1/classifier -> loss1/classifier
I1104 10:45:10.877828 27012 net.cpp:141] Setting up loss1/classifier
I1104 10:45:10.877832 27012 net.cpp:148] Top shape: 128 10 (1280)
I1104 10:45:10.877835 27012 net.cpp:156] Memory required for data: 104799232
I1104 10:45:10.877837 27012 layer_factory.hpp:77] Creating layer loss1/loss
I1104 10:45:10.877841 27012 net.cpp:91] Creating Layer loss1/loss
I1104 10:45:10.877843 27012 net.cpp:425] loss1/loss <- loss1/classifier
I1104 10:45:10.877846 27012 net.cpp:425] loss1/loss <- label_cifar_1_split_0
I1104 10:45:10.877849 27012 net.cpp:399] loss1/loss -> loss1/loss
I1104 10:45:10.877856 27012 layer_factory.hpp:77] Creating layer loss1/loss
I1104 10:45:10.877902 27012 net.cpp:141] Setting up loss1/loss
I1104 10:45:10.877905 27012 net.cpp:148] Top shape: (1)
I1104 10:45:10.877907 27012 net.cpp:151]     with loss weight 0.3
I1104 10:45:10.877923 27012 net.cpp:156] Memory required for data: 104799236
I1104 10:45:10.877925 27012 layer_factory.hpp:77] Creating layer inception_4b/1x1
I1104 10:45:10.877930 27012 net.cpp:91] Creating Layer inception_4b/1x1
I1104 10:45:10.877933 27012 net.cpp:425] inception_4b/1x1 <- inception_4a/output_inception_4a/output_0_split_1
I1104 10:45:10.877938 27012 net.cpp:399] inception_4b/1x1 -> inception_4b/1x1
I1104 10:45:10.878319 27012 net.cpp:141] Setting up inception_4b/1x1
I1104 10:45:10.878324 27012 net.cpp:148] Top shape: 128 160 2 2 (81920)
I1104 10:45:10.878327 27012 net.cpp:156] Memory required for data: 105126916
I1104 10:45:10.878330 27012 layer_factory.hpp:77] Creating layer inception_4b/relu_1x1
I1104 10:45:10.878334 27012 net.cpp:91] Creating Layer inception_4b/relu_1x1
I1104 10:45:10.878335 27012 net.cpp:425] inception_4b/relu_1x1 <- inception_4b/1x1
I1104 10:45:10.878340 27012 net.cpp:386] inception_4b/relu_1x1 -> inception_4b/1x1 (in-place)
I1104 10:45:10.878343 27012 net.cpp:141] Setting up inception_4b/relu_1x1
I1104 10:45:10.878346 27012 net.cpp:148] Top shape: 128 160 2 2 (81920)
I1104 10:45:10.878348 27012 net.cpp:156] Memory required for data: 105454596
I1104 10:45:10.878356 27012 layer_factory.hpp:77] Creating layer inception_4b/3x3_reduce
I1104 10:45:10.878362 27012 net.cpp:91] Creating Layer inception_4b/3x3_reduce
I1104 10:45:10.878365 27012 net.cpp:425] inception_4b/3x3_reduce <- inception_4a/output_inception_4a/output_0_split_2
I1104 10:45:10.878368 27012 net.cpp:399] inception_4b/3x3_reduce -> inception_4b/3x3_reduce
I1104 10:45:10.878682 27012 net.cpp:141] Setting up inception_4b/3x3_reduce
I1104 10:45:10.878690 27012 net.cpp:148] Top shape: 128 112 2 2 (57344)
I1104 10:45:10.878691 27012 net.cpp:156] Memory required for data: 105683972
I1104 10:45:10.878695 27012 layer_factory.hpp:77] Creating layer inception_4b/relu_3x3_reduce
I1104 10:45:10.878697 27012 net.cpp:91] Creating Layer inception_4b/relu_3x3_reduce
I1104 10:45:10.878700 27012 net.cpp:425] inception_4b/relu_3x3_reduce <- inception_4b/3x3_reduce
I1104 10:45:10.878702 27012 net.cpp:386] inception_4b/relu_3x3_reduce -> inception_4b/3x3_reduce (in-place)
I1104 10:45:10.878705 27012 net.cpp:141] Setting up inception_4b/relu_3x3_reduce
I1104 10:45:10.878710 27012 net.cpp:148] Top shape: 128 112 2 2 (57344)
I1104 10:45:10.878711 27012 net.cpp:156] Memory required for data: 105913348
I1104 10:45:10.878712 27012 layer_factory.hpp:77] Creating layer inception_4b/3x3
I1104 10:45:10.878717 27012 net.cpp:91] Creating Layer inception_4b/3x3
I1104 10:45:10.878720 27012 net.cpp:425] inception_4b/3x3 <- inception_4b/3x3_reduce
I1104 10:45:10.878726 27012 net.cpp:399] inception_4b/3x3 -> inception_4b/3x3
I1104 10:45:10.880007 27012 net.cpp:141] Setting up inception_4b/3x3
I1104 10:45:10.880015 27012 net.cpp:148] Top shape: 128 224 2 2 (114688)
I1104 10:45:10.880017 27012 net.cpp:156] Memory required for data: 106372100
I1104 10:45:10.880022 27012 layer_factory.hpp:77] Creating layer inception_4b/relu_3x3
I1104 10:45:10.880024 27012 net.cpp:91] Creating Layer inception_4b/relu_3x3
I1104 10:45:10.880026 27012 net.cpp:425] inception_4b/relu_3x3 <- inception_4b/3x3
I1104 10:45:10.880030 27012 net.cpp:386] inception_4b/relu_3x3 -> inception_4b/3x3 (in-place)
I1104 10:45:10.880035 27012 net.cpp:141] Setting up inception_4b/relu_3x3
I1104 10:45:10.880038 27012 net.cpp:148] Top shape: 128 224 2 2 (114688)
I1104 10:45:10.880039 27012 net.cpp:156] Memory required for data: 106830852
I1104 10:45:10.880043 27012 layer_factory.hpp:77] Creating layer inception_4b/5x5_reduce
I1104 10:45:10.880048 27012 net.cpp:91] Creating Layer inception_4b/5x5_reduce
I1104 10:45:10.880050 27012 net.cpp:425] inception_4b/5x5_reduce <- inception_4a/output_inception_4a/output_0_split_3
I1104 10:45:10.880054 27012 net.cpp:399] inception_4b/5x5_reduce -> inception_4b/5x5_reduce
I1104 10:45:10.880219 27012 net.cpp:141] Setting up inception_4b/5x5_reduce
I1104 10:45:10.880224 27012 net.cpp:148] Top shape: 128 24 2 2 (12288)
I1104 10:45:10.880226 27012 net.cpp:156] Memory required for data: 106880004
I1104 10:45:10.880229 27012 layer_factory.hpp:77] Creating layer inception_4b/relu_5x5_reduce
I1104 10:45:10.880233 27012 net.cpp:91] Creating Layer inception_4b/relu_5x5_reduce
I1104 10:45:10.880234 27012 net.cpp:425] inception_4b/relu_5x5_reduce <- inception_4b/5x5_reduce
I1104 10:45:10.880237 27012 net.cpp:386] inception_4b/relu_5x5_reduce -> inception_4b/5x5_reduce (in-place)
I1104 10:45:10.880241 27012 net.cpp:141] Setting up inception_4b/relu_5x5_reduce
I1104 10:45:10.880244 27012 net.cpp:148] Top shape: 128 24 2 2 (12288)
I1104 10:45:10.880245 27012 net.cpp:156] Memory required for data: 106929156
I1104 10:45:10.880247 27012 layer_factory.hpp:77] Creating layer inception_4b/5x5
I1104 10:45:10.880251 27012 net.cpp:91] Creating Layer inception_4b/5x5
I1104 10:45:10.880255 27012 net.cpp:425] inception_4b/5x5 <- inception_4b/5x5_reduce
I1104 10:45:10.880259 27012 net.cpp:399] inception_4b/5x5 -> inception_4b/5x5
I1104 10:45:10.880504 27012 net.cpp:141] Setting up inception_4b/5x5
I1104 10:45:10.880509 27012 net.cpp:148] Top shape: 128 64 2 2 (32768)
I1104 10:45:10.880511 27012 net.cpp:156] Memory required for data: 107060228
I1104 10:45:10.880522 27012 layer_factory.hpp:77] Creating layer inception_4b/relu_5x5
I1104 10:45:10.880525 27012 net.cpp:91] Creating Layer inception_4b/relu_5x5
I1104 10:45:10.880529 27012 net.cpp:425] inception_4b/relu_5x5 <- inception_4b/5x5
I1104 10:45:10.880532 27012 net.cpp:386] inception_4b/relu_5x5 -> inception_4b/5x5 (in-place)
I1104 10:45:10.880535 27012 net.cpp:141] Setting up inception_4b/relu_5x5
I1104 10:45:10.880538 27012 net.cpp:148] Top shape: 128 64 2 2 (32768)
I1104 10:45:10.880539 27012 net.cpp:156] Memory required for data: 107191300
I1104 10:45:10.880542 27012 layer_factory.hpp:77] Creating layer inception_4b/pool
I1104 10:45:10.880545 27012 net.cpp:91] Creating Layer inception_4b/pool
I1104 10:45:10.880548 27012 net.cpp:425] inception_4b/pool <- inception_4a/output_inception_4a/output_0_split_4
I1104 10:45:10.880550 27012 net.cpp:399] inception_4b/pool -> inception_4b/pool
I1104 10:45:10.880578 27012 net.cpp:141] Setting up inception_4b/pool
I1104 10:45:10.880584 27012 net.cpp:148] Top shape: 128 512 2 2 (262144)
I1104 10:45:10.880584 27012 net.cpp:156] Memory required for data: 108239876
I1104 10:45:10.880586 27012 layer_factory.hpp:77] Creating layer inception_4b/pool_proj
I1104 10:45:10.880594 27012 net.cpp:91] Creating Layer inception_4b/pool_proj
I1104 10:45:10.880596 27012 net.cpp:425] inception_4b/pool_proj <- inception_4b/pool
I1104 10:45:10.880599 27012 net.cpp:399] inception_4b/pool_proj -> inception_4b/pool_proj
I1104 10:45:10.880826 27012 net.cpp:141] Setting up inception_4b/pool_proj
I1104 10:45:10.880831 27012 net.cpp:148] Top shape: 128 64 2 2 (32768)
I1104 10:45:10.880833 27012 net.cpp:156] Memory required for data: 108370948
I1104 10:45:10.880836 27012 layer_factory.hpp:77] Creating layer inception_4b/relu_pool_proj
I1104 10:45:10.880841 27012 net.cpp:91] Creating Layer inception_4b/relu_pool_proj
I1104 10:45:10.880843 27012 net.cpp:425] inception_4b/relu_pool_proj <- inception_4b/pool_proj
I1104 10:45:10.880846 27012 net.cpp:386] inception_4b/relu_pool_proj -> inception_4b/pool_proj (in-place)
I1104 10:45:10.880849 27012 net.cpp:141] Setting up inception_4b/relu_pool_proj
I1104 10:45:10.880852 27012 net.cpp:148] Top shape: 128 64 2 2 (32768)
I1104 10:45:10.880854 27012 net.cpp:156] Memory required for data: 108502020
I1104 10:45:10.880856 27012 layer_factory.hpp:77] Creating layer inception_4b/output
I1104 10:45:10.880858 27012 net.cpp:91] Creating Layer inception_4b/output
I1104 10:45:10.880861 27012 net.cpp:425] inception_4b/output <- inception_4b/1x1
I1104 10:45:10.880863 27012 net.cpp:425] inception_4b/output <- inception_4b/3x3
I1104 10:45:10.880865 27012 net.cpp:425] inception_4b/output <- inception_4b/5x5
I1104 10:45:10.880867 27012 net.cpp:425] inception_4b/output <- inception_4b/pool_proj
I1104 10:45:10.880872 27012 net.cpp:399] inception_4b/output -> inception_4b/output
I1104 10:45:10.880885 27012 net.cpp:141] Setting up inception_4b/output
I1104 10:45:10.880889 27012 net.cpp:148] Top shape: 128 512 2 2 (262144)
I1104 10:45:10.880892 27012 net.cpp:156] Memory required for data: 109550596
I1104 10:45:10.880892 27012 layer_factory.hpp:77] Creating layer inception_4b/output_inception_4b/output_0_split
I1104 10:45:10.880897 27012 net.cpp:91] Creating Layer inception_4b/output_inception_4b/output_0_split
I1104 10:45:10.880898 27012 net.cpp:425] inception_4b/output_inception_4b/output_0_split <- inception_4b/output
I1104 10:45:10.880903 27012 net.cpp:399] inception_4b/output_inception_4b/output_0_split -> inception_4b/output_inception_4b/output_0_split_0
I1104 10:45:10.880908 27012 net.cpp:399] inception_4b/output_inception_4b/output_0_split -> inception_4b/output_inception_4b/output_0_split_1
I1104 10:45:10.880911 27012 net.cpp:399] inception_4b/output_inception_4b/output_0_split -> inception_4b/output_inception_4b/output_0_split_2
I1104 10:45:10.880916 27012 net.cpp:399] inception_4b/output_inception_4b/output_0_split -> inception_4b/output_inception_4b/output_0_split_3
I1104 10:45:10.880946 27012 net.cpp:141] Setting up inception_4b/output_inception_4b/output_0_split
I1104 10:45:10.880955 27012 net.cpp:148] Top shape: 128 512 2 2 (262144)
I1104 10:45:10.880959 27012 net.cpp:148] Top shape: 128 512 2 2 (262144)
I1104 10:45:10.880961 27012 net.cpp:148] Top shape: 128 512 2 2 (262144)
I1104 10:45:10.880964 27012 net.cpp:148] Top shape: 128 512 2 2 (262144)
I1104 10:45:10.880965 27012 net.cpp:156] Memory required for data: 113744900
I1104 10:45:10.880967 27012 layer_factory.hpp:77] Creating layer inception_4c/1x1
I1104 10:45:10.880972 27012 net.cpp:91] Creating Layer inception_4c/1x1
I1104 10:45:10.880975 27012 net.cpp:425] inception_4c/1x1 <- inception_4b/output_inception_4b/output_0_split_0
I1104 10:45:10.880980 27012 net.cpp:399] inception_4c/1x1 -> inception_4c/1x1
I1104 10:45:10.881309 27012 net.cpp:141] Setting up inception_4c/1x1
I1104 10:45:10.881314 27012 net.cpp:148] Top shape: 128 128 2 2 (65536)
I1104 10:45:10.881316 27012 net.cpp:156] Memory required for data: 114007044
I1104 10:45:10.881319 27012 layer_factory.hpp:77] Creating layer inception_4c/relu_1x1
I1104 10:45:10.881322 27012 net.cpp:91] Creating Layer inception_4c/relu_1x1
I1104 10:45:10.881325 27012 net.cpp:425] inception_4c/relu_1x1 <- inception_4c/1x1
I1104 10:45:10.881327 27012 net.cpp:386] inception_4c/relu_1x1 -> inception_4c/1x1 (in-place)
I1104 10:45:10.881330 27012 net.cpp:141] Setting up inception_4c/relu_1x1
I1104 10:45:10.881333 27012 net.cpp:148] Top shape: 128 128 2 2 (65536)
I1104 10:45:10.881335 27012 net.cpp:156] Memory required for data: 114269188
I1104 10:45:10.881336 27012 layer_factory.hpp:77] Creating layer inception_4c/3x3_reduce
I1104 10:45:10.881341 27012 net.cpp:91] Creating Layer inception_4c/3x3_reduce
I1104 10:45:10.881345 27012 net.cpp:425] inception_4c/3x3_reduce <- inception_4b/output_inception_4b/output_0_split_1
I1104 10:45:10.881348 27012 net.cpp:399] inception_4c/3x3_reduce -> inception_4c/3x3_reduce
I1104 10:45:10.881680 27012 net.cpp:141] Setting up inception_4c/3x3_reduce
I1104 10:45:10.881685 27012 net.cpp:148] Top shape: 128 128 2 2 (65536)
I1104 10:45:10.881686 27012 net.cpp:156] Memory required for data: 114531332
I1104 10:45:10.881690 27012 layer_factory.hpp:77] Creating layer inception_4c/relu_3x3_reduce
I1104 10:45:10.881692 27012 net.cpp:91] Creating Layer inception_4c/relu_3x3_reduce
I1104 10:45:10.881695 27012 net.cpp:425] inception_4c/relu_3x3_reduce <- inception_4c/3x3_reduce
I1104 10:45:10.881698 27012 net.cpp:386] inception_4c/relu_3x3_reduce -> inception_4c/3x3_reduce (in-place)
I1104 10:45:10.881702 27012 net.cpp:141] Setting up inception_4c/relu_3x3_reduce
I1104 10:45:10.881705 27012 net.cpp:148] Top shape: 128 128 2 2 (65536)
I1104 10:45:10.881707 27012 net.cpp:156] Memory required for data: 114793476
I1104 10:45:10.881709 27012 layer_factory.hpp:77] Creating layer inception_4c/3x3
I1104 10:45:10.881713 27012 net.cpp:91] Creating Layer inception_4c/3x3
I1104 10:45:10.881716 27012 net.cpp:425] inception_4c/3x3 <- inception_4c/3x3_reduce
I1104 10:45:10.881719 27012 net.cpp:399] inception_4c/3x3 -> inception_4c/3x3
I1104 10:45:10.882858 27012 net.cpp:141] Setting up inception_4c/3x3
I1104 10:45:10.882863 27012 net.cpp:148] Top shape: 128 256 2 2 (131072)
I1104 10:45:10.882864 27012 net.cpp:156] Memory required for data: 115317764
I1104 10:45:10.882887 27012 layer_factory.hpp:77] Creating layer inception_4c/relu_3x3
I1104 10:45:10.882891 27012 net.cpp:91] Creating Layer inception_4c/relu_3x3
I1104 10:45:10.882894 27012 net.cpp:425] inception_4c/relu_3x3 <- inception_4c/3x3
I1104 10:45:10.882897 27012 net.cpp:386] inception_4c/relu_3x3 -> inception_4c/3x3 (in-place)
I1104 10:45:10.882900 27012 net.cpp:141] Setting up inception_4c/relu_3x3
I1104 10:45:10.882903 27012 net.cpp:148] Top shape: 128 256 2 2 (131072)
I1104 10:45:10.882905 27012 net.cpp:156] Memory required for data: 115842052
I1104 10:45:10.882906 27012 layer_factory.hpp:77] Creating layer inception_4c/5x5_reduce
I1104 10:45:10.882910 27012 net.cpp:91] Creating Layer inception_4c/5x5_reduce
I1104 10:45:10.882913 27012 net.cpp:425] inception_4c/5x5_reduce <- inception_4b/output_inception_4b/output_0_split_2
I1104 10:45:10.882923 27012 net.cpp:399] inception_4c/5x5_reduce -> inception_4c/5x5_reduce
I1104 10:45:10.883172 27012 net.cpp:141] Setting up inception_4c/5x5_reduce
I1104 10:45:10.883177 27012 net.cpp:148] Top shape: 128 24 2 2 (12288)
I1104 10:45:10.883179 27012 net.cpp:156] Memory required for data: 115891204
I1104 10:45:10.883194 27012 layer_factory.hpp:77] Creating layer inception_4c/relu_5x5_reduce
I1104 10:45:10.883198 27012 net.cpp:91] Creating Layer inception_4c/relu_5x5_reduce
I1104 10:45:10.883200 27012 net.cpp:425] inception_4c/relu_5x5_reduce <- inception_4c/5x5_reduce
I1104 10:45:10.883219 27012 net.cpp:386] inception_4c/relu_5x5_reduce -> inception_4c/5x5_reduce (in-place)
I1104 10:45:10.883224 27012 net.cpp:141] Setting up inception_4c/relu_5x5_reduce
I1104 10:45:10.883225 27012 net.cpp:148] Top shape: 128 24 2 2 (12288)
I1104 10:45:10.883227 27012 net.cpp:156] Memory required for data: 115940356
I1104 10:45:10.883245 27012 layer_factory.hpp:77] Creating layer inception_4c/5x5
I1104 10:45:10.883249 27012 net.cpp:91] Creating Layer inception_4c/5x5
I1104 10:45:10.883251 27012 net.cpp:425] inception_4c/5x5 <- inception_4c/5x5_reduce
I1104 10:45:10.883255 27012 net.cpp:399] inception_4c/5x5 -> inception_4c/5x5
I1104 10:45:10.883985 27012 net.cpp:141] Setting up inception_4c/5x5
I1104 10:45:10.883993 27012 net.cpp:148] Top shape: 128 64 2 2 (32768)
I1104 10:45:10.883996 27012 net.cpp:156] Memory required for data: 116071428
I1104 10:45:10.884014 27012 layer_factory.hpp:77] Creating layer inception_4c/relu_5x5
I1104 10:45:10.884018 27012 net.cpp:91] Creating Layer inception_4c/relu_5x5
I1104 10:45:10.884021 27012 net.cpp:425] inception_4c/relu_5x5 <- inception_4c/5x5
I1104 10:45:10.884024 27012 net.cpp:386] inception_4c/relu_5x5 -> inception_4c/5x5 (in-place)
I1104 10:45:10.884029 27012 net.cpp:141] Setting up inception_4c/relu_5x5
I1104 10:45:10.884032 27012 net.cpp:148] Top shape: 128 64 2 2 (32768)
I1104 10:45:10.884034 27012 net.cpp:156] Memory required for data: 116202500
I1104 10:45:10.884037 27012 layer_factory.hpp:77] Creating layer inception_4c/pool
I1104 10:45:10.884039 27012 net.cpp:91] Creating Layer inception_4c/pool
I1104 10:45:10.884042 27012 net.cpp:425] inception_4c/pool <- inception_4b/output_inception_4b/output_0_split_3
I1104 10:45:10.884045 27012 net.cpp:399] inception_4c/pool -> inception_4c/pool
I1104 10:45:10.884068 27012 net.cpp:141] Setting up inception_4c/pool
I1104 10:45:10.884073 27012 net.cpp:148] Top shape: 128 512 2 2 (262144)
I1104 10:45:10.884074 27012 net.cpp:156] Memory required for data: 117251076
I1104 10:45:10.884076 27012 layer_factory.hpp:77] Creating layer inception_4c/pool_proj
I1104 10:45:10.884081 27012 net.cpp:91] Creating Layer inception_4c/pool_proj
I1104 10:45:10.884083 27012 net.cpp:425] inception_4c/pool_proj <- inception_4c/pool
I1104 10:45:10.884088 27012 net.cpp:399] inception_4c/pool_proj -> inception_4c/pool_proj
I1104 10:45:10.884356 27012 net.cpp:141] Setting up inception_4c/pool_proj
I1104 10:45:10.884361 27012 net.cpp:148] Top shape: 128 64 2 2 (32768)
I1104 10:45:10.884362 27012 net.cpp:156] Memory required for data: 117382148
I1104 10:45:10.884382 27012 layer_factory.hpp:77] Creating layer inception_4c/relu_pool_proj
I1104 10:45:10.884384 27012 net.cpp:91] Creating Layer inception_4c/relu_pool_proj
I1104 10:45:10.884387 27012 net.cpp:425] inception_4c/relu_pool_proj <- inception_4c/pool_proj
I1104 10:45:10.884390 27012 net.cpp:386] inception_4c/relu_pool_proj -> inception_4c/pool_proj (in-place)
I1104 10:45:10.884394 27012 net.cpp:141] Setting up inception_4c/relu_pool_proj
I1104 10:45:10.884397 27012 net.cpp:148] Top shape: 128 64 2 2 (32768)
I1104 10:45:10.884398 27012 net.cpp:156] Memory required for data: 117513220
I1104 10:45:10.884400 27012 layer_factory.hpp:77] Creating layer inception_4c/output
I1104 10:45:10.884403 27012 net.cpp:91] Creating Layer inception_4c/output
I1104 10:45:10.884405 27012 net.cpp:425] inception_4c/output <- inception_4c/1x1
I1104 10:45:10.884407 27012 net.cpp:425] inception_4c/output <- inception_4c/3x3
I1104 10:45:10.884416 27012 net.cpp:425] inception_4c/output <- inception_4c/5x5
I1104 10:45:10.884419 27012 net.cpp:425] inception_4c/output <- inception_4c/pool_proj
I1104 10:45:10.884423 27012 net.cpp:399] inception_4c/output -> inception_4c/output
I1104 10:45:10.884438 27012 net.cpp:141] Setting up inception_4c/output
I1104 10:45:10.884441 27012 net.cpp:148] Top shape: 128 512 2 2 (262144)
I1104 10:45:10.884443 27012 net.cpp:156] Memory required for data: 118561796
I1104 10:45:10.884445 27012 layer_factory.hpp:77] Creating layer inception_4c/output_inception_4c/output_0_split
I1104 10:45:10.884449 27012 net.cpp:91] Creating Layer inception_4c/output_inception_4c/output_0_split
I1104 10:45:10.884450 27012 net.cpp:425] inception_4c/output_inception_4c/output_0_split <- inception_4c/output
I1104 10:45:10.884455 27012 net.cpp:399] inception_4c/output_inception_4c/output_0_split -> inception_4c/output_inception_4c/output_0_split_0
I1104 10:45:10.884459 27012 net.cpp:399] inception_4c/output_inception_4c/output_0_split -> inception_4c/output_inception_4c/output_0_split_1
I1104 10:45:10.884462 27012 net.cpp:399] inception_4c/output_inception_4c/output_0_split -> inception_4c/output_inception_4c/output_0_split_2
I1104 10:45:10.884467 27012 net.cpp:399] inception_4c/output_inception_4c/output_0_split -> inception_4c/output_inception_4c/output_0_split_3
I1104 10:45:10.884500 27012 net.cpp:141] Setting up inception_4c/output_inception_4c/output_0_split
I1104 10:45:10.884503 27012 net.cpp:148] Top shape: 128 512 2 2 (262144)
I1104 10:45:10.884506 27012 net.cpp:148] Top shape: 128 512 2 2 (262144)
I1104 10:45:10.884508 27012 net.cpp:148] Top shape: 128 512 2 2 (262144)
I1104 10:45:10.884510 27012 net.cpp:148] Top shape: 128 512 2 2 (262144)
I1104 10:45:10.884512 27012 net.cpp:156] Memory required for data: 122756100
I1104 10:45:10.884515 27012 layer_factory.hpp:77] Creating layer inception_4d/1x1
I1104 10:45:10.884519 27012 net.cpp:91] Creating Layer inception_4d/1x1
I1104 10:45:10.884522 27012 net.cpp:425] inception_4d/1x1 <- inception_4c/output_inception_4c/output_0_split_0
I1104 10:45:10.884526 27012 net.cpp:399] inception_4d/1x1 -> inception_4d/1x1
I1104 10:45:10.884871 27012 net.cpp:141] Setting up inception_4d/1x1
I1104 10:45:10.884876 27012 net.cpp:148] Top shape: 128 112 2 2 (57344)
I1104 10:45:10.884877 27012 net.cpp:156] Memory required for data: 122985476
I1104 10:45:10.884881 27012 layer_factory.hpp:77] Creating layer inception_4d/relu_1x1
I1104 10:45:10.884883 27012 net.cpp:91] Creating Layer inception_4d/relu_1x1
I1104 10:45:10.884886 27012 net.cpp:425] inception_4d/relu_1x1 <- inception_4d/1x1
I1104 10:45:10.884891 27012 net.cpp:386] inception_4d/relu_1x1 -> inception_4d/1x1 (in-place)
I1104 10:45:10.884894 27012 net.cpp:141] Setting up inception_4d/relu_1x1
I1104 10:45:10.884897 27012 net.cpp:148] Top shape: 128 112 2 2 (57344)
I1104 10:45:10.884899 27012 net.cpp:156] Memory required for data: 123214852
I1104 10:45:10.884902 27012 layer_factory.hpp:77] Creating layer inception_4d/3x3_reduce
I1104 10:45:10.884905 27012 net.cpp:91] Creating Layer inception_4d/3x3_reduce
I1104 10:45:10.884908 27012 net.cpp:425] inception_4d/3x3_reduce <- inception_4c/output_inception_4c/output_0_split_1
I1104 10:45:10.884912 27012 net.cpp:399] inception_4d/3x3_reduce -> inception_4d/3x3_reduce
I1104 10:45:10.885300 27012 net.cpp:141] Setting up inception_4d/3x3_reduce
I1104 10:45:10.885306 27012 net.cpp:148] Top shape: 128 144 2 2 (73728)
I1104 10:45:10.885308 27012 net.cpp:156] Memory required for data: 123509764
I1104 10:45:10.885311 27012 layer_factory.hpp:77] Creating layer inception_4d/relu_3x3_reduce
I1104 10:45:10.885315 27012 net.cpp:91] Creating Layer inception_4d/relu_3x3_reduce
I1104 10:45:10.885318 27012 net.cpp:425] inception_4d/relu_3x3_reduce <- inception_4d/3x3_reduce
I1104 10:45:10.885320 27012 net.cpp:386] inception_4d/relu_3x3_reduce -> inception_4d/3x3_reduce (in-place)
I1104 10:45:10.885324 27012 net.cpp:141] Setting up inception_4d/relu_3x3_reduce
I1104 10:45:10.885327 27012 net.cpp:148] Top shape: 128 144 2 2 (73728)
I1104 10:45:10.885334 27012 net.cpp:156] Memory required for data: 123804676
I1104 10:45:10.885336 27012 layer_factory.hpp:77] Creating layer inception_4d/3x3
I1104 10:45:10.885341 27012 net.cpp:91] Creating Layer inception_4d/3x3
I1104 10:45:10.885344 27012 net.cpp:425] inception_4d/3x3 <- inception_4d/3x3_reduce
I1104 10:45:10.885349 27012 net.cpp:399] inception_4d/3x3 -> inception_4d/3x3
I1104 10:45:10.887176 27012 net.cpp:141] Setting up inception_4d/3x3
I1104 10:45:10.887184 27012 net.cpp:148] Top shape: 128 288 2 2 (147456)
I1104 10:45:10.887187 27012 net.cpp:156] Memory required for data: 124394500
I1104 10:45:10.887190 27012 layer_factory.hpp:77] Creating layer inception_4d/relu_3x3
I1104 10:45:10.887193 27012 net.cpp:91] Creating Layer inception_4d/relu_3x3
I1104 10:45:10.887197 27012 net.cpp:425] inception_4d/relu_3x3 <- inception_4d/3x3
I1104 10:45:10.887202 27012 net.cpp:386] inception_4d/relu_3x3 -> inception_4d/3x3 (in-place)
I1104 10:45:10.887204 27012 net.cpp:141] Setting up inception_4d/relu_3x3
I1104 10:45:10.887207 27012 net.cpp:148] Top shape: 128 288 2 2 (147456)
I1104 10:45:10.887209 27012 net.cpp:156] Memory required for data: 124984324
I1104 10:45:10.887212 27012 layer_factory.hpp:77] Creating layer inception_4d/5x5_reduce
I1104 10:45:10.887215 27012 net.cpp:91] Creating Layer inception_4d/5x5_reduce
I1104 10:45:10.887218 27012 net.cpp:425] inception_4d/5x5_reduce <- inception_4c/output_inception_4c/output_0_split_2
I1104 10:45:10.887223 27012 net.cpp:399] inception_4d/5x5_reduce -> inception_4d/5x5_reduce
I1104 10:45:10.887403 27012 net.cpp:141] Setting up inception_4d/5x5_reduce
I1104 10:45:10.887408 27012 net.cpp:148] Top shape: 128 32 2 2 (16384)
I1104 10:45:10.887411 27012 net.cpp:156] Memory required for data: 125049860
I1104 10:45:10.887414 27012 layer_factory.hpp:77] Creating layer inception_4d/relu_5x5_reduce
I1104 10:45:10.887418 27012 net.cpp:91] Creating Layer inception_4d/relu_5x5_reduce
I1104 10:45:10.887420 27012 net.cpp:425] inception_4d/relu_5x5_reduce <- inception_4d/5x5_reduce
I1104 10:45:10.887423 27012 net.cpp:386] inception_4d/relu_5x5_reduce -> inception_4d/5x5_reduce (in-place)
I1104 10:45:10.887425 27012 net.cpp:141] Setting up inception_4d/relu_5x5_reduce
I1104 10:45:10.887428 27012 net.cpp:148] Top shape: 128 32 2 2 (16384)
I1104 10:45:10.887430 27012 net.cpp:156] Memory required for data: 125115396
I1104 10:45:10.887431 27012 layer_factory.hpp:77] Creating layer inception_4d/5x5
I1104 10:45:10.887436 27012 net.cpp:91] Creating Layer inception_4d/5x5
I1104 10:45:10.887439 27012 net.cpp:425] inception_4d/5x5 <- inception_4d/5x5_reduce
I1104 10:45:10.887444 27012 net.cpp:399] inception_4d/5x5 -> inception_4d/5x5
I1104 10:45:10.887727 27012 net.cpp:141] Setting up inception_4d/5x5
I1104 10:45:10.887732 27012 net.cpp:148] Top shape: 128 64 2 2 (32768)
I1104 10:45:10.887734 27012 net.cpp:156] Memory required for data: 125246468
I1104 10:45:10.887737 27012 layer_factory.hpp:77] Creating layer inception_4d/relu_5x5
I1104 10:45:10.887740 27012 net.cpp:91] Creating Layer inception_4d/relu_5x5
I1104 10:45:10.887742 27012 net.cpp:425] inception_4d/relu_5x5 <- inception_4d/5x5
I1104 10:45:10.887747 27012 net.cpp:386] inception_4d/relu_5x5 -> inception_4d/5x5 (in-place)
I1104 10:45:10.887750 27012 net.cpp:141] Setting up inception_4d/relu_5x5
I1104 10:45:10.887753 27012 net.cpp:148] Top shape: 128 64 2 2 (32768)
I1104 10:45:10.887755 27012 net.cpp:156] Memory required for data: 125377540
I1104 10:45:10.887758 27012 layer_factory.hpp:77] Creating layer inception_4d/pool
I1104 10:45:10.887760 27012 net.cpp:91] Creating Layer inception_4d/pool
I1104 10:45:10.887763 27012 net.cpp:425] inception_4d/pool <- inception_4c/output_inception_4c/output_0_split_3
I1104 10:45:10.887765 27012 net.cpp:399] inception_4d/pool -> inception_4d/pool
I1104 10:45:10.887785 27012 net.cpp:141] Setting up inception_4d/pool
I1104 10:45:10.887789 27012 net.cpp:148] Top shape: 128 512 2 2 (262144)
I1104 10:45:10.887791 27012 net.cpp:156] Memory required for data: 126426116
I1104 10:45:10.887794 27012 layer_factory.hpp:77] Creating layer inception_4d/pool_proj
I1104 10:45:10.887804 27012 net.cpp:91] Creating Layer inception_4d/pool_proj
I1104 10:45:10.887809 27012 net.cpp:425] inception_4d/pool_proj <- inception_4d/pool
I1104 10:45:10.887812 27012 net.cpp:399] inception_4d/pool_proj -> inception_4d/pool_proj
I1104 10:45:10.888038 27012 net.cpp:141] Setting up inception_4d/pool_proj
I1104 10:45:10.888043 27012 net.cpp:148] Top shape: 128 64 2 2 (32768)
I1104 10:45:10.888046 27012 net.cpp:156] Memory required for data: 126557188
I1104 10:45:10.888048 27012 layer_factory.hpp:77] Creating layer inception_4d/relu_pool_proj
I1104 10:45:10.888051 27012 net.cpp:91] Creating Layer inception_4d/relu_pool_proj
I1104 10:45:10.888056 27012 net.cpp:425] inception_4d/relu_pool_proj <- inception_4d/pool_proj
I1104 10:45:10.888057 27012 net.cpp:386] inception_4d/relu_pool_proj -> inception_4d/pool_proj (in-place)
I1104 10:45:10.888061 27012 net.cpp:141] Setting up inception_4d/relu_pool_proj
I1104 10:45:10.888063 27012 net.cpp:148] Top shape: 128 64 2 2 (32768)
I1104 10:45:10.888065 27012 net.cpp:156] Memory required for data: 126688260
I1104 10:45:10.888067 27012 layer_factory.hpp:77] Creating layer inception_4d/output
I1104 10:45:10.888069 27012 net.cpp:91] Creating Layer inception_4d/output
I1104 10:45:10.888072 27012 net.cpp:425] inception_4d/output <- inception_4d/1x1
I1104 10:45:10.888074 27012 net.cpp:425] inception_4d/output <- inception_4d/3x3
I1104 10:45:10.888077 27012 net.cpp:425] inception_4d/output <- inception_4d/5x5
I1104 10:45:10.888079 27012 net.cpp:425] inception_4d/output <- inception_4d/pool_proj
I1104 10:45:10.888082 27012 net.cpp:399] inception_4d/output -> inception_4d/output
I1104 10:45:10.888098 27012 net.cpp:141] Setting up inception_4d/output
I1104 10:45:10.888101 27012 net.cpp:148] Top shape: 128 528 2 2 (270336)
I1104 10:45:10.888103 27012 net.cpp:156] Memory required for data: 127769604
I1104 10:45:10.888105 27012 layer_factory.hpp:77] Creating layer inception_4d/output_inception_4d/output_0_split
I1104 10:45:10.888109 27012 net.cpp:91] Creating Layer inception_4d/output_inception_4d/output_0_split
I1104 10:45:10.888111 27012 net.cpp:425] inception_4d/output_inception_4d/output_0_split <- inception_4d/output
I1104 10:45:10.888115 27012 net.cpp:399] inception_4d/output_inception_4d/output_0_split -> inception_4d/output_inception_4d/output_0_split_0
I1104 10:45:10.888119 27012 net.cpp:399] inception_4d/output_inception_4d/output_0_split -> inception_4d/output_inception_4d/output_0_split_1
I1104 10:45:10.888124 27012 net.cpp:399] inception_4d/output_inception_4d/output_0_split -> inception_4d/output_inception_4d/output_0_split_2
I1104 10:45:10.888129 27012 net.cpp:399] inception_4d/output_inception_4d/output_0_split -> inception_4d/output_inception_4d/output_0_split_3
I1104 10:45:10.888133 27012 net.cpp:399] inception_4d/output_inception_4d/output_0_split -> inception_4d/output_inception_4d/output_0_split_4
I1104 10:45:10.888170 27012 net.cpp:141] Setting up inception_4d/output_inception_4d/output_0_split
I1104 10:45:10.888175 27012 net.cpp:148] Top shape: 128 528 2 2 (270336)
I1104 10:45:10.888177 27012 net.cpp:148] Top shape: 128 528 2 2 (270336)
I1104 10:45:10.888180 27012 net.cpp:148] Top shape: 128 528 2 2 (270336)
I1104 10:45:10.888181 27012 net.cpp:148] Top shape: 128 528 2 2 (270336)
I1104 10:45:10.888185 27012 net.cpp:148] Top shape: 128 528 2 2 (270336)
I1104 10:45:10.888185 27012 net.cpp:156] Memory required for data: 133176324
I1104 10:45:10.888187 27012 layer_factory.hpp:77] Creating layer loss2/ave_pool
I1104 10:45:10.888191 27012 net.cpp:91] Creating Layer loss2/ave_pool
I1104 10:45:10.888195 27012 net.cpp:425] loss2/ave_pool <- inception_4d/output_inception_4d/output_0_split_0
I1104 10:45:10.888197 27012 net.cpp:399] loss2/ave_pool -> loss2/ave_pool
I1104 10:45:10.888209 27012 net.cpp:141] Setting up loss2/ave_pool
I1104 10:45:10.888213 27012 net.cpp:148] Top shape: 128 528 1 1 (67584)
I1104 10:45:10.888216 27012 net.cpp:156] Memory required for data: 133446660
I1104 10:45:10.888217 27012 layer_factory.hpp:77] Creating layer loss2/conv
I1104 10:45:10.888226 27012 net.cpp:91] Creating Layer loss2/conv
I1104 10:45:10.888229 27012 net.cpp:425] loss2/conv <- loss2/ave_pool
I1104 10:45:10.888234 27012 net.cpp:399] loss2/conv -> loss2/conv
I1104 10:45:10.888564 27012 net.cpp:141] Setting up loss2/conv
I1104 10:45:10.888569 27012 net.cpp:148] Top shape: 128 128 1 1 (16384)
I1104 10:45:10.888571 27012 net.cpp:156] Memory required for data: 133512196
I1104 10:45:10.888576 27012 layer_factory.hpp:77] Creating layer loss2/relu_conv
I1104 10:45:10.888578 27012 net.cpp:91] Creating Layer loss2/relu_conv
I1104 10:45:10.888581 27012 net.cpp:425] loss2/relu_conv <- loss2/conv
I1104 10:45:10.888584 27012 net.cpp:386] loss2/relu_conv -> loss2/conv (in-place)
I1104 10:45:10.888587 27012 net.cpp:141] Setting up loss2/relu_conv
I1104 10:45:10.888589 27012 net.cpp:148] Top shape: 128 128 1 1 (16384)
I1104 10:45:10.888592 27012 net.cpp:156] Memory required for data: 133577732
I1104 10:45:10.888593 27012 layer_factory.hpp:77] Creating layer loss2/fc
I1104 10:45:10.888598 27012 net.cpp:91] Creating Layer loss2/fc
I1104 10:45:10.888600 27012 net.cpp:425] loss2/fc <- loss2/conv
I1104 10:45:10.888602 27012 net.cpp:399] loss2/fc -> loss2/fc
I1104 10:45:10.889077 27012 net.cpp:141] Setting up loss2/fc
I1104 10:45:10.889082 27012 net.cpp:148] Top shape: 128 1024 (131072)
I1104 10:45:10.889084 27012 net.cpp:156] Memory required for data: 134102020
I1104 10:45:10.889087 27012 layer_factory.hpp:77] Creating layer loss2/relu_fc
I1104 10:45:10.889091 27012 net.cpp:91] Creating Layer loss2/relu_fc
I1104 10:45:10.889092 27012 net.cpp:425] loss2/relu_fc <- loss2/fc
I1104 10:45:10.889096 27012 net.cpp:386] loss2/relu_fc -> loss2/fc (in-place)
I1104 10:45:10.889098 27012 net.cpp:141] Setting up loss2/relu_fc
I1104 10:45:10.889101 27012 net.cpp:148] Top shape: 128 1024 (131072)
I1104 10:45:10.889103 27012 net.cpp:156] Memory required for data: 134626308
I1104 10:45:10.889104 27012 layer_factory.hpp:77] Creating layer loss2/drop_fc
I1104 10:45:10.889108 27012 net.cpp:91] Creating Layer loss2/drop_fc
I1104 10:45:10.889111 27012 net.cpp:425] loss2/drop_fc <- loss2/fc
I1104 10:45:10.889113 27012 net.cpp:386] loss2/drop_fc -> loss2/fc (in-place)
I1104 10:45:10.889122 27012 net.cpp:141] Setting up loss2/drop_fc
I1104 10:45:10.889127 27012 net.cpp:148] Top shape: 128 1024 (131072)
I1104 10:45:10.889128 27012 net.cpp:156] Memory required for data: 135150596
I1104 10:45:10.889130 27012 layer_factory.hpp:77] Creating layer loss2/classifier
I1104 10:45:10.889134 27012 net.cpp:91] Creating Layer loss2/classifier
I1104 10:45:10.889137 27012 net.cpp:425] loss2/classifier <- loss2/fc
I1104 10:45:10.889139 27012 net.cpp:399] loss2/classifier -> loss2/classifier
I1104 10:45:10.889226 27012 net.cpp:141] Setting up loss2/classifier
I1104 10:45:10.889230 27012 net.cpp:148] Top shape: 128 10 (1280)
I1104 10:45:10.889232 27012 net.cpp:156] Memory required for data: 135155716
I1104 10:45:10.889235 27012 layer_factory.hpp:77] Creating layer loss2/loss
I1104 10:45:10.889238 27012 net.cpp:91] Creating Layer loss2/loss
I1104 10:45:10.889241 27012 net.cpp:425] loss2/loss <- loss2/classifier
I1104 10:45:10.889243 27012 net.cpp:425] loss2/loss <- label_cifar_1_split_1
I1104 10:45:10.889246 27012 net.cpp:399] loss2/loss -> loss2/loss
I1104 10:45:10.889251 27012 layer_factory.hpp:77] Creating layer loss2/loss
I1104 10:45:10.889298 27012 net.cpp:141] Setting up loss2/loss
I1104 10:45:10.889302 27012 net.cpp:148] Top shape: (1)
I1104 10:45:10.889304 27012 net.cpp:151]     with loss weight 0.3
I1104 10:45:10.889312 27012 net.cpp:156] Memory required for data: 135155720
I1104 10:45:10.889313 27012 layer_factory.hpp:77] Creating layer inception_4e/1x1
I1104 10:45:10.889317 27012 net.cpp:91] Creating Layer inception_4e/1x1
I1104 10:45:10.889319 27012 net.cpp:425] inception_4e/1x1 <- inception_4d/output_inception_4d/output_0_split_1
I1104 10:45:10.889324 27012 net.cpp:399] inception_4e/1x1 -> inception_4e/1x1
I1104 10:45:10.890296 27012 net.cpp:141] Setting up inception_4e/1x1
I1104 10:45:10.890310 27012 net.cpp:148] Top shape: 128 256 2 2 (131072)
I1104 10:45:10.890312 27012 net.cpp:156] Memory required for data: 135680008
I1104 10:45:10.890316 27012 layer_factory.hpp:77] Creating layer inception_4e/relu_1x1
I1104 10:45:10.890321 27012 net.cpp:91] Creating Layer inception_4e/relu_1x1
I1104 10:45:10.890324 27012 net.cpp:425] inception_4e/relu_1x1 <- inception_4e/1x1
I1104 10:45:10.890327 27012 net.cpp:386] inception_4e/relu_1x1 -> inception_4e/1x1 (in-place)
I1104 10:45:10.890331 27012 net.cpp:141] Setting up inception_4e/relu_1x1
I1104 10:45:10.890334 27012 net.cpp:148] Top shape: 128 256 2 2 (131072)
I1104 10:45:10.890336 27012 net.cpp:156] Memory required for data: 136204296
I1104 10:45:10.890338 27012 layer_factory.hpp:77] Creating layer inception_4e/3x3_reduce
I1104 10:45:10.890343 27012 net.cpp:91] Creating Layer inception_4e/3x3_reduce
I1104 10:45:10.890347 27012 net.cpp:425] inception_4e/3x3_reduce <- inception_4d/output_inception_4d/output_0_split_2
I1104 10:45:10.890352 27012 net.cpp:399] inception_4e/3x3_reduce -> inception_4e/3x3_reduce
I1104 10:45:10.890751 27012 net.cpp:141] Setting up inception_4e/3x3_reduce
I1104 10:45:10.890756 27012 net.cpp:148] Top shape: 128 160 2 2 (81920)
I1104 10:45:10.890758 27012 net.cpp:156] Memory required for data: 136531976
I1104 10:45:10.890761 27012 layer_factory.hpp:77] Creating layer inception_4e/relu_3x3_reduce
I1104 10:45:10.890764 27012 net.cpp:91] Creating Layer inception_4e/relu_3x3_reduce
I1104 10:45:10.890767 27012 net.cpp:425] inception_4e/relu_3x3_reduce <- inception_4e/3x3_reduce
I1104 10:45:10.890770 27012 net.cpp:386] inception_4e/relu_3x3_reduce -> inception_4e/3x3_reduce (in-place)
I1104 10:45:10.890774 27012 net.cpp:141] Setting up inception_4e/relu_3x3_reduce
I1104 10:45:10.890777 27012 net.cpp:148] Top shape: 128 160 2 2 (81920)
I1104 10:45:10.890779 27012 net.cpp:156] Memory required for data: 136859656
I1104 10:45:10.890781 27012 layer_factory.hpp:77] Creating layer inception_4e/3x3
I1104 10:45:10.890785 27012 net.cpp:91] Creating Layer inception_4e/3x3
I1104 10:45:10.890787 27012 net.cpp:425] inception_4e/3x3 <- inception_4e/3x3_reduce
I1104 10:45:10.890791 27012 net.cpp:399] inception_4e/3x3 -> inception_4e/3x3
I1104 10:45:10.892830 27012 net.cpp:141] Setting up inception_4e/3x3
I1104 10:45:10.892838 27012 net.cpp:148] Top shape: 128 320 2 2 (163840)
I1104 10:45:10.892839 27012 net.cpp:156] Memory required for data: 137515016
I1104 10:45:10.892843 27012 layer_factory.hpp:77] Creating layer inception_4e/relu_3x3
I1104 10:45:10.892846 27012 net.cpp:91] Creating Layer inception_4e/relu_3x3
I1104 10:45:10.892850 27012 net.cpp:425] inception_4e/relu_3x3 <- inception_4e/3x3
I1104 10:45:10.892853 27012 net.cpp:386] inception_4e/relu_3x3 -> inception_4e/3x3 (in-place)
I1104 10:45:10.892858 27012 net.cpp:141] Setting up inception_4e/relu_3x3
I1104 10:45:10.892860 27012 net.cpp:148] Top shape: 128 320 2 2 (163840)
I1104 10:45:10.892863 27012 net.cpp:156] Memory required for data: 138170376
I1104 10:45:10.892863 27012 layer_factory.hpp:77] Creating layer inception_4e/5x5_reduce
I1104 10:45:10.892869 27012 net.cpp:91] Creating Layer inception_4e/5x5_reduce
I1104 10:45:10.892871 27012 net.cpp:425] inception_4e/5x5_reduce <- inception_4d/output_inception_4d/output_0_split_3
I1104 10:45:10.892875 27012 net.cpp:399] inception_4e/5x5_reduce -> inception_4e/5x5_reduce
I1104 10:45:10.893059 27012 net.cpp:141] Setting up inception_4e/5x5_reduce
I1104 10:45:10.893064 27012 net.cpp:148] Top shape: 128 32 2 2 (16384)
I1104 10:45:10.893066 27012 net.cpp:156] Memory required for data: 138235912
I1104 10:45:10.893069 27012 layer_factory.hpp:77] Creating layer inception_4e/relu_5x5_reduce
I1104 10:45:10.893071 27012 net.cpp:91] Creating Layer inception_4e/relu_5x5_reduce
I1104 10:45:10.893074 27012 net.cpp:425] inception_4e/relu_5x5_reduce <- inception_4e/5x5_reduce
I1104 10:45:10.893077 27012 net.cpp:386] inception_4e/relu_5x5_reduce -> inception_4e/5x5_reduce (in-place)
I1104 10:45:10.893081 27012 net.cpp:141] Setting up inception_4e/relu_5x5_reduce
I1104 10:45:10.893090 27012 net.cpp:148] Top shape: 128 32 2 2 (16384)
I1104 10:45:10.893091 27012 net.cpp:156] Memory required for data: 138301448
I1104 10:45:10.893093 27012 layer_factory.hpp:77] Creating layer inception_4e/5x5
I1104 10:45:10.893110 27012 net.cpp:91] Creating Layer inception_4e/5x5
I1104 10:45:10.893113 27012 net.cpp:425] inception_4e/5x5 <- inception_4e/5x5_reduce
I1104 10:45:10.893116 27012 net.cpp:399] inception_4e/5x5 -> inception_4e/5x5
I1104 10:45:10.893560 27012 net.cpp:141] Setting up inception_4e/5x5
I1104 10:45:10.893563 27012 net.cpp:148] Top shape: 128 128 2 2 (65536)
I1104 10:45:10.893565 27012 net.cpp:156] Memory required for data: 138563592
I1104 10:45:10.893568 27012 layer_factory.hpp:77] Creating layer inception_4e/relu_5x5
I1104 10:45:10.893571 27012 net.cpp:91] Creating Layer inception_4e/relu_5x5
I1104 10:45:10.893573 27012 net.cpp:425] inception_4e/relu_5x5 <- inception_4e/5x5
I1104 10:45:10.893576 27012 net.cpp:386] inception_4e/relu_5x5 -> inception_4e/5x5 (in-place)
I1104 10:45:10.893579 27012 net.cpp:141] Setting up inception_4e/relu_5x5
I1104 10:45:10.893582 27012 net.cpp:148] Top shape: 128 128 2 2 (65536)
I1104 10:45:10.893584 27012 net.cpp:156] Memory required for data: 138825736
I1104 10:45:10.893586 27012 layer_factory.hpp:77] Creating layer inception_4e/pool
I1104 10:45:10.893589 27012 net.cpp:91] Creating Layer inception_4e/pool
I1104 10:45:10.893591 27012 net.cpp:425] inception_4e/pool <- inception_4d/output_inception_4d/output_0_split_4
I1104 10:45:10.893595 27012 net.cpp:399] inception_4e/pool -> inception_4e/pool
I1104 10:45:10.893615 27012 net.cpp:141] Setting up inception_4e/pool
I1104 10:45:10.893617 27012 net.cpp:148] Top shape: 128 528 2 2 (270336)
I1104 10:45:10.893620 27012 net.cpp:156] Memory required for data: 139907080
I1104 10:45:10.893620 27012 layer_factory.hpp:77] Creating layer inception_4e/pool_proj
I1104 10:45:10.893625 27012 net.cpp:91] Creating Layer inception_4e/pool_proj
I1104 10:45:10.893628 27012 net.cpp:425] inception_4e/pool_proj <- inception_4e/pool
I1104 10:45:10.893631 27012 net.cpp:399] inception_4e/pool_proj -> inception_4e/pool_proj
I1104 10:45:10.893962 27012 net.cpp:141] Setting up inception_4e/pool_proj
I1104 10:45:10.893965 27012 net.cpp:148] Top shape: 128 128 2 2 (65536)
I1104 10:45:10.893967 27012 net.cpp:156] Memory required for data: 140169224
I1104 10:45:10.893970 27012 layer_factory.hpp:77] Creating layer inception_4e/relu_pool_proj
I1104 10:45:10.893973 27012 net.cpp:91] Creating Layer inception_4e/relu_pool_proj
I1104 10:45:10.893975 27012 net.cpp:425] inception_4e/relu_pool_proj <- inception_4e/pool_proj
I1104 10:45:10.893980 27012 net.cpp:386] inception_4e/relu_pool_proj -> inception_4e/pool_proj (in-place)
I1104 10:45:10.893982 27012 net.cpp:141] Setting up inception_4e/relu_pool_proj
I1104 10:45:10.893985 27012 net.cpp:148] Top shape: 128 128 2 2 (65536)
I1104 10:45:10.893986 27012 net.cpp:156] Memory required for data: 140431368
I1104 10:45:10.893988 27012 layer_factory.hpp:77] Creating layer inception_4e/output
I1104 10:45:10.893991 27012 net.cpp:91] Creating Layer inception_4e/output
I1104 10:45:10.893993 27012 net.cpp:425] inception_4e/output <- inception_4e/1x1
I1104 10:45:10.893996 27012 net.cpp:425] inception_4e/output <- inception_4e/3x3
I1104 10:45:10.893997 27012 net.cpp:425] inception_4e/output <- inception_4e/5x5
I1104 10:45:10.894001 27012 net.cpp:425] inception_4e/output <- inception_4e/pool_proj
I1104 10:45:10.894003 27012 net.cpp:399] inception_4e/output -> inception_4e/output
I1104 10:45:10.894016 27012 net.cpp:141] Setting up inception_4e/output
I1104 10:45:10.894019 27012 net.cpp:148] Top shape: 128 832 2 2 (425984)
I1104 10:45:10.894021 27012 net.cpp:156] Memory required for data: 142135304
I1104 10:45:10.894023 27012 layer_factory.hpp:77] Creating layer pool4/3x3_s2
I1104 10:45:10.894026 27012 net.cpp:91] Creating Layer pool4/3x3_s2
I1104 10:45:10.894028 27012 net.cpp:425] pool4/3x3_s2 <- inception_4e/output
I1104 10:45:10.894032 27012 net.cpp:399] pool4/3x3_s2 -> pool4/3x3_s2
I1104 10:45:10.894052 27012 net.cpp:141] Setting up pool4/3x3_s2
I1104 10:45:10.894058 27012 net.cpp:148] Top shape: 128 832 1 1 (106496)
I1104 10:45:10.894060 27012 net.cpp:156] Memory required for data: 142561288
I1104 10:45:10.894062 27012 layer_factory.hpp:77] Creating layer pool4/3x3_s2_pool4/3x3_s2_0_split
I1104 10:45:10.894065 27012 net.cpp:91] Creating Layer pool4/3x3_s2_pool4/3x3_s2_0_split
I1104 10:45:10.894068 27012 net.cpp:425] pool4/3x3_s2_pool4/3x3_s2_0_split <- pool4/3x3_s2
I1104 10:45:10.894071 27012 net.cpp:399] pool4/3x3_s2_pool4/3x3_s2_0_split -> pool4/3x3_s2_pool4/3x3_s2_0_split_0
I1104 10:45:10.894075 27012 net.cpp:399] pool4/3x3_s2_pool4/3x3_s2_0_split -> pool4/3x3_s2_pool4/3x3_s2_0_split_1
I1104 10:45:10.894079 27012 net.cpp:399] pool4/3x3_s2_pool4/3x3_s2_0_split -> pool4/3x3_s2_pool4/3x3_s2_0_split_2
I1104 10:45:10.894083 27012 net.cpp:399] pool4/3x3_s2_pool4/3x3_s2_0_split -> pool4/3x3_s2_pool4/3x3_s2_0_split_3
I1104 10:45:10.894112 27012 net.cpp:141] Setting up pool4/3x3_s2_pool4/3x3_s2_0_split
I1104 10:45:10.894116 27012 net.cpp:148] Top shape: 128 832 1 1 (106496)
I1104 10:45:10.894119 27012 net.cpp:148] Top shape: 128 832 1 1 (106496)
I1104 10:45:10.894120 27012 net.cpp:148] Top shape: 128 832 1 1 (106496)
I1104 10:45:10.894122 27012 net.cpp:148] Top shape: 128 832 1 1 (106496)
I1104 10:45:10.894124 27012 net.cpp:156] Memory required for data: 144265224
I1104 10:45:10.894126 27012 layer_factory.hpp:77] Creating layer inception_5a/1x1
I1104 10:45:10.894131 27012 net.cpp:91] Creating Layer inception_5a/1x1
I1104 10:45:10.894134 27012 net.cpp:425] inception_5a/1x1 <- pool4/3x3_s2_pool4/3x3_s2_0_split_0
I1104 10:45:10.894138 27012 net.cpp:399] inception_5a/1x1 -> inception_5a/1x1
I1104 10:45:10.895375 27012 net.cpp:141] Setting up inception_5a/1x1
I1104 10:45:10.895380 27012 net.cpp:148] Top shape: 128 256 1 1 (32768)
I1104 10:45:10.895381 27012 net.cpp:156] Memory required for data: 144396296
I1104 10:45:10.895385 27012 layer_factory.hpp:77] Creating layer inception_5a/relu_1x1
I1104 10:45:10.895390 27012 net.cpp:91] Creating Layer inception_5a/relu_1x1
I1104 10:45:10.895391 27012 net.cpp:425] inception_5a/relu_1x1 <- inception_5a/1x1
I1104 10:45:10.895395 27012 net.cpp:386] inception_5a/relu_1x1 -> inception_5a/1x1 (in-place)
I1104 10:45:10.895413 27012 net.cpp:141] Setting up inception_5a/relu_1x1
I1104 10:45:10.895416 27012 net.cpp:148] Top shape: 128 256 1 1 (32768)
I1104 10:45:10.895417 27012 net.cpp:156] Memory required for data: 144527368
I1104 10:45:10.895419 27012 layer_factory.hpp:77] Creating layer inception_5a/3x3_reduce
I1104 10:45:10.895424 27012 net.cpp:91] Creating Layer inception_5a/3x3_reduce
I1104 10:45:10.895426 27012 net.cpp:425] inception_5a/3x3_reduce <- pool4/3x3_s2_pool4/3x3_s2_0_split_1
I1104 10:45:10.895431 27012 net.cpp:399] inception_5a/3x3_reduce -> inception_5a/3x3_reduce
I1104 10:45:10.895975 27012 net.cpp:141] Setting up inception_5a/3x3_reduce
I1104 10:45:10.895980 27012 net.cpp:148] Top shape: 128 160 1 1 (20480)
I1104 10:45:10.895982 27012 net.cpp:156] Memory required for data: 144609288
I1104 10:45:10.895984 27012 layer_factory.hpp:77] Creating layer inception_5a/relu_3x3_reduce
I1104 10:45:10.895987 27012 net.cpp:91] Creating Layer inception_5a/relu_3x3_reduce
I1104 10:45:10.895990 27012 net.cpp:425] inception_5a/relu_3x3_reduce <- inception_5a/3x3_reduce
I1104 10:45:10.895994 27012 net.cpp:386] inception_5a/relu_3x3_reduce -> inception_5a/3x3_reduce (in-place)
I1104 10:45:10.895998 27012 net.cpp:141] Setting up inception_5a/relu_3x3_reduce
I1104 10:45:10.895999 27012 net.cpp:148] Top shape: 128 160 1 1 (20480)
I1104 10:45:10.896001 27012 net.cpp:156] Memory required for data: 144691208
I1104 10:45:10.896003 27012 layer_factory.hpp:77] Creating layer inception_5a/3x3
I1104 10:45:10.896006 27012 net.cpp:91] Creating Layer inception_5a/3x3
I1104 10:45:10.896008 27012 net.cpp:425] inception_5a/3x3 <- inception_5a/3x3_reduce
I1104 10:45:10.896013 27012 net.cpp:399] inception_5a/3x3 -> inception_5a/3x3
I1104 10:45:10.898066 27012 net.cpp:141] Setting up inception_5a/3x3
I1104 10:45:10.898073 27012 net.cpp:148] Top shape: 128 320 1 1 (40960)
I1104 10:45:10.898082 27012 net.cpp:156] Memory required for data: 144855048
I1104 10:45:10.898085 27012 layer_factory.hpp:77] Creating layer inception_5a/relu_3x3
I1104 10:45:10.898089 27012 net.cpp:91] Creating Layer inception_5a/relu_3x3
I1104 10:45:10.898092 27012 net.cpp:425] inception_5a/relu_3x3 <- inception_5a/3x3
I1104 10:45:10.898094 27012 net.cpp:386] inception_5a/relu_3x3 -> inception_5a/3x3 (in-place)
I1104 10:45:10.898097 27012 net.cpp:141] Setting up inception_5a/relu_3x3
I1104 10:45:10.898100 27012 net.cpp:148] Top shape: 128 320 1 1 (40960)
I1104 10:45:10.898102 27012 net.cpp:156] Memory required for data: 145018888
I1104 10:45:10.898103 27012 layer_factory.hpp:77] Creating layer inception_5a/5x5_reduce
I1104 10:45:10.898108 27012 net.cpp:91] Creating Layer inception_5a/5x5_reduce
I1104 10:45:10.898111 27012 net.cpp:425] inception_5a/5x5_reduce <- pool4/3x3_s2_pool4/3x3_s2_0_split_2
I1104 10:45:10.898114 27012 net.cpp:399] inception_5a/5x5_reduce -> inception_5a/5x5_reduce
I1104 10:45:10.898325 27012 net.cpp:141] Setting up inception_5a/5x5_reduce
I1104 10:45:10.898329 27012 net.cpp:148] Top shape: 128 32 1 1 (4096)
I1104 10:45:10.898331 27012 net.cpp:156] Memory required for data: 145035272
I1104 10:45:10.898334 27012 layer_factory.hpp:77] Creating layer inception_5a/relu_5x5_reduce
I1104 10:45:10.898337 27012 net.cpp:91] Creating Layer inception_5a/relu_5x5_reduce
I1104 10:45:10.898339 27012 net.cpp:425] inception_5a/relu_5x5_reduce <- inception_5a/5x5_reduce
I1104 10:45:10.898342 27012 net.cpp:386] inception_5a/relu_5x5_reduce -> inception_5a/5x5_reduce (in-place)
I1104 10:45:10.898346 27012 net.cpp:141] Setting up inception_5a/relu_5x5_reduce
I1104 10:45:10.898349 27012 net.cpp:148] Top shape: 128 32 1 1 (4096)
I1104 10:45:10.898350 27012 net.cpp:156] Memory required for data: 145051656
I1104 10:45:10.898352 27012 layer_factory.hpp:77] Creating layer inception_5a/5x5
I1104 10:45:10.898356 27012 net.cpp:91] Creating Layer inception_5a/5x5
I1104 10:45:10.898358 27012 net.cpp:425] inception_5a/5x5 <- inception_5a/5x5_reduce
I1104 10:45:10.898361 27012 net.cpp:399] inception_5a/5x5 -> inception_5a/5x5
I1104 10:45:10.898831 27012 net.cpp:141] Setting up inception_5a/5x5
I1104 10:45:10.898835 27012 net.cpp:148] Top shape: 128 128 1 1 (16384)
I1104 10:45:10.898838 27012 net.cpp:156] Memory required for data: 145117192
I1104 10:45:10.898840 27012 layer_factory.hpp:77] Creating layer inception_5a/relu_5x5
I1104 10:45:10.898844 27012 net.cpp:91] Creating Layer inception_5a/relu_5x5
I1104 10:45:10.898845 27012 net.cpp:425] inception_5a/relu_5x5 <- inception_5a/5x5
I1104 10:45:10.898849 27012 net.cpp:386] inception_5a/relu_5x5 -> inception_5a/5x5 (in-place)
I1104 10:45:10.898852 27012 net.cpp:141] Setting up inception_5a/relu_5x5
I1104 10:45:10.898854 27012 net.cpp:148] Top shape: 128 128 1 1 (16384)
I1104 10:45:10.898856 27012 net.cpp:156] Memory required for data: 145182728
I1104 10:45:10.898857 27012 layer_factory.hpp:77] Creating layer inception_5a/pool
I1104 10:45:10.898861 27012 net.cpp:91] Creating Layer inception_5a/pool
I1104 10:45:10.898864 27012 net.cpp:425] inception_5a/pool <- pool4/3x3_s2_pool4/3x3_s2_0_split_3
I1104 10:45:10.898866 27012 net.cpp:399] inception_5a/pool -> inception_5a/pool
I1104 10:45:10.898886 27012 net.cpp:141] Setting up inception_5a/pool
I1104 10:45:10.898891 27012 net.cpp:148] Top shape: 128 832 1 1 (106496)
I1104 10:45:10.898892 27012 net.cpp:156] Memory required for data: 145608712
I1104 10:45:10.898895 27012 layer_factory.hpp:77] Creating layer inception_5a/pool_proj
I1104 10:45:10.898898 27012 net.cpp:91] Creating Layer inception_5a/pool_proj
I1104 10:45:10.898901 27012 net.cpp:425] inception_5a/pool_proj <- inception_5a/pool
I1104 10:45:10.898905 27012 net.cpp:399] inception_5a/pool_proj -> inception_5a/pool_proj
I1104 10:45:10.899353 27012 net.cpp:141] Setting up inception_5a/pool_proj
I1104 10:45:10.899358 27012 net.cpp:148] Top shape: 128 128 1 1 (16384)
I1104 10:45:10.899359 27012 net.cpp:156] Memory required for data: 145674248
I1104 10:45:10.899369 27012 layer_factory.hpp:77] Creating layer inception_5a/relu_pool_proj
I1104 10:45:10.899372 27012 net.cpp:91] Creating Layer inception_5a/relu_pool_proj
I1104 10:45:10.899374 27012 net.cpp:425] inception_5a/relu_pool_proj <- inception_5a/pool_proj
I1104 10:45:10.899377 27012 net.cpp:386] inception_5a/relu_pool_proj -> inception_5a/pool_proj (in-place)
I1104 10:45:10.899380 27012 net.cpp:141] Setting up inception_5a/relu_pool_proj
I1104 10:45:10.899382 27012 net.cpp:148] Top shape: 128 128 1 1 (16384)
I1104 10:45:10.899384 27012 net.cpp:156] Memory required for data: 145739784
I1104 10:45:10.899386 27012 layer_factory.hpp:77] Creating layer inception_5a/output
I1104 10:45:10.899389 27012 net.cpp:91] Creating Layer inception_5a/output
I1104 10:45:10.899391 27012 net.cpp:425] inception_5a/output <- inception_5a/1x1
I1104 10:45:10.899394 27012 net.cpp:425] inception_5a/output <- inception_5a/3x3
I1104 10:45:10.899395 27012 net.cpp:425] inception_5a/output <- inception_5a/5x5
I1104 10:45:10.899397 27012 net.cpp:425] inception_5a/output <- inception_5a/pool_proj
I1104 10:45:10.899401 27012 net.cpp:399] inception_5a/output -> inception_5a/output
I1104 10:45:10.899415 27012 net.cpp:141] Setting up inception_5a/output
I1104 10:45:10.899418 27012 net.cpp:148] Top shape: 128 832 1 1 (106496)
I1104 10:45:10.899420 27012 net.cpp:156] Memory required for data: 146165768
I1104 10:45:10.899421 27012 layer_factory.hpp:77] Creating layer inception_5a/output_inception_5a/output_0_split
I1104 10:45:10.899425 27012 net.cpp:91] Creating Layer inception_5a/output_inception_5a/output_0_split
I1104 10:45:10.899427 27012 net.cpp:425] inception_5a/output_inception_5a/output_0_split <- inception_5a/output
I1104 10:45:10.899430 27012 net.cpp:399] inception_5a/output_inception_5a/output_0_split -> inception_5a/output_inception_5a/output_0_split_0
I1104 10:45:10.899435 27012 net.cpp:399] inception_5a/output_inception_5a/output_0_split -> inception_5a/output_inception_5a/output_0_split_1
I1104 10:45:10.899437 27012 net.cpp:399] inception_5a/output_inception_5a/output_0_split -> inception_5a/output_inception_5a/output_0_split_2
I1104 10:45:10.899442 27012 net.cpp:399] inception_5a/output_inception_5a/output_0_split -> inception_5a/output_inception_5a/output_0_split_3
I1104 10:45:10.899473 27012 net.cpp:141] Setting up inception_5a/output_inception_5a/output_0_split
I1104 10:45:10.899477 27012 net.cpp:148] Top shape: 128 832 1 1 (106496)
I1104 10:45:10.899478 27012 net.cpp:148] Top shape: 128 832 1 1 (106496)
I1104 10:45:10.899482 27012 net.cpp:148] Top shape: 128 832 1 1 (106496)
I1104 10:45:10.899483 27012 net.cpp:148] Top shape: 128 832 1 1 (106496)
I1104 10:45:10.899484 27012 net.cpp:156] Memory required for data: 147869704
I1104 10:45:10.899487 27012 layer_factory.hpp:77] Creating layer inception_5b/1x1
I1104 10:45:10.899492 27012 net.cpp:91] Creating Layer inception_5b/1x1
I1104 10:45:10.899493 27012 net.cpp:425] inception_5b/1x1 <- inception_5a/output_inception_5a/output_0_split_0
I1104 10:45:10.899498 27012 net.cpp:399] inception_5b/1x1 -> inception_5b/1x1
I1104 10:45:10.901022 27012 net.cpp:141] Setting up inception_5b/1x1
I1104 10:45:10.901028 27012 net.cpp:148] Top shape: 128 384 1 1 (49152)
I1104 10:45:10.901031 27012 net.cpp:156] Memory required for data: 148066312
I1104 10:45:10.901033 27012 layer_factory.hpp:77] Creating layer inception_5b/relu_1x1
I1104 10:45:10.901036 27012 net.cpp:91] Creating Layer inception_5b/relu_1x1
I1104 10:45:10.901039 27012 net.cpp:425] inception_5b/relu_1x1 <- inception_5b/1x1
I1104 10:45:10.901043 27012 net.cpp:386] inception_5b/relu_1x1 -> inception_5b/1x1 (in-place)
I1104 10:45:10.901047 27012 net.cpp:141] Setting up inception_5b/relu_1x1
I1104 10:45:10.901049 27012 net.cpp:148] Top shape: 128 384 1 1 (49152)
I1104 10:45:10.901051 27012 net.cpp:156] Memory required for data: 148262920
I1104 10:45:10.901053 27012 layer_factory.hpp:77] Creating layer inception_5b/3x3_reduce
I1104 10:45:10.901058 27012 net.cpp:91] Creating Layer inception_5b/3x3_reduce
I1104 10:45:10.901060 27012 net.cpp:425] inception_5b/3x3_reduce <- inception_5a/output_inception_5a/output_0_split_1
I1104 10:45:10.901070 27012 net.cpp:399] inception_5b/3x3_reduce -> inception_5b/3x3_reduce
I1104 10:45:10.901687 27012 net.cpp:141] Setting up inception_5b/3x3_reduce
I1104 10:45:10.901691 27012 net.cpp:148] Top shape: 128 192 1 1 (24576)
I1104 10:45:10.901693 27012 net.cpp:156] Memory required for data: 148361224
I1104 10:45:10.901696 27012 layer_factory.hpp:77] Creating layer inception_5b/relu_3x3_reduce
I1104 10:45:10.901700 27012 net.cpp:91] Creating Layer inception_5b/relu_3x3_reduce
I1104 10:45:10.901701 27012 net.cpp:425] inception_5b/relu_3x3_reduce <- inception_5b/3x3_reduce
I1104 10:45:10.901705 27012 net.cpp:386] inception_5b/relu_3x3_reduce -> inception_5b/3x3_reduce (in-place)
I1104 10:45:10.901707 27012 net.cpp:141] Setting up inception_5b/relu_3x3_reduce
I1104 10:45:10.901710 27012 net.cpp:148] Top shape: 128 192 1 1 (24576)
I1104 10:45:10.901711 27012 net.cpp:156] Memory required for data: 148459528
I1104 10:45:10.901713 27012 layer_factory.hpp:77] Creating layer inception_5b/3x3
I1104 10:45:10.901720 27012 net.cpp:91] Creating Layer inception_5b/3x3
I1104 10:45:10.901721 27012 net.cpp:425] inception_5b/3x3 <- inception_5b/3x3_reduce
I1104 10:45:10.901724 27012 net.cpp:399] inception_5b/3x3 -> inception_5b/3x3
I1104 10:45:10.904464 27012 net.cpp:141] Setting up inception_5b/3x3
I1104 10:45:10.904472 27012 net.cpp:148] Top shape: 128 384 1 1 (49152)
I1104 10:45:10.904474 27012 net.cpp:156] Memory required for data: 148656136
I1104 10:45:10.904477 27012 layer_factory.hpp:77] Creating layer inception_5b/relu_3x3
I1104 10:45:10.904481 27012 net.cpp:91] Creating Layer inception_5b/relu_3x3
I1104 10:45:10.904484 27012 net.cpp:425] inception_5b/relu_3x3 <- inception_5b/3x3
I1104 10:45:10.904486 27012 net.cpp:386] inception_5b/relu_3x3 -> inception_5b/3x3 (in-place)
I1104 10:45:10.904490 27012 net.cpp:141] Setting up inception_5b/relu_3x3
I1104 10:45:10.904492 27012 net.cpp:148] Top shape: 128 384 1 1 (49152)
I1104 10:45:10.904495 27012 net.cpp:156] Memory required for data: 148852744
I1104 10:45:10.904496 27012 layer_factory.hpp:77] Creating layer inception_5b/5x5_reduce
I1104 10:45:10.904501 27012 net.cpp:91] Creating Layer inception_5b/5x5_reduce
I1104 10:45:10.904503 27012 net.cpp:425] inception_5b/5x5_reduce <- inception_5a/output_inception_5a/output_0_split_2
I1104 10:45:10.904507 27012 net.cpp:399] inception_5b/5x5_reduce -> inception_5b/5x5_reduce
I1104 10:45:10.904764 27012 net.cpp:141] Setting up inception_5b/5x5_reduce
I1104 10:45:10.904768 27012 net.cpp:148] Top shape: 128 48 1 1 (6144)
I1104 10:45:10.904770 27012 net.cpp:156] Memory required for data: 148877320
I1104 10:45:10.904774 27012 layer_factory.hpp:77] Creating layer inception_5b/relu_5x5_reduce
I1104 10:45:10.904778 27012 net.cpp:91] Creating Layer inception_5b/relu_5x5_reduce
I1104 10:45:10.904779 27012 net.cpp:425] inception_5b/relu_5x5_reduce <- inception_5b/5x5_reduce
I1104 10:45:10.904783 27012 net.cpp:386] inception_5b/relu_5x5_reduce -> inception_5b/5x5_reduce (in-place)
I1104 10:45:10.904788 27012 net.cpp:141] Setting up inception_5b/relu_5x5_reduce
I1104 10:45:10.904789 27012 net.cpp:148] Top shape: 128 48 1 1 (6144)
I1104 10:45:10.904791 27012 net.cpp:156] Memory required for data: 148901896
I1104 10:45:10.904793 27012 layer_factory.hpp:77] Creating layer inception_5b/5x5
I1104 10:45:10.904798 27012 net.cpp:91] Creating Layer inception_5b/5x5
I1104 10:45:10.904799 27012 net.cpp:425] inception_5b/5x5 <- inception_5b/5x5_reduce
I1104 10:45:10.904803 27012 net.cpp:399] inception_5b/5x5 -> inception_5b/5x5
I1104 10:45:10.905959 27012 net.cpp:141] Setting up inception_5b/5x5
I1104 10:45:10.905967 27012 net.cpp:148] Top shape: 128 128 1 1 (16384)
I1104 10:45:10.905969 27012 net.cpp:156] Memory required for data: 148967432
I1104 10:45:10.905972 27012 layer_factory.hpp:77] Creating layer inception_5b/relu_5x5
I1104 10:45:10.905975 27012 net.cpp:91] Creating Layer inception_5b/relu_5x5
I1104 10:45:10.905978 27012 net.cpp:425] inception_5b/relu_5x5 <- inception_5b/5x5
I1104 10:45:10.905988 27012 net.cpp:386] inception_5b/relu_5x5 -> inception_5b/5x5 (in-place)
I1104 10:45:10.905992 27012 net.cpp:141] Setting up inception_5b/relu_5x5
I1104 10:45:10.905995 27012 net.cpp:148] Top shape: 128 128 1 1 (16384)
I1104 10:45:10.905997 27012 net.cpp:156] Memory required for data: 149032968
I1104 10:45:10.905998 27012 layer_factory.hpp:77] Creating layer inception_5b/pool
I1104 10:45:10.906003 27012 net.cpp:91] Creating Layer inception_5b/pool
I1104 10:45:10.906005 27012 net.cpp:425] inception_5b/pool <- inception_5a/output_inception_5a/output_0_split_3
I1104 10:45:10.906008 27012 net.cpp:399] inception_5b/pool -> inception_5b/pool
I1104 10:45:10.906033 27012 net.cpp:141] Setting up inception_5b/pool
I1104 10:45:10.906036 27012 net.cpp:148] Top shape: 128 832 1 1 (106496)
I1104 10:45:10.906038 27012 net.cpp:156] Memory required for data: 149458952
I1104 10:45:10.906040 27012 layer_factory.hpp:77] Creating layer inception_5b/pool_proj
I1104 10:45:10.906045 27012 net.cpp:91] Creating Layer inception_5b/pool_proj
I1104 10:45:10.906047 27012 net.cpp:425] inception_5b/pool_proj <- inception_5b/pool
I1104 10:45:10.906052 27012 net.cpp:399] inception_5b/pool_proj -> inception_5b/pool_proj
I1104 10:45:10.906533 27012 net.cpp:141] Setting up inception_5b/pool_proj
I1104 10:45:10.906538 27012 net.cpp:148] Top shape: 128 128 1 1 (16384)
I1104 10:45:10.906539 27012 net.cpp:156] Memory required for data: 149524488
I1104 10:45:10.906543 27012 layer_factory.hpp:77] Creating layer inception_5b/relu_pool_proj
I1104 10:45:10.906546 27012 net.cpp:91] Creating Layer inception_5b/relu_pool_proj
I1104 10:45:10.906548 27012 net.cpp:425] inception_5b/relu_pool_proj <- inception_5b/pool_proj
I1104 10:45:10.906550 27012 net.cpp:386] inception_5b/relu_pool_proj -> inception_5b/pool_proj (in-place)
I1104 10:45:10.906554 27012 net.cpp:141] Setting up inception_5b/relu_pool_proj
I1104 10:45:10.906558 27012 net.cpp:148] Top shape: 128 128 1 1 (16384)
I1104 10:45:10.906558 27012 net.cpp:156] Memory required for data: 149590024
I1104 10:45:10.906560 27012 layer_factory.hpp:77] Creating layer inception_5b/output
I1104 10:45:10.906564 27012 net.cpp:91] Creating Layer inception_5b/output
I1104 10:45:10.906566 27012 net.cpp:425] inception_5b/output <- inception_5b/1x1
I1104 10:45:10.906569 27012 net.cpp:425] inception_5b/output <- inception_5b/3x3
I1104 10:45:10.906571 27012 net.cpp:425] inception_5b/output <- inception_5b/5x5
I1104 10:45:10.906574 27012 net.cpp:425] inception_5b/output <- inception_5b/pool_proj
I1104 10:45:10.906576 27012 net.cpp:399] inception_5b/output -> inception_5b/output
I1104 10:45:10.906590 27012 net.cpp:141] Setting up inception_5b/output
I1104 10:45:10.906594 27012 net.cpp:148] Top shape: 128 1024 1 1 (131072)
I1104 10:45:10.906595 27012 net.cpp:156] Memory required for data: 150114312
I1104 10:45:10.906597 27012 layer_factory.hpp:77] Creating layer loss3/classifier
I1104 10:45:10.906601 27012 net.cpp:91] Creating Layer loss3/classifier
I1104 10:45:10.906603 27012 net.cpp:425] loss3/classifier <- inception_5b/output
I1104 10:45:10.906607 27012 net.cpp:399] loss3/classifier -> loss3/classifier
I1104 10:45:10.906707 27012 net.cpp:141] Setting up loss3/classifier
I1104 10:45:10.906710 27012 net.cpp:148] Top shape: 128 10 (1280)
I1104 10:45:10.906713 27012 net.cpp:156] Memory required for data: 150119432
I1104 10:45:10.906715 27012 layer_factory.hpp:77] Creating layer loss3/loss
I1104 10:45:10.906718 27012 net.cpp:91] Creating Layer loss3/loss
I1104 10:45:10.906720 27012 net.cpp:425] loss3/loss <- loss3/classifier
I1104 10:45:10.906723 27012 net.cpp:425] loss3/loss <- label_cifar_1_split_2
I1104 10:45:10.906726 27012 net.cpp:399] loss3/loss -> loss
…
I1104 10:45:10.908247 27012 net.cpp:313] The NetState phase (1) differed from the phase (0) specified by a rule in layer cifar
I1104 10:45:10.908907 27012 net.cpp:49] Initializing net from parameters: 
name: "GoogLeNet_cifar10"
state {
  phase: TEST
}
layer {
  name: "cifar"
  type: "Data"
  top: "data"
  top: "label"
  include {
    phase: TEST
  }
  transform_param {
    crop_size: 32
    mean_file: "examples/cifar10/1parts/mean.binaryproto.0"
  }
  data_param {
    source: "examples/cifar10/1parts/cifar10_test_lmdb.0"
    batch_size: 128
    backend: LMDB
  }
}
layer {
  name: "conv1/7x7_s2"
  type: "Convolution"
  bottom: "data"
  top: "conv1/7x7_s2"
  param {
    lr_mult: 1
    decay_mult: 1
  }
  param {
    lr_mult: 2
    decay_mult: 0
  }
  convolution_param {
    num_output: 64
    pad: 3
    kernel_size: 7
    stride: 2
    weight_filler {
      type: "xavier"
      std: 0.1
    }
    bias_filler {
      type: "constant"
      value: 0.2
    }
  }
}
layer {
  name: "conv1/relu_7x7"
  type: "ReLU"
  bottom: "conv1/7x7_s2"
  top: "conv1/7x7_s2"
}
layer {
  name: "pool1/3x3_s2"
  type: "Pooling"
  bottom: "conv1/7x7_s2"
  top: "pool1/3x3_s2"
  pooling_param {
    pool: MAX
    kernel_size: 3
    stride: 2
  }
}
layer {
  name: "pool1/norm1"
  type: "LRN"
  bottom: "pool1/3x3_s2"
  top: "pool1/norm1"
  lrn_param {
    local_size: 5
    alpha: 0.0001
    beta: 0.75
  }
}
layer {
  name: "conv2/3x3_reduce"
  type: "Convolution"
  bottom: "pool1/norm1"
  top: "conv2/3x3_reduce"
  param {
    lr_mult: 1
    decay_mult: 1
  }
  param {
    lr_mult: 2
    decay_mult: 0
  }
  convolution_param {
    num_output: 64
    kernel_size: 1
    weight_filler {
      type: "xavier"
      std: 0.1
    }
    bias_filler {
      type: "constant"
      value: 0.2
    }
  }
}
layer {
  name: "conv2/relu_3x3_reduce"
  type: "ReLU"
  bottom: "conv2/3x3_reduce"
  top: "conv2/3x3_reduce"
}
layer {
  name: "conv2/3x3"
  type: "Convolution"
  bottom: "conv2/3x3_reduce"
  top: "conv2/3x3"
  param {
    lr_mult: 1
    decay_mult: 1
  }
  param {
    lr_mult: 2
    decay_mult: 0
  }
  convolution_param {
    num_output: 192
    pad: 1
    kernel_size: 3
    weight_filler {
      type: "xavier"
      std: 0.03
    }
    bias_filler {
      type: "constant"
      value: 0.2
    }
  }
}
layer {
  name: "conv2/relu_3x3"
  type: "ReLU"
  bottom: "conv2/3x3"
  top: "conv2/3x3"
}
layer {
  name: "conv2/norm2"
  type: "LRN"
  bottom: "conv2/3x3"
  top: "conv2/norm2"
  lrn_param {
    local_size: 5
    alpha: 0.0001
    beta: 0.75
  }
}
layer {
  name: "pool2/3x3_s2"
  type: "Pooling"
  bottom: "conv2/norm2"
  top: "pool2/3x3_s2"
  pooling_param {
    pool: MAX
    kernel_size: 3
    stride: 2
  }
}
layer {
  name: "inception_3a/1x1"
  type: "Convolution"
  bottom: "pool2/3x3_s2"
  top: "inception_3a/1x1"
  param {
    lr_mult: 1
    decay_mult: 1
  }
  param {
    lr_mult: 2
    decay_mult: 0
  }
  convolution_param {
    num_output: 64
    kernel_size: 1
    weight_filler {
      type: "xavier"
      std: 0.03
    }
    bias_filler {
      type: "constant"
      value: 0.2
    }
  }
}
layer {
  name: "inception_3a/relu_1x1"
  type: "ReLU"
  bottom: "inception_3a/1x1"
  top: "inception_3a/1x1"
}
layer {
  name: "inception_3a/3x3_reduce"
  type: "Convolution"
  bottom: "pool2/3x3_s2"
  top: "inception_3a/3x3_reduce"
  param {
    lr_mult: 1
    decay_mult: 1
  }
  param {
    lr_mult: 2
    decay_mult: 0
  }
  convolution_param {
    num_output: 96
    kernel_size: 1
    weight_filler {
      type: "xavier"
      std: 0.09
    }
    bias_filler {
      type: "constant"
      value: 0.2
    }
  }
}
layer {
  name: "inception_3a/relu_3x3_reduce"
  type: "ReLU"
  bottom: "inception_3a/3x3_reduce"
  top: "inception_3a/3x3_reduce"
}
layer {
  name: "inception_3a/3x3"
  type: "Convolution"
  bottom: "inception_3a/3x3_reduce"
  top: "inception_3a/3x3"
  param {
    lr_mult: 1
    decay_mult: 1
  }
  param {
    lr_mult: 2
    decay_mult: 0
  }
  convolution_param {
    num_output: 128
    pad: 1
    kernel_size: 3
    weight_filler {
      type: "xavier"
      std: 0.03
    }
    bias_filler {
      type: "constant"
      value: 0.2
    }
  }
}
layer {
  name: "inception_3a/relu_3x3"
  type: "ReLU"
  bottom: "inception_3a/3x3"
  top: "inception_3a/3x3"
}
layer {
  name: "inception_3a/5x5_reduce"
  type: "Convolution"
  bottom: "pool2/3x3_s2"
  top: "inception_3a/5x5_reduce"
  param {
    lr_mult: 1
    decay_mult: 1
  }
  param {
    lr_mult: 2
    decay_mult: 0
  }
  convolution_param {
    num_output: 16
    kernel_size: 1
    weight_filler {
      type: "xavier"
      std: 0.2
    }
    bias_filler {
      type: "constant"
      value: 0.2
    }
  }
}
layer {
  name: "inception_3a/relu_5x5_reduce"
  type: "ReLU"
  bottom: "inception_3a/5x5_reduce"
  top: "inception_3a/5x5_reduce"
}
layer {
  name: "inception_3a/5x5"
  type: "Convolution"
  bottom: "inception_3a/5x5_reduce"
  top: "inception_3a/5x5"
  param {
    lr_mult: 1
    decay_mult: 1
  }
  param {
    lr_mult: 2
    decay_mult: 0
  }
  convolution_param {
    num_output: 32
    pad: 2
    kernel_size: 5
    weight_filler {
      type: "xavier"
      std: 0.03
    }
    bias_filler {
      type: "constant"
      value: 0.2
    }
  }
}
layer {
  name: "inception_3a/relu_5x5"
  type: "ReLU"
  bottom: "inception_3a/5x5"
  top: "inception_3a/5x5"
}
layer {
  name: "inception_3a/pool"
  type: "Pooling"
  bottom: "pool2/3x3_s2"
  top: "inception_3a/pool"
  pooling_param {
    pool: MAX
    kernel_size: 3
    stride: 1
    pad: 1
  }
}
layer {
  name: "inception_3a/pool_proj"
  type: "Convolution"
  bottom: "inception_3a/pool"
  top: "inception_3a/pool_proj"
  param {
    lr_mult: 1
    decay_mult: 1
  }
  param {
    lr_mult: 2
    decay_mult: 0
  }
  convolution_param {
    num_output: 32
    kernel_size: 1
    weight_filler {
      type: "xavier"
      std: 0.1
    }
    bias_filler {
      type: "constant"
      value: 0.2
    }
  }
}
layer {
  name: "inception_3a/relu_pool_proj"
  type: "ReLU"
  bottom: "inception_3a/pool_proj"
  top: "inception_3a/pool_proj"
}
layer {
  name: "inception_3a/output"
  type: "Concat"
  bottom: "inception_3a/1x1"
  bottom: "inception_3a/3x3"
  bottom: "inception_3a/5x5"
  bottom: "inception_3a/pool_proj"
  top: "inception_3a/output"
}
layer {
  name: "inception_3b/1x1"
  type: "Convolution"
  bottom: "inception_3a/output"
  top: "inception_3b/1x1"
  param {
    lr_mult: 1
    decay_mult: 1
  }
  param {
    lr_mult: 2
    decay_mult: 0
  }
  convolution_param {
    num_output: 128
    kernel_size: 1
    weight_filler {
      type: "xavier"
      std: 0.03
    }
    bias_filler {
      type: "constant"
      value: 0.2
    }
  }
}
layer {
  name: "inception_3b/relu_1x1"
  type: "ReLU"
  bottom: "inception_3b/1x1"
  top: "inception_3b/1x1"
}
layer {
  name: "inception_3b/3x3_reduce"
  type: "Convolution"
  bottom: "inception_3a/output"
  top: "inception_3b/3x3_reduce"
  param {
    lr_mult: 1
    decay_mult: 1
  }
  param {
    lr_mult: 2
    decay_mult: 0
  }
  convolution_param {
    num_output: 128
    kernel_size: 1
    weight_filler {
      type: "xavier"
      std: 0.09
    }
    bias_filler {
      type: "constant"
      value: 0.2
    }
  }
}
layer {
  name: "inception_3b/relu_3x3_reduce"
  type: "ReLU"
  bottom: "inception_3b/3x3_reduce"
  top: "inception_3b/3x3_reduce"
}
layer {
  name: "inception_3b/3x3"
  type: "Convolution"
  bottom: "inception_3b/3x3_reduce"
  top: "inception_3b/3x3"
  param {
    lr_mult: 1
    decay_mult: 1
  }
  param {
    lr_mult: 2
    decay_mult: 0
  }
  convolution_param {
    num_output: 192
    pad: 1
    kernel_size: 3
    weight_filler {
      type: "xavier"
      std: 0.03
    }
    bias_filler {
      type: "constant"
      value: 0.2
    }
  }
}
layer {
  name: "inception_3b/relu_3x3"
  type: "ReLU"
  bottom: "inception_3b/3x3"
  top: "inception_3b/3x3"
}
layer {
  name: "inception_3b/5x5_reduce"
  type: "Convolution"
  bottom: "inception_3a/output"
  top: "inception_3b/5x5_reduce"
  param {
    lr_mult: 1
    decay_mult: 1
  }
  param {
    lr_mult: 2
    decay_mult: 0
  }
  convolution_param {
    num_output: 32
    kernel_size: 1
    weight_filler {
      type: "xavier"
      std: 0.2
    }
    bias_filler {
      type: "constant"
      value: 0.2
    }
  }
}
layer {
  name: "inception_3b/relu_5x5_reduce"
  type: "ReLU"
  bottom: "inception_3b/5x5_reduce"
  top: "inception_3b/5x5_reduce"
}
layer {
  name: "inception_3b/5x5"
  type: "Convolution"
  bottom: "inception_3b/5x5_reduce"
  top: "inception_3b/5x5"
  param {
    lr_mult: 1
    decay_mult: 1
  }
  param {
    lr_mult: 2
    decay_mult: 0
  }
  convolution_param {
    num_output: 96
    pad: 2
    kernel_size: 5
    weight_filler {
      type: "xavier"
      std: 0.03
    }
    bias_filler {
      type: "constant"
      value: 0.2
    }
  }
}
layer {
  name: "inception_3b/relu_5x5"
  type: "ReLU"
  bottom: "inception_3b/5x5"
  top: "inception_3b/5x5"
}
layer {
  name: "inception_3b/pool"
  type: "Pooling"
  bottom: "inception_3a/output"
  top: "inception_3b/pool"
  pooling_param {
    pool: MAX
    kernel_size: 3
    stride: 1
    pad: 1
  }
}
layer {
  name: "inception_3b/pool_proj"
  type: "Convolution"
  bottom: "inception_3b/pool"
  top: "inception_3b/pool_proj"
  param {
    lr_mult: 1
    decay_mult: 1
  }
  param {
    lr_mult: 2
    decay_mult: 0
  }
  convolution_param {
    num_output: 64
    kernel_size: 1
    weight_filler {
      type: "xavier"
      std: 0.1
    }
    bias_filler {
      type: "constant"
      value: 0.2
    }
  }
}
layer {
  name: "inception_3b/relu_pool_proj"
  type: "ReLU"
  bottom: "inception_3b/pool_proj"
  top: "inception_3b/pool_proj"
}
layer {
  name: "inception_3b/output"
  type: "Concat"
  bottom: "inception_3b/1x1"
  bottom: "inception_3b/3x3"
  bottom: "inception_3b/5x5"
  bottom: "inception_3b/pool_proj"
  top: "inception_3b/output"
}
layer {
  name: "pool3/3x3_s2"
  type: "Pooling"
  bottom: "inception_3b/output"
  top: "pool3/3x3_s2"
  pooling_param {
    pool: MAX
    kernel_size: 3
    stride: 2
  }
}
layer {
  name: "inception_4a/1x1"
  type: "Convolution"
  bottom: "pool3/3x3_s2"
  top: "inception_4a/1x1"
  param {
    lr_mult: 1
    decay_mult: 1
  }
  param {
    lr_mult: 2
    decay_mult: 0
  }
  convolution_param {
    num_output: 192
    kernel_size: 1
    weight_filler {
      type: "xavier"
      std: 0.03
    }
    bias_filler {
      type: "constant"
      value: 0.2
    }
  }
}
layer {
  name: "inception_4a/relu_1x1"
  type: "ReLU"
  bottom: "inception_4a/1x1"
  top: "inception_4a/1x1"
}
layer {
  name: "inception_4a/3x3_reduce"
  type: "Convolution"
  bottom: "pool3/3x3_s2"
  top: "inception_4a/3x3_reduce"
  param {
    lr_mult: 1
    decay_mult: 1
  }
  param {
    lr_mult: 2
    decay_mult: 0
  }
  convolution_param {
    num_output: 96
    kernel_size: 1
    weight_filler {
      type: "xavier"
      std: 0.09
    }
    bias_filler {
      type: "constant"
      value: 0.2
    }
  }
}
layer {
  name: "inception_4a/relu_3x3_reduce"
  type: "ReLU"
  bottom: "inception_4a/3x3_reduce"
  top: "inception_4a/3x3_reduce"
}
layer {
  name: "inception_4a/3x3"
  type: "Convolution"
  bottom: "inception_4a/3x3_reduce"
  top: "inception_4a/3x3"
  param {
    lr_mult: 1
    decay_mult: 1
  }
  param {
    lr_mult: 2
    decay_mult: 0
  }
  convolution_param {
    num_output: 208
    pad: 1
    kernel_size: 3
    weight_filler {
      type: "xavier"
      std: 0.03
    }
    bias_filler {
      type: "constant"
      value: 0.2
    }
  }
}
layer {
  name: "inception_4a/relu_3x3"
  type: "ReLU"
  bottom: "inception_4a/3x3"
  top: "inception_4a/3x3"
}
layer {
  name: "inception_4a/5x5_reduce"
  type: "Convolution"
  bottom: "pool3/3x3_s2"
  top: "inception_4a/5x5_reduce"
  param {
    lr_mult: 1
    decay_mult: 1
  }
  param {
    lr_mult: 2
    decay_mult: 0
  }
  convolution_param {
    num_output: 16
    kernel_size: 1
    weight_filler {
      type: "xavier"
      std: 0.2
    }
    bias_filler {
      type: "constant"
      value: 0.2
    }
  }
}
layer {
  name: "inception_4a/relu_5x5_reduce"
  type: "ReLU"
  bottom: "inception_4a/5x5_reduce"
  top: "inception_4a/5x5_reduce"
}
layer {
  name: "inception_4a/5x5"
  type: "Convolution"
  bottom: "inception_4a/5x5_reduce"
  top: "inception_4a/5x5"
  param {
    lr_mult: 1
    decay_mult: 1
  }
  param {
    lr_mult: 2
    decay_mult: 0
  }
  convolution_param {
    num_output: 48
    pad: 2
    kernel_size: 5
    weight_filler {
      type: "xavier"
      std: 0.03
    }
    bias_filler {
      type: "constant"
      value: 0.2
    }
  }
}
layer {
  name: "inception_4a/relu_5x5"
  type: "ReLU"
  bottom: "inception_4a/5x5"
  top: "inception_4a/5x5"
}
layer {
  name: "inception_4a/pool"
  type: "Pooling"
  bottom: "pool3/3x3_s2"
  top: "inception_4a/pool"
  pooling_param {
    pool: MAX
    kernel_size: 3
    stride: 1
    pad: 1
  }
}
layer {
  name: "inception_4a/pool_proj"
  type: "Convolution"
  bottom: "inception_4a/pool"
  top: "inception_4a/pool_proj"
  param {
    lr_mult: 1
    decay_mult: 1
  }
  param {
    lr_mult: 2
    decay_mult: 0
  }
  convolution_param {
    num_output: 64
    kernel_size: 1
    weight_filler {
      type: "xavier"
      std: 0.1
    }
    bias_filler {
      type: "constant"
      value: 0.2
    }
  }
}
layer {
  name: "inception_4a/relu_pool_proj"
  type: "ReLU"
  bottom: "inception_4a/pool_proj"
  top: "inception_4a/pool_proj"
}
layer {
  name: "inception_4a/output"
  type: "Concat"
  bottom: "inception_4a/1x1"
  bottom: "inception_4a/3x3"
  bottom: "inception_4a/5x5"
  bottom: "inception_4a/pool_proj"
  top: "inception_4a/output"
}
layer {
  name: "loss1/ave_pool"
  type: "Pooling"
  bottom: "inception_4a/output"
  top: "loss1/ave_pool"
  pooling_param {
    pool: AVE
    kernel_size: 2
    stride: 1
  }
}
layer {
  name: "loss1/conv"
  type: "Convolution"
  bottom: "loss1/ave_pool"
  top: "loss1/conv"
  param {
    lr_mult: 1
    decay_mult: 1
  }
  param {
    lr_mult: 2
    decay_mult: 0
  }
  convolution_param {
    num_output: 128
    kernel_size: 1
    weight_filler {
      type: "xavier"
      std: 0.08
    }
    bias_filler {
      type: "constant"
      value: 0.2
    }
  }
}
layer {
  name: "loss1/relu_conv"
  type: "ReLU"
  bottom: "loss1/conv"
  top: "loss1/conv"
}
layer {
  name: "loss1/fc"
  type: "InnerProduct"
  bottom: "loss1/conv"
  top: "loss1/fc"
  param {
    lr_mult: 1
    decay_mult: 1
  }
  param {
    lr_mult: 2
    decay_mult: 0
  }
  inner_product_param {
    num_output: 1024
    weight_filler {
      type: "xavier"
      std: 0.02
    }
    bias_filler {
      type: "constant"
      value: 0.2
    }
  }
}
layer {
  name: "loss1/relu_fc"
  type: "ReLU"
  bottom: "loss1/fc"
  top: "loss1/fc"
}
layer {
  name: "loss1/drop_fc"
  type: "Dropout"
  bottom: "loss1/fc"
  top: "loss1/fc"
  dropout_param {
    dropout_ratio: 0.7
  }
}
layer {
  name: "loss1/classifier"
  type: "InnerProduct"
  bottom: "loss1/fc"
  top: "loss1/classifier"
  param {
    lr_mult: 1
    decay_mult: 1
  }
  param {
    lr_mult: 2
    decay_mult: 0
  }
  inner_product_param {
    num_output: 10
    weight_filler {
      type: "xavier"
      std: 0.0009765625
    }
    bias_filler {
      type: "constant"
      value: 0
    }
  }
}
layer {
  name: "loss1/loss"
  type: "SoftmaxWithLoss"
  bottom: "loss1/classifier"
  bottom: "label"
  top: "loss1/loss"
  loss_weight: 0.3
}
layer {
  name: "loss1/top-1"
  type: "Accuracy"
  bottom: "loss1/classifier"
  bottom: "label"
  top: "loss1/accuracy"
  include {
    phase: TEST
  }
}
layer {
  name: "inception_4b/1x1"
  type: "Convolution"
  bottom: "inception_4a/output"
  top: "inception_4b/1x1"
  param {
    lr_mult: 1
    decay_mult: 1
  }
  param {
    lr_mult: 2
    decay_mult: 0
  }
  convolution_param {
    num_output: 160
    kernel_size: 1
    weight_filler {
      type: "xavier"
      std: 0.03
    }
    bias_filler {
      type: "constant"
      value: 0.2
    }
  }
}
layer {
  name: "inception_4b/relu_1x1"
  type: "ReLU"
  bottom: "inception_4b/1x1"
  top: "inception_4b/1x1"
}
layer {
  name: "inception_4b/3x3_reduce"
  type: "Convolution"
…
I1104 10:45:10.929100 27012 layer_factory.hpp:77] Creating layer inception_4c/relu_5x5_reduce
I1104 10:45:10.929103 27012 net.cpp:91] Creating Layer inception_4c/relu_5x5_reduce
I1104 10:45:10.929105 27012 net.cpp:425] inception_4c/relu_5x5_reduce <- inception_4c/5x5_reduce
I1104 10:45:10.929108 27012 net.cpp:386] inception_4c/relu_5x5_reduce -> inception_4c/5x5_reduce (in-place)
I1104 10:45:10.929111 27012 net.cpp:141] Setting up inception_4c/relu_5x5_reduce
I1104 10:45:10.929113 27012 net.cpp:148] Top shape: 128 24 2 2 (12288)
I1104 10:45:10.929116 27012 net.cpp:156] Memory required for data: 115952136
I1104 10:45:10.929116 27012 layer_factory.hpp:77] Creating layer inception_4c/5x5
I1104 10:45:10.929121 27012 net.cpp:91] Creating Layer inception_4c/5x5
I1104 10:45:10.929123 27012 net.cpp:425] inception_4c/5x5 <- inception_4c/5x5_reduce
I1104 10:45:10.929127 27012 net.cpp:399] inception_4c/5x5 -> inception_4c/5x5
I1104 10:45:10.929379 27012 net.cpp:141] Setting up inception_4c/5x5
I1104 10:45:10.929383 27012 net.cpp:148] Top shape: 128 64 2 2 (32768)
I1104 10:45:10.929385 27012 net.cpp:156] Memory required for data: 116083208
I1104 10:45:10.929388 27012 layer_factory.hpp:77] Creating layer inception_4c/relu_5x5
I1104 10:45:10.929390 27012 net.cpp:91] Creating Layer inception_4c/relu_5x5
I1104 10:45:10.929392 27012 net.cpp:425] inception_4c/relu_5x5 <- inception_4c/5x5
I1104 10:45:10.929396 27012 net.cpp:386] inception_4c/relu_5x5 -> inception_4c/5x5 (in-place)
I1104 10:45:10.929399 27012 net.cpp:141] Setting up inception_4c/relu_5x5
I1104 10:45:10.929401 27012 net.cpp:148] Top shape: 128 64 2 2 (32768)
I1104 10:45:10.929402 27012 net.cpp:156] Memory required for data: 116214280
I1104 10:45:10.929404 27012 layer_factory.hpp:77] Creating layer inception_4c/pool
I1104 10:45:10.929407 27012 net.cpp:91] Creating Layer inception_4c/pool
I1104 10:45:10.929409 27012 net.cpp:425] inception_4c/pool <- inception_4b/output_inception_4b/output_0_split_3
I1104 10:45:10.929412 27012 net.cpp:399] inception_4c/pool -> inception_4c/pool
I1104 10:45:10.929435 27012 net.cpp:141] Setting up inception_4c/pool
I1104 10:45:10.929437 27012 net.cpp:148] Top shape: 128 512 2 2 (262144)
I1104 10:45:10.929440 27012 net.cpp:156] Memory required for data: 117262856
I1104 10:45:10.929440 27012 layer_factory.hpp:77] Creating layer inception_4c/pool_proj
I1104 10:45:10.929445 27012 net.cpp:91] Creating Layer inception_4c/pool_proj
I1104 10:45:10.929447 27012 net.cpp:425] inception_4c/pool_proj <- inception_4c/pool
I1104 10:45:10.929450 27012 net.cpp:399] inception_4c/pool_proj -> inception_4c/pool_proj
I1104 10:45:10.929682 27012 net.cpp:141] Setting up inception_4c/pool_proj
I1104 10:45:10.929687 27012 net.cpp:148] Top shape: 128 64 2 2 (32768)
I1104 10:45:10.929688 27012 net.cpp:156] Memory required for data: 117393928
I1104 10:45:10.929692 27012 layer_factory.hpp:77] Creating layer inception_4c/relu_pool_proj
I1104 10:45:10.929693 27012 net.cpp:91] Creating Layer inception_4c/relu_pool_proj
I1104 10:45:10.929697 27012 net.cpp:425] inception_4c/relu_pool_proj <- inception_4c/pool_proj
I1104 10:45:10.929699 27012 net.cpp:386] inception_4c/relu_pool_proj -> inception_4c/pool_proj (in-place)
I1104 10:45:10.929702 27012 net.cpp:141] Setting up inception_4c/relu_pool_proj
I1104 10:45:10.929704 27012 net.cpp:148] Top shape: 128 64 2 2 (32768)
I1104 10:45:10.929706 27012 net.cpp:156] Memory required for data: 117525000
I1104 10:45:10.929708 27012 layer_factory.hpp:77] Creating layer inception_4c/output
I1104 10:45:10.929710 27012 net.cpp:91] Creating Layer inception_4c/output
I1104 10:45:10.929713 27012 net.cpp:425] inception_4c/output <- inception_4c/1x1
I1104 10:45:10.929719 27012 net.cpp:425] inception_4c/output <- inception_4c/3x3
I1104 10:45:10.929721 27012 net.cpp:425] inception_4c/output <- inception_4c/5x5
I1104 10:45:10.929723 27012 net.cpp:425] inception_4c/output <- inception_4c/pool_proj
I1104 10:45:10.929726 27012 net.cpp:399] inception_4c/output -> inception_4c/output
I1104 10:45:10.929740 27012 net.cpp:141] Setting up inception_4c/output
I1104 10:45:10.929744 27012 net.cpp:148] Top shape: 128 512 2 2 (262144)
I1104 10:45:10.929746 27012 net.cpp:156] Memory required for data: 118573576
I1104 10:45:10.929747 27012 layer_factory.hpp:77] Creating layer inception_4c/output_inception_4c/output_0_split
I1104 10:45:10.929751 27012 net.cpp:91] Creating Layer inception_4c/output_inception_4c/output_0_split
I1104 10:45:10.929754 27012 net.cpp:425] inception_4c/output_inception_4c/output_0_split <- inception_4c/output
I1104 10:45:10.929756 27012 net.cpp:399] inception_4c/output_inception_4c/output_0_split -> inception_4c/output_inception_4c/output_0_split_0
I1104 10:45:10.929760 27012 net.cpp:399] inception_4c/output_inception_4c/output_0_split -> inception_4c/output_inception_4c/output_0_split_1
I1104 10:45:10.929764 27012 net.cpp:399] inception_4c/output_inception_4c/output_0_split -> inception_4c/output_inception_4c/output_0_split_2
I1104 10:45:10.929767 27012 net.cpp:399] inception_4c/output_inception_4c/output_0_split -> inception_4c/output_inception_4c/output_0_split_3
I1104 10:45:10.929801 27012 net.cpp:141] Setting up inception_4c/output_inception_4c/output_0_split
I1104 10:45:10.929805 27012 net.cpp:148] Top shape: 128 512 2 2 (262144)
I1104 10:45:10.929807 27012 net.cpp:148] Top shape: 128 512 2 2 (262144)
I1104 10:45:10.929810 27012 net.cpp:148] Top shape: 128 512 2 2 (262144)
I1104 10:45:10.929811 27012 net.cpp:148] Top shape: 128 512 2 2 (262144)
I1104 10:45:10.929813 27012 net.cpp:156] Memory required for data: 122767880
I1104 10:45:10.929816 27012 layer_factory.hpp:77] Creating layer inception_4d/1x1
I1104 10:45:10.929819 27012 net.cpp:91] Creating Layer inception_4d/1x1
I1104 10:45:10.929821 27012 net.cpp:425] inception_4d/1x1 <- inception_4c/output_inception_4c/output_0_split_0
I1104 10:45:10.929826 27012 net.cpp:399] inception_4d/1x1 -> inception_4d/1x1
I1104 10:45:10.930196 27012 net.cpp:141] Setting up inception_4d/1x1
I1104 10:45:10.930199 27012 net.cpp:148] Top shape: 128 112 2 2 (57344)
I1104 10:45:10.930202 27012 net.cpp:156] Memory required for data: 122997256
I1104 10:45:10.930204 27012 layer_factory.hpp:77] Creating layer inception_4d/relu_1x1
I1104 10:45:10.930207 27012 net.cpp:91] Creating Layer inception_4d/relu_1x1
I1104 10:45:10.930209 27012 net.cpp:425] inception_4d/relu_1x1 <- inception_4d/1x1
I1104 10:45:10.930225 27012 net.cpp:386] inception_4d/relu_1x1 -> inception_4d/1x1 (in-place)
I1104 10:45:10.930228 27012 net.cpp:141] Setting up inception_4d/relu_1x1
I1104 10:45:10.930232 27012 net.cpp:148] Top shape: 128 112 2 2 (57344)
I1104 10:45:10.930233 27012 net.cpp:156] Memory required for data: 123226632
I1104 10:45:10.930234 27012 layer_factory.hpp:77] Creating layer inception_4d/3x3_reduce
I1104 10:45:10.930239 27012 net.cpp:91] Creating Layer inception_4d/3x3_reduce
I1104 10:45:10.930241 27012 net.cpp:425] inception_4d/3x3_reduce <- inception_4c/output_inception_4c/output_0_split_1
I1104 10:45:10.930244 27012 net.cpp:399] inception_4d/3x3_reduce -> inception_4d/3x3_reduce
I1104 10:45:10.930657 27012 net.cpp:141] Setting up inception_4d/3x3_reduce
I1104 10:45:10.930662 27012 net.cpp:148] Top shape: 128 144 2 2 (73728)
I1104 10:45:10.930665 27012 net.cpp:156] Memory required for data: 123521544
I1104 10:45:10.930667 27012 layer_factory.hpp:77] Creating layer inception_4d/relu_3x3_reduce
I1104 10:45:10.930670 27012 net.cpp:91] Creating Layer inception_4d/relu_3x3_reduce
I1104 10:45:10.930672 27012 net.cpp:425] inception_4d/relu_3x3_reduce <- inception_4d/3x3_reduce
I1104 10:45:10.930675 27012 net.cpp:386] inception_4d/relu_3x3_reduce -> inception_4d/3x3_reduce (in-place)
I1104 10:45:10.930682 27012 net.cpp:141] Setting up inception_4d/relu_3x3_reduce
I1104 10:45:10.930685 27012 net.cpp:148] Top shape: 128 144 2 2 (73728)
I1104 10:45:10.930686 27012 net.cpp:156] Memory required for data: 123816456
I1104 10:45:10.930689 27012 layer_factory.hpp:77] Creating layer inception_4d/3x3
I1104 10:45:10.930693 27012 net.cpp:91] Creating Layer inception_4d/3x3
I1104 10:45:10.930696 27012 net.cpp:425] inception_4d/3x3 <- inception_4d/3x3_reduce
I1104 10:45:10.930698 27012 net.cpp:399] inception_4d/3x3 -> inception_4d/3x3
I1104 10:45:10.932433 27012 net.cpp:141] Setting up inception_4d/3x3
I1104 10:45:10.932440 27012 net.cpp:148] Top shape: 128 288 2 2 (147456)
I1104 10:45:10.932441 27012 net.cpp:156] Memory required for data: 124406280
I1104 10:45:10.932445 27012 layer_factory.hpp:77] Creating layer inception_4d/relu_3x3
I1104 10:45:10.932448 27012 net.cpp:91] Creating Layer inception_4d/relu_3x3
I1104 10:45:10.932451 27012 net.cpp:425] inception_4d/relu_3x3 <- inception_4d/3x3
I1104 10:45:10.932454 27012 net.cpp:386] inception_4d/relu_3x3 -> inception_4d/3x3 (in-place)
I1104 10:45:10.932457 27012 net.cpp:141] Setting up inception_4d/relu_3x3
I1104 10:45:10.932461 27012 net.cpp:148] Top shape: 128 288 2 2 (147456)
I1104 10:45:10.932462 27012 net.cpp:156] Memory required for data: 124996104
I1104 10:45:10.932463 27012 layer_factory.hpp:77] Creating layer inception_4d/5x5_reduce
I1104 10:45:10.932468 27012 net.cpp:91] Creating Layer inception_4d/5x5_reduce
I1104 10:45:10.932471 27012 net.cpp:425] inception_4d/5x5_reduce <- inception_4c/output_inception_4c/output_0_split_2
I1104 10:45:10.932474 27012 net.cpp:399] inception_4d/5x5_reduce -> inception_4d/5x5_reduce
I1104 10:45:10.932701 27012 net.cpp:141] Setting up inception_4d/5x5_reduce
I1104 10:45:10.932706 27012 net.cpp:148] Top shape: 128 32 2 2 (16384)
I1104 10:45:10.932708 27012 net.cpp:156] Memory required for data: 125061640
I1104 10:45:10.932711 27012 layer_factory.hpp:77] Creating layer inception_4d/relu_5x5_reduce
I1104 10:45:10.932714 27012 net.cpp:91] Creating Layer inception_4d/relu_5x5_reduce
I1104 10:45:10.932716 27012 net.cpp:425] inception_4d/relu_5x5_reduce <- inception_4d/5x5_reduce
I1104 10:45:10.932719 27012 net.cpp:386] inception_4d/relu_5x5_reduce -> inception_4d/5x5_reduce (in-place)
I1104 10:45:10.932723 27012 net.cpp:141] Setting up inception_4d/relu_5x5_reduce
I1104 10:45:10.932725 27012 net.cpp:148] Top shape: 128 32 2 2 (16384)
I1104 10:45:10.932726 27012 net.cpp:156] Memory required for data: 125127176
I1104 10:45:10.932729 27012 layer_factory.hpp:77] Creating layer inception_4d/5x5
I1104 10:45:10.932734 27012 net.cpp:91] Creating Layer inception_4d/5x5
I1104 10:45:10.932735 27012 net.cpp:425] inception_4d/5x5 <- inception_4d/5x5_reduce
I1104 10:45:10.932739 27012 net.cpp:399] inception_4d/5x5 -> inception_4d/5x5
I1104 10:45:10.933100 27012 net.cpp:141] Setting up inception_4d/5x5
I1104 10:45:10.933104 27012 net.cpp:148] Top shape: 128 64 2 2 (32768)
I1104 10:45:10.933106 27012 net.cpp:156] Memory required for data: 125258248
I1104 10:45:10.933109 27012 layer_factory.hpp:77] Creating layer inception_4d/relu_5x5
I1104 10:45:10.933112 27012 net.cpp:91] Creating Layer inception_4d/relu_5x5
I1104 10:45:10.933115 27012 net.cpp:425] inception_4d/relu_5x5 <- inception_4d/5x5
I1104 10:45:10.933118 27012 net.cpp:386] inception_4d/relu_5x5 -> inception_4d/5x5 (in-place)
I1104 10:45:10.933121 27012 net.cpp:141] Setting up inception_4d/relu_5x5
I1104 10:45:10.933125 27012 net.cpp:148] Top shape: 128 64 2 2 (32768)
I1104 10:45:10.933125 27012 net.cpp:156] Memory required for data: 125389320
I1104 10:45:10.933127 27012 layer_factory.hpp:77] Creating layer inception_4d/pool
I1104 10:45:10.933130 27012 net.cpp:91] Creating Layer inception_4d/pool
I1104 10:45:10.933132 27012 net.cpp:425] inception_4d/pool <- inception_4c/output_inception_4c/output_0_split_3
I1104 10:45:10.933135 27012 net.cpp:399] inception_4d/pool -> inception_4d/pool
I1104 10:45:10.933158 27012 net.cpp:141] Setting up inception_4d/pool
I1104 10:45:10.933161 27012 net.cpp:148] Top shape: 128 512 2 2 (262144)
I1104 10:45:10.933169 27012 net.cpp:156] Memory required for data: 126437896
I1104 10:45:10.933171 27012 layer_factory.hpp:77] Creating layer inception_4d/pool_proj
I1104 10:45:10.933176 27012 net.cpp:91] Creating Layer inception_4d/pool_proj
I1104 10:45:10.933178 27012 net.cpp:425] inception_4d/pool_proj <- inception_4d/pool
I1104 10:45:10.933182 27012 net.cpp:399] inception_4d/pool_proj -> inception_4d/pool_proj
I1104 10:45:10.933442 27012 net.cpp:141] Setting up inception_4d/pool_proj
I1104 10:45:10.933446 27012 net.cpp:148] Top shape: 128 64 2 2 (32768)
I1104 10:45:10.933449 27012 net.cpp:156] Memory required for data: 126568968
I1104 10:45:10.933451 27012 layer_factory.hpp:77] Creating layer inception_4d/relu_pool_proj
I1104 10:45:10.933454 27012 net.cpp:91] Creating Layer inception_4d/relu_pool_proj
I1104 10:45:10.933457 27012 net.cpp:425] inception_4d/relu_pool_proj <- inception_4d/pool_proj
I1104 10:45:10.933460 27012 net.cpp:386] inception_4d/relu_pool_proj -> inception_4d/pool_proj (in-place)
I1104 10:45:10.933463 27012 net.cpp:141] Setting up inception_4d/relu_pool_proj
I1104 10:45:10.933466 27012 net.cpp:148] Top shape: 128 64 2 2 (32768)
I1104 10:45:10.933467 27012 net.cpp:156] Memory required for data: 126700040
I1104 10:45:10.933470 27012 layer_factory.hpp:77] Creating layer inception_4d/output
I1104 10:45:10.933472 27012 net.cpp:91] Creating Layer inception_4d/output
I1104 10:45:10.933475 27012 net.cpp:425] inception_4d/output <- inception_4d/1x1
I1104 10:45:10.933476 27012 net.cpp:425] inception_4d/output <- inception_4d/3x3
I1104 10:45:10.933478 27012 net.cpp:425] inception_4d/output <- inception_4d/5x5
I1104 10:45:10.933480 27012 net.cpp:425] inception_4d/output <- inception_4d/pool_proj
I1104 10:45:10.933485 27012 net.cpp:399] inception_4d/output -> inception_4d/output
I1104 10:45:10.933498 27012 net.cpp:141] Setting up inception_4d/output
I1104 10:45:10.933501 27012 net.cpp:148] Top shape: 128 528 2 2 (270336)
I1104 10:45:10.933503 27012 net.cpp:156] Memory required for data: 127781384
I1104 10:45:10.933506 27012 layer_factory.hpp:77] Creating layer inception_4d/output_inception_4d/output_0_split
I1104 10:45:10.933508 27012 net.cpp:91] Creating Layer inception_4d/output_inception_4d/output_0_split
I1104 10:45:10.933511 27012 net.cpp:425] inception_4d/output_inception_4d/output_0_split <- inception_4d/output
I1104 10:45:10.933516 27012 net.cpp:399] inception_4d/output_inception_4d/output_0_split -> inception_4d/output_inception_4d/output_0_split_0
I1104 10:45:10.933518 27012 net.cpp:399] inception_4d/output_inception_4d/output_0_split -> inception_4d/output_inception_4d/output_0_split_1
I1104 10:45:10.933522 27012 net.cpp:399] inception_4d/output_inception_4d/output_0_split -> inception_4d/output_inception_4d/output_0_split_2
I1104 10:45:10.933526 27012 net.cpp:399] inception_4d/output_inception_4d/output_0_split -> inception_4d/output_inception_4d/output_0_split_3
I1104 10:45:10.933531 27012 net.cpp:399] inception_4d/output_inception_4d/output_0_split -> inception_4d/output_inception_4d/output_0_split_4
I1104 10:45:10.933570 27012 net.cpp:141] Setting up inception_4d/output_inception_4d/output_0_split
I1104 10:45:10.933574 27012 net.cpp:148] Top shape: 128 528 2 2 (270336)
I1104 10:45:10.933576 27012 net.cpp:148] Top shape: 128 528 2 2 (270336)
I1104 10:45:10.933578 27012 net.cpp:148] Top shape: 128 528 2 2 (270336)
I1104 10:45:10.933581 27012 net.cpp:148] Top shape: 128 528 2 2 (270336)
I1104 10:45:10.933583 27012 net.cpp:148] Top shape: 128 528 2 2 (270336)
I1104 10:45:10.933584 27012 net.cpp:156] Memory required for data: 133188104
I1104 10:45:10.933586 27012 layer_factory.hpp:77] Creating layer loss2/ave_pool
I1104 10:45:10.933609 27012 net.cpp:91] Creating Layer loss2/ave_pool
I1104 10:45:10.933611 27012 net.cpp:425] loss2/ave_pool <- inception_4d/output_inception_4d/output_0_split_0
I1104 10:45:10.933614 27012 net.cpp:399] loss2/ave_pool -> loss2/ave_pool
I1104 10:45:10.933629 27012 net.cpp:141] Setting up loss2/ave_pool
I1104 10:45:10.933631 27012 net.cpp:148] Top shape: 128 528 1 1 (67584)
I1104 10:45:10.933637 27012 net.cpp:156] Memory required for data: 133458440
I1104 10:45:10.933640 27012 layer_factory.hpp:77] Creating layer loss2/conv
I1104 10:45:10.933645 27012 net.cpp:91] Creating Layer loss2/conv
I1104 10:45:10.933646 27012 net.cpp:425] loss2/conv <- loss2/ave_pool
I1104 10:45:10.933651 27012 net.cpp:399] loss2/conv -> loss2/conv
I1104 10:45:10.934026 27012 net.cpp:141] Setting up loss2/conv
I1104 10:45:10.934029 27012 net.cpp:148] Top shape: 128 128 1 1 (16384)
I1104 10:45:10.934031 27012 net.cpp:156] Memory required for data: 133523976
I1104 10:45:10.934034 27012 layer_factory.hpp:77] Creating layer loss2/relu_conv
I1104 10:45:10.934037 27012 net.cpp:91] Creating Layer loss2/relu_conv
I1104 10:45:10.934039 27012 net.cpp:425] loss2/relu_conv <- loss2/conv
I1104 10:45:10.934042 27012 net.cpp:386] loss2/relu_conv -> loss2/conv (in-place)
I1104 10:45:10.934046 27012 net.cpp:141] Setting up loss2/relu_conv
I1104 10:45:10.934048 27012 net.cpp:148] Top shape: 128 128 1 1 (16384)
I1104 10:45:10.934051 27012 net.cpp:156] Memory required for data: 133589512
I1104 10:45:10.934052 27012 layer_factory.hpp:77] Creating layer loss2/fc
I1104 10:45:10.934056 27012 net.cpp:91] Creating Layer loss2/fc
I1104 10:45:10.934058 27012 net.cpp:425] loss2/fc <- loss2/conv
I1104 10:45:10.934062 27012 net.cpp:399] loss2/fc -> loss2/fc
I1104 10:45:10.934998 27012 net.cpp:141] Setting up loss2/fc
I1104 10:45:10.935005 27012 net.cpp:148] Top shape: 128 1024 (131072)
I1104 10:45:10.935008 27012 net.cpp:156] Memory required for data: 134113800
I1104 10:45:10.935010 27012 layer_factory.hpp:77] Creating layer loss2/relu_fc
I1104 10:45:10.935014 27012 net.cpp:91] Creating Layer loss2/relu_fc
I1104 10:45:10.935017 27012 net.cpp:425] loss2/relu_fc <- loss2/fc
I1104 10:45:10.935020 27012 net.cpp:386] loss2/relu_fc -> loss2/fc (in-place)
I1104 10:45:10.935024 27012 net.cpp:141] Setting up loss2/relu_fc
I1104 10:45:10.935026 27012 net.cpp:148] Top shape: 128 1024 (131072)
I1104 10:45:10.935029 27012 net.cpp:156] Memory required for data: 134638088
I1104 10:45:10.935029 27012 layer_factory.hpp:77] Creating layer loss2/drop_fc
I1104 10:45:10.935034 27012 net.cpp:91] Creating Layer loss2/drop_fc
I1104 10:45:10.935035 27012 net.cpp:425] loss2/drop_fc <- loss2/fc
I1104 10:45:10.935039 27012 net.cpp:386] loss2/drop_fc -> loss2/fc (in-place)
I1104 10:45:10.935050 27012 net.cpp:141] Setting up loss2/drop_fc
I1104 10:45:10.935052 27012 net.cpp:148] Top shape: 128 1024 (131072)
I1104 10:45:10.935055 27012 net.cpp:156] Memory required for data: 135162376
I1104 10:45:10.935055 27012 layer_factory.hpp:77] Creating layer loss2/classifier
I1104 10:45:10.935060 27012 net.cpp:91] Creating Layer loss2/classifier
I1104 10:45:10.935062 27012 net.cpp:425] loss2/classifier <- loss2/fc
I1104 10:45:10.935066 27012 net.cpp:399] loss2/classifier -> loss2/classifier
I1104 10:45:10.935163 27012 net.cpp:141] Setting up loss2/classifier
I1104 10:45:10.935168 27012 net.cpp:148] Top shape: 128 10 (1280)
I1104 10:45:10.935168 27012 net.cpp:156] Memory required for data: 135167496
I1104 10:45:10.935173 27012 layer_factory.hpp:77] Creating layer loss2/classifier_loss2/classifier_0_split
I1104 10:45:10.935176 27012 net.cpp:91] Creating Layer loss2/classifier_loss2/classifier_0_split
I1104 10:45:10.935178 27012 net.cpp:425] loss2/classifier_loss2/classifier_0_split <- loss2/classifier
I1104 10:45:10.935181 27012 net.cpp:399] loss2/classifier_loss2/classifier_0_split -> loss2/classifier_loss2/classifier_0_split_0
I1104 10:45:10.935185 27012 net.cpp:399] loss2/classifier_loss2/classifier_0_split -> loss2/classifier_loss2/classifier_0_split_1
I1104 10:45:10.935204 27012 net.cpp:141] Setting up loss2/classifier_loss2/classifier_0_split
I1104 10:45:10.935207 27012 net.cpp:148] Top shape: 128 10 (1280)
I1104 10:45:10.935209 27012 net.cpp:148] Top shape: 128 10 (1280)
I1104 10:45:10.935211 27012 net.cpp:156] Memory required for data: 135177736
I1104 10:45:10.935214 27012 layer_factory.hpp:77] Creating layer loss2/loss
I1104 10:45:10.935216 27012 net.cpp:91] Creating Layer loss2/loss
I1104 10:45:10.935223 27012 net.cpp:425] loss2/loss <- loss2/classifier_loss2/classifier_0_split_0
I1104 10:45:10.935227 27012 net.cpp:425] loss2/loss <- label_cifar_1_split_2
…
I1104 10:45:10.935319 27012 net.cpp:141] Setting up loss2/top-1
I1104 10:45:10.935322 27012 net.cpp:148] Top shape: (1)
I1104 10:45:10.935323 27012 net.cpp:156] Memory required for data: 135177744
I1104 10:45:10.935325 27012 layer_factory.hpp:77] Creating layer inception_4e/1x1
I1104 10:45:10.935331 27012 net.cpp:91] Creating Layer inception_4e/1x1
I1104 10:45:10.935333 27012 net.cpp:425] inception_4e/1x1 <- inception_4d/output_inception_4d/output_0_split_1
I1104 10:45:10.935336 27012 net.cpp:399] inception_4e/1x1 -> inception_4e/1x1
I1104 10:45:10.935909 27012 net.cpp:141] Setting up inception_4e/1x1
I1104 10:45:10.935914 27012 net.cpp:148] Top shape: 128 256 2 2 (131072)
I1104 10:45:10.935915 27012 net.cpp:156] Memory required for data: 135702032
I1104 10:45:10.935919 27012 layer_factory.hpp:77] Creating layer inception_4e/relu_1x1
I1104 10:45:10.935921 27012 net.cpp:91] Creating Layer inception_4e/relu_1x1
I1104 10:45:10.935923 27012 net.cpp:425] inception_4e/relu_1x1 <- inception_4e/1x1
I1104 10:45:10.935927 27012 net.cpp:386] inception_4e/relu_1x1 -> inception_4e/1x1 (in-place)
I1104 10:45:10.935930 27012 net.cpp:141] Setting up inception_4e/relu_1x1
I1104 10:45:10.935933 27012 net.cpp:148] Top shape: 128 256 2 2 (131072)
I1104 10:45:10.935935 27012 net.cpp:156] Memory required for data: 136226320
I1104 10:45:10.935936 27012 layer_factory.hpp:77] Creating layer inception_4e/3x3_reduce
I1104 10:45:10.935941 27012 net.cpp:91] Creating Layer inception_4e/3x3_reduce
I1104 10:45:10.935943 27012 net.cpp:425] inception_4e/3x3_reduce <- inception_4d/output_inception_4d/output_0_split_2
I1104 10:45:10.935946 27012 net.cpp:399] inception_4e/3x3_reduce -> inception_4e/3x3_reduce
I1104 10:45:10.936360 27012 net.cpp:141] Setting up inception_4e/3x3_reduce
I1104 10:45:10.936364 27012 net.cpp:148] Top shape: 128 160 2 2 (81920)
I1104 10:45:10.936365 27012 net.cpp:156] Memory required for data: 136554000
I1104 10:45:10.936369 27012 layer_factory.hpp:77] Creating layer inception_4e/relu_3x3_reduce
I1104 10:45:10.936372 27012 net.cpp:91] Creating Layer inception_4e/relu_3x3_reduce
I1104 10:45:10.936375 27012 net.cpp:425] inception_4e/relu_3x3_reduce <- inception_4e/3x3_reduce
I1104 10:45:10.936378 27012 net.cpp:386] inception_4e/relu_3x3_reduce -> inception_4e/3x3_reduce (in-place)
I1104 10:45:10.936381 27012 net.cpp:141] Setting up inception_4e/relu_3x3_reduce
I1104 10:45:10.936383 27012 net.cpp:148] Top shape: 128 160 2 2 (81920)
I1104 10:45:10.936385 27012 net.cpp:156] Memory required for data: 136881680
I1104 10:45:10.936388 27012 layer_factory.hpp:77] Creating layer inception_4e/3x3
I1104 10:45:10.936405 27012 net.cpp:91] Creating Layer inception_4e/3x3
I1104 10:45:10.936408 27012 net.cpp:425] inception_4e/3x3 <- inception_4e/3x3_reduce
I1104 10:45:10.936411 27012 net.cpp:399] inception_4e/3x3 -> inception_4e/3x3
I1104 10:45:10.938475 27012 net.cpp:141] Setting up inception_4e/3x3
I1104 10:45:10.938482 27012 net.cpp:148] Top shape: 128 320 2 2 (163840)
I1104 10:45:10.938483 27012 net.cpp:156] Memory required for data: 137537040
I1104 10:45:10.938513 27012 layer_factory.hpp:77] Creating layer inception_4e/relu_3x3
I1104 10:45:10.938516 27012 net.cpp:91] Creating Layer inception_4e/relu_3x3
I1104 10:45:10.938519 27012 net.cpp:425] inception_4e/relu_3x3 <- inception_4e/3x3
I1104 10:45:10.938524 27012 net.cpp:386] inception_4e/relu_3x3 -> inception_4e/3x3 (in-place)
I1104 10:45:10.938527 27012 net.cpp:141] Setting up inception_4e/relu_3x3
I1104 10:45:10.938529 27012 net.cpp:148] Top shape: 128 320 2 2 (163840)
I1104 10:45:10.938532 27012 net.cpp:156] Memory required for data: 138192400
I1104 10:45:10.938546 27012 layer_factory.hpp:77] Creating layer inception_4e/5x5_reduce
I1104 10:45:10.938550 27012 net.cpp:91] Creating Layer inception_4e/5x5_reduce
I1104 10:45:10.938552 27012 net.cpp:425] inception_4e/5x5_reduce <- inception_4d/output_inception_4d/output_0_split_3
I1104 10:45:10.938556 27012 net.cpp:399] inception_4e/5x5_reduce -> inception_4e/5x5_reduce
I1104 10:45:10.938755 27012 net.cpp:141] Setting up inception_4e/5x5_reduce
I1104 10:45:10.938758 27012 net.cpp:148] Top shape: 128 32 2 2 (16384)
I1104 10:45:10.938760 27012 net.cpp:156] Memory required for data: 138257936
I1104 10:45:10.938763 27012 layer_factory.hpp:77] Creating layer inception_4e/relu_5x5_reduce
I1104 10:45:10.938766 27012 net.cpp:91] Creating Layer inception_4e/relu_5x5_reduce
I1104 10:45:10.938768 27012 net.cpp:425] inception_4e/relu_5x5_reduce <- inception_4e/5x5_reduce
I1104 10:45:10.938771 27012 net.cpp:386] inception_4e/relu_5x5_reduce -> inception_4e/5x5_reduce (in-place)
I1104 10:45:10.938774 27012 net.cpp:141] Setting up inception_4e/relu_5x5_reduce
I1104 10:45:10.938776 27012 net.cpp:148] Top shape: 128 32 2 2 (16384)
I1104 10:45:10.938778 27012 net.cpp:156] Memory required for data: 138323472
I1104 10:45:10.938779 27012 layer_factory.hpp:77] Creating layer inception_4e/5x5
I1104 10:45:10.938784 27012 net.cpp:91] Creating Layer inception_4e/5x5
I1104 10:45:10.938786 27012 net.cpp:425] inception_4e/5x5 <- inception_4e/5x5_reduce
I1104 10:45:10.938791 27012 net.cpp:399] inception_4e/5x5 -> inception_4e/5x5
I1104 10:45:10.939251 27012 net.cpp:141] Setting up inception_4e/5x5
I1104 10:45:10.939255 27012 net.cpp:148] Top shape: 128 128 2 2 (65536)
I1104 10:45:10.939257 27012 net.cpp:156] Memory required for data: 138585616
I1104 10:45:10.939260 27012 layer_factory.hpp:77] Creating layer inception_4e/relu_5x5
I1104 10:45:10.939262 27012 net.cpp:91] Creating Layer inception_4e/relu_5x5
I1104 10:45:10.939265 27012 net.cpp:425] inception_4e/relu_5x5 <- inception_4e/5x5
I1104 10:45:10.939268 27012 net.cpp:386] inception_4e/relu_5x5 -> inception_4e/5x5 (in-place)
I1104 10:45:10.939271 27012 net.cpp:141] Setting up inception_4e/relu_5x5
I1104 10:45:10.939273 27012 net.cpp:148] Top shape: 128 128 2 2 (65536)
I1104 10:45:10.939275 27012 net.cpp:156] Memory required for data: 138847760
I1104 10:45:10.939277 27012 layer_factory.hpp:77] Creating layer inception_4e/pool
I1104 10:45:10.939280 27012 net.cpp:91] Creating Layer inception_4e/pool
I1104 10:45:10.939282 27012 net.cpp:425] inception_4e/pool <- inception_4d/output_inception_4d/output_0_split_4
I1104 10:45:10.939285 27012 net.cpp:399] inception_4e/pool -> inception_4e/pool
I1104 10:45:10.939307 27012 net.cpp:141] Setting up inception_4e/pool
I1104 10:45:10.939311 27012 net.cpp:148] Top shape: 128 528 2 2 (270336)
I1104 10:45:10.939312 27012 net.cpp:156] Memory required for data: 139929104
I1104 10:45:10.939314 27012 layer_factory.hpp:77] Creating layer inception_4e/pool_proj
I1104 10:45:10.939318 27012 net.cpp:91] Creating Layer inception_4e/pool_proj
I1104 10:45:10.939321 27012 net.cpp:425] inception_4e/pool_proj <- inception_4e/pool
I1104 10:45:10.939324 27012 net.cpp:399] inception_4e/pool_proj -> inception_4e/pool_proj
I1104 10:45:10.939669 27012 net.cpp:141] Setting up inception_4e/pool_proj
I1104 10:45:10.939673 27012 net.cpp:148] Top shape: 128 128 2 2 (65536)
I1104 10:45:10.939674 27012 net.cpp:156] Memory required for data: 140191248
I1104 10:45:10.939677 27012 layer_factory.hpp:77] Creating layer inception_4e/relu_pool_proj
I1104 10:45:10.939685 27012 net.cpp:91] Creating Layer inception_4e/relu_pool_proj
I1104 10:45:10.939687 27012 net.cpp:425] inception_4e/relu_pool_proj <- inception_4e/pool_proj
I1104 10:45:10.939692 27012 net.cpp:386] inception_4e/relu_pool_proj -> inception_4e/pool_proj (in-place)
I1104 10:45:10.939694 27012 net.cpp:141] Setting up inception_4e/relu_pool_proj
I1104 10:45:10.939697 27012 net.cpp:148] Top shape: 128 128 2 2 (65536)
I1104 10:45:10.939699 27012 net.cpp:156] Memory required for data: 140453392
I1104 10:45:10.939702 27012 layer_factory.hpp:77] Creating layer inception_4e/output
I1104 10:45:10.939703 27012 net.cpp:91] Creating Layer inception_4e/output
I1104 10:45:10.939707 27012 net.cpp:425] inception_4e/output <- inception_4e/1x1
I1104 10:45:10.939708 27012 net.cpp:425] inception_4e/output <- inception_4e/3x3
I1104 10:45:10.939710 27012 net.cpp:425] inception_4e/output <- inception_4e/5x5
I1104 10:45:10.939713 27012 net.cpp:425] inception_4e/output <- inception_4e/pool_proj
I1104 10:45:10.939715 27012 net.cpp:399] inception_4e/output -> inception_4e/output
I1104 10:45:10.939730 27012 net.cpp:141] Setting up inception_4e/output
I1104 10:45:10.939733 27012 net.cpp:148] Top shape: 128 832 2 2 (425984)
I1104 10:45:10.939735 27012 net.cpp:156] Memory required for data: 142157328
I1104 10:45:10.939738 27012 layer_factory.hpp:77] Creating layer pool4/3x3_s2
I1104 10:45:10.939740 27012 net.cpp:91] Creating Layer pool4/3x3_s2
I1104 10:45:10.939743 27012 net.cpp:425] pool4/3x3_s2 <- inception_4e/output
I1104 10:45:10.939745 27012 net.cpp:399] pool4/3x3_s2 -> pool4/3x3_s2
I1104 10:45:10.939767 27012 net.cpp:141] Setting up pool4/3x3_s2
I1104 10:45:10.939770 27012 net.cpp:148] Top shape: 128 832 1 1 (106496)
I1104 10:45:10.939771 27012 net.cpp:156] Memory required for data: 142583312
I1104 10:45:10.939774 27012 layer_factory.hpp:77] Creating layer pool4/3x3_s2_pool4/3x3_s2_0_split
I1104 10:45:10.939776 27012 net.cpp:91] Creating Layer pool4/3x3_s2_pool4/3x3_s2_0_split
I1104 10:45:10.939779 27012 net.cpp:425] pool4/3x3_s2_pool4/3x3_s2_0_split <- pool4/3x3_s2
I1104 10:45:10.939782 27012 net.cpp:399] pool4/3x3_s2_pool4/3x3_s2_0_split -> pool4/3x3_s2_pool4/3x3_s2_0_split_0
I1104 10:45:10.939785 27012 net.cpp:399] pool4/3x3_s2_pool4/3x3_s2_0_split -> pool4/3x3_s2_pool4/3x3_s2_0_split_1
I1104 10:45:10.939790 27012 net.cpp:399] pool4/3x3_s2_pool4/3x3_s2_0_split -> pool4/3x3_s2_pool4/3x3_s2_0_split_2
I1104 10:45:10.939793 27012 net.cpp:399] pool4/3x3_s2_pool4/3x3_s2_0_split -> pool4/3x3_s2_pool4/3x3_s2_0_split_3
I1104 10:45:10.939826 27012 net.cpp:141] Setting up pool4/3x3_s2_pool4/3x3_s2_0_split
I1104 10:45:10.939829 27012 net.cpp:148] Top shape: 128 832 1 1 (106496)
I1104 10:45:10.939832 27012 net.cpp:148] Top shape: 128 832 1 1 (106496)
I1104 10:45:10.939834 27012 net.cpp:148] Top shape: 128 832 1 1 (106496)
I1104 10:45:10.939836 27012 net.cpp:148] Top shape: 128 832 1 1 (106496)
I1104 10:45:10.939837 27012 net.cpp:156] Memory required for data: 144287248
I1104 10:45:10.939839 27012 layer_factory.hpp:77] Creating layer inception_5a/1x1
I1104 10:45:10.939844 27012 net.cpp:91] Creating Layer inception_5a/1x1
I1104 10:45:10.939846 27012 net.cpp:425] inception_5a/1x1 <- pool4/3x3_s2_pool4/3x3_s2_0_split_0
I1104 10:45:10.939851 27012 net.cpp:399] inception_5a/1x1 -> inception_5a/1x1
I1104 10:45:10.941073 27012 net.cpp:141] Setting up inception_5a/1x1
I1104 10:45:10.941079 27012 net.cpp:148] Top shape: 128 256 1 1 (32768)
I1104 10:45:10.941082 27012 net.cpp:156] Memory required for data: 144418320
I1104 10:45:10.941084 27012 layer_factory.hpp:77] Creating layer inception_5a/relu_1x1
I1104 10:45:10.941088 27012 net.cpp:91] Creating Layer inception_5a/relu_1x1
I1104 10:45:10.941092 27012 net.cpp:425] inception_5a/relu_1x1 <- inception_5a/1x1
I1104 10:45:10.941094 27012 net.cpp:386] inception_5a/relu_1x1 -> inception_5a/1x1 (in-place)
I1104 10:45:10.941098 27012 net.cpp:141] Setting up inception_5a/relu_1x1
I1104 10:45:10.941102 27012 net.cpp:148] Top shape: 128 256 1 1 (32768)
I1104 10:45:10.941102 27012 net.cpp:156] Memory required for data: 144549392
I1104 10:45:10.941109 27012 layer_factory.hpp:77] Creating layer inception_5a/3x3_reduce
I1104 10:45:10.941115 27012 net.cpp:91] Creating Layer inception_5a/3x3_reduce
I1104 10:45:10.941118 27012 net.cpp:425] inception_5a/3x3_reduce <- pool4/3x3_s2_pool4/3x3_s2_0_split_1
I1104 10:45:10.941123 27012 net.cpp:399] inception_5a/3x3_reduce -> inception_5a/3x3_reduce
I1104 10:45:10.941676 27012 net.cpp:141] Setting up inception_5a/3x3_reduce
I1104 10:45:10.941680 27012 net.cpp:148] Top shape: 128 160 1 1 (20480)
I1104 10:45:10.941684 27012 net.cpp:156] Memory required for data: 144631312
I1104 10:45:10.941685 27012 layer_factory.hpp:77] Creating layer inception_5a/relu_3x3_reduce
I1104 10:45:10.941690 27012 net.cpp:91] Creating Layer inception_5a/relu_3x3_reduce
I1104 10:45:10.941694 27012 net.cpp:425] inception_5a/relu_3x3_reduce <- inception_5a/3x3_reduce
I1104 10:45:10.941696 27012 net.cpp:386] inception_5a/relu_3x3_reduce -> inception_5a/3x3_reduce (in-place)
I1104 10:45:10.941699 27012 net.cpp:141] Setting up inception_5a/relu_3x3_reduce
I1104 10:45:10.941702 27012 net.cpp:148] Top shape: 128 160 1 1 (20480)
I1104 10:45:10.941704 27012 net.cpp:156] Memory required for data: 144713232
I1104 10:45:10.941706 27012 layer_factory.hpp:77] Creating layer inception_5a/3x3
I1104 10:45:10.941710 27012 net.cpp:91] Creating Layer inception_5a/3x3
I1104 10:45:10.941712 27012 net.cpp:425] inception_5a/3x3 <- inception_5a/3x3_reduce
I1104 10:45:10.941716 27012 net.cpp:399] inception_5a/3x3 -> inception_5a/3x3
I1104 10:45:10.943748 27012 net.cpp:141] Setting up inception_5a/3x3
I1104 10:45:10.943755 27012 net.cpp:148] Top shape: 128 320 1 1 (40960)
I1104 10:45:10.943758 27012 net.cpp:156] Memory required for data: 144877072
I1104 10:45:10.943760 27012 layer_factory.hpp:77] Creating layer inception_5a/relu_3x3
I1104 10:45:10.943765 27012 net.cpp:91] Creating Layer inception_5a/relu_3x3
I1104 10:45:10.943768 27012 net.cpp:425] inception_5a/relu_3x3 <- inception_5a/3x3
I1104 10:45:10.943770 27012 net.cpp:386] inception_5a/relu_3x3 -> inception_5a/3x3 (in-place)
I1104 10:45:10.943774 27012 net.cpp:141] Setting up inception_5a/relu_3x3
I1104 10:45:10.943776 27012 net.cpp:148] Top shape: 128 320 1 1 (40960)
I1104 10:45:10.943778 27012 net.cpp:156] Memory required for data: 145040912
I1104 10:45:10.943780 27012 layer_factory.hpp:77] Creating layer inception_5a/5x5_reduce
I1104 10:45:10.943784 27012 net.cpp:91] Creating Layer inception_5a/5x5_reduce
I1104 10:45:10.943787 27012 net.cpp:425] inception_5a/5x5_reduce <- pool4/3x3_s2_pool4/3x3_s2_0_split_2
I1104 10:45:10.943791 27012 net.cpp:399] inception_5a/5x5_reduce -> inception_5a/5x5_reduce
I1104 10:45:10.944447 27012 net.cpp:141] Setting up inception_5a/5x5_reduce
I1104 10:45:10.944454 27012 net.cpp:148] Top shape: 128 32 1 1 (4096)
I1104 10:45:10.944456 27012 net.cpp:156] Memory required for data: 145057296
I1104 10:45:10.944459 27012 layer_factory.hpp:77] Creating layer inception_5a/relu_5x5_reduce
I1104 10:45:10.944463 27012 net.cpp:91] Creating Layer inception_5a/relu_5x5_reduce
I1104 10:45:10.944465 27012 net.cpp:425] inception_5a/relu_5x5_reduce <- inception_5a/5x5_reduce
I1104 10:45:10.944469 27012 net.cpp:386] inception_5a/relu_5x5_reduce -> inception_5a/5x5_reduce (in-place)
I1104 10:45:10.944473 27012 net.cpp:141] Setting up inception_5a/relu_5x5_reduce
I1104 10:45:10.944475 27012 net.cpp:148] Top shape: 128 32 1 1 (4096)
I1104 10:45:10.944476 27012 net.cpp:156] Memory required for data: 145073680
I1104 10:45:10.944479 27012 layer_factory.hpp:77] Creating layer inception_5a/5x5
I1104 10:45:10.944483 27012 net.cpp:91] Creating Layer inception_5a/5x5
I1104 10:45:10.944485 27012 net.cpp:425] inception_5a/5x5 <- inception_5a/5x5_reduce
I1104 10:45:10.944489 27012 net.cpp:399] inception_5a/5x5 -> inception_5a/5x5
I1104 10:45:10.944948 27012 net.cpp:141] Setting up inception_5a/5x5
I1104 10:45:10.944952 27012 net.cpp:148] Top shape: 128 128 1 1 (16384)
I1104 10:45:10.944954 27012 net.cpp:156] Memory required for data: 145139216
I1104 10:45:10.944957 27012 layer_factory.hpp:77] Creating layer inception_5a/relu_5x5
I1104 10:45:10.944967 27012 net.cpp:91] Creating Layer inception_5a/relu_5x5
I1104 10:45:10.944969 27012 net.cpp:425] inception_5a/relu_5x5 <- inception_5a/5x5
I1104 10:45:10.944972 27012 net.cpp:386] inception_5a/relu_5x5 -> inception_5a/5x5 (in-place)
I1104 10:45:10.944975 27012 net.cpp:141] Setting up inception_5a/relu_5x5
I1104 10:45:10.944978 27012 net.cpp:148] Top shape: 128 128 1 1 (16384)
I1104 10:45:10.944979 27012 net.cpp:156] Memory required for data: 145204752
I1104 10:45:10.944981 27012 layer_factory.hpp:77] Creating layer inception_5a/pool
I1104 10:45:10.944985 27012 net.cpp:91] Creating Layer inception_5a/pool
I1104 10:45:10.944988 27012 net.cpp:425] inception_5a/pool <- pool4/3x3_s2_pool4/3x3_s2_0_split_3
I1104 10:45:10.944990 27012 net.cpp:399] inception_5a/pool -> inception_5a/pool
I1104 10:45:10.945029 27012 net.cpp:141] Setting up inception_5a/pool
I1104 10:45:10.945034 27012 net.cpp:148] Top shape: 128 832 1 1 (106496)
I1104 10:45:10.945035 27012 net.cpp:156] Memory required for data: 145630736
I1104 10:45:10.945037 27012 layer_factory.hpp:77] Creating layer inception_5a/pool_proj
I1104 10:45:10.945041 27012 net.cpp:91] Creating Layer inception_5a/pool_proj
I1104 10:45:10.945044 27012 net.cpp:425] inception_5a/pool_proj <- inception_5a/pool
I1104 10:45:10.945047 27012 net.cpp:399] inception_5a/pool_proj -> inception_5a/pool_proj
I1104 10:45:10.945960 27012 net.cpp:141] Setting up inception_5a/pool_proj
I1104 10:45:10.945966 27012 net.cpp:148] Top shape: 128 128 1 1 (16384)
I1104 10:45:10.945967 27012 net.cpp:156] Memory required for data: 145696272
I1104 10:45:10.945971 27012 layer_factory.hpp:77] Creating layer inception_5a/relu_pool_proj
I1104 10:45:10.945974 27012 net.cpp:91] Creating Layer inception_5a/relu_pool_proj
I1104 10:45:10.945976 27012 net.cpp:425] inception_5a/relu_pool_proj <- inception_5a/pool_proj
I1104 10:45:10.945981 27012 net.cpp:386] inception_5a/relu_pool_proj -> inception_5a/pool_proj (in-place)
I1104 10:45:10.945984 27012 net.cpp:141] Setting up inception_5a/relu_pool_proj
I1104 10:45:10.945987 27012 net.cpp:148] Top shape: 128 128 1 1 (16384)
I1104 10:45:10.945988 27012 net.cpp:156] Memory required for data: 145761808
I1104 10:45:10.945991 27012 layer_factory.hpp:77] Creating layer inception_5a/output
I1104 10:45:10.945993 27012 net.cpp:91] Creating Layer inception_5a/output
I1104 10:45:10.945996 27012 net.cpp:425] inception_5a/output <- inception_5a/1x1
I1104 10:45:10.945998 27012 net.cpp:425] inception_5a/output <- inception_5a/3x3
I1104 10:45:10.946000 27012 net.cpp:425] inception_5a/output <- inception_5a/5x5
I1104 10:45:10.946002 27012 net.cpp:425] inception_5a/output <- inception_5a/pool_proj
I1104 10:45:10.946007 27012 net.cpp:399] inception_5a/output -> inception_5a/output
I1104 10:45:10.946020 27012 net.cpp:141] Setting up inception_5a/output
I1104 10:45:10.946023 27012 net.cpp:148] Top shape: 128 832 1 1 (106496)
I1104 10:45:10.946025 27012 net.cpp:156] Memory required for data: 146187792
I1104 10:45:10.946027 27012 layer_factory.hpp:77] Creating layer inception_5a/output_inception_5a/output_0_split
I1104 10:45:10.946033 27012 net.cpp:91] Creating Layer inception_5a/output_inception_5a/output_0_split
I1104 10:45:10.946034 27012 net.cpp:425] inception_5a/output_inception_5a/output_0_split <- inception_5a/output
I1104 10:45:10.946038 27012 net.cpp:399] inception_5a/output_inception_5a/output_0_split -> inception_5a/output_inception_5a/output_0_split_0
I1104 10:45:10.946043 27012 net.cpp:399] inception_5a/output_inception_5a/output_0_split -> inception_5a/output_inception_5a/output_0_split_1
I1104 10:45:10.946045 27012 net.cpp:399] inception_5a/output_inception_5a/output_0_split -> inception_5a/output_inception_5a/output_0_split_2
I1104 10:45:10.946049 27012 net.cpp:399] inception_5a/output_inception_5a/output_0_split -> inception_5a/output_inception_5a/output_0_split_3
I1104 10:45:10.946085 27012 net.cpp:141] Setting up inception_5a/output_inception_5a/output_0_split
I1104 10:45:10.946089 27012 net.cpp:148] Top shape: 128 832 1 1 (106496)
I1104 10:45:10.946096 27012 net.cpp:148] Top shape: 128 832 1 1 (106496)
I1104 10:45:10.946099 27012 net.cpp:148] Top shape: 128 832 1 1 (106496)
I1104 10:45:10.946101 27012 net.cpp:148] Top shape: 128 832 1 1 (106496)
I1104 10:45:10.946103 27012 net.cpp:156] Memory required for data: 147891728
I1104 10:45:10.946105 27012 layer_factory.hpp:77] Creating layer inception_5b/1x1
I1104 10:45:10.946110 27012 net.cpp:91] Creating Layer inception_5b/1x1
I1104 10:45:10.946113 27012 net.cpp:425] inception_5b/1x1 <- inception_5a/output_inception_5a/output_0_split_0
I1104 10:45:10.946117 27012 net.cpp:399] inception_5b/1x1 -> inception_5b/1x1
I1104 10:45:10.947258 27012 net.cpp:141] Setting up inception_5b/1x1
I1104 10:45:10.947263 27012 net.cpp:148] Top shape: 128 384 1 1 (49152)
I1104 10:45:10.947265 27012 net.cpp:156] Memory required for data: 148088336
I1104 10:45:10.947268 27012 layer_factory.hpp:77] Creating layer inception_5b/relu_1x1
I1104 10:45:10.947270 27012 net.cpp:91] Creating Layer inception_5b/relu_1x1
I1104 10:45:10.947273 27012 net.cpp:425] inception_5b/relu_1x1 <- inception_5b/1x1
I1104 10:45:10.947276 27012 net.cpp:386] inception_5b/relu_1x1 -> inception_5b/1x1 (in-place)
I1104 10:45:10.947279 27012 net.cpp:141] Setting up inception_5b/relu_1x1
I1104 10:45:10.947283 27012 net.cpp:148] Top shape: 128 384 1 1 (49152)
I1104 10:45:10.947283 27012 net.cpp:156] Memory required for data: 148284944
I1104 10:45:10.947285 27012 layer_factory.hpp:77] Creating layer inception_5b/3x3_reduce
I1104 10:45:10.947289 27012 net.cpp:91] Creating Layer inception_5b/3x3_reduce
I1104 10:45:10.947291 27012 net.cpp:425] inception_5b/3x3_reduce <- inception_5a/output_inception_5a/output_0_split_1
I1104 10:45:10.947295 27012 net.cpp:399] inception_5b/3x3_reduce -> inception_5b/3x3_reduce
I1104 10:45:10.948359 27012 net.cpp:141] Setting up inception_5b/3x3_reduce
I1104 10:45:10.948365 27012 net.cpp:148] Top shape: 128 192 1 1 (24576)
I1104 10:45:10.948367 27012 net.cpp:156] Memory required for data: 148383248
I1104 10:45:10.948371 27012 layer_factory.hpp:77] Creating layer inception_5b/relu_3x3_reduce
I1104 10:45:10.948376 27012 net.cpp:91] Creating Layer inception_5b/relu_3x3_reduce
I1104 10:45:10.948379 27012 net.cpp:425] inception_5b/relu_3x3_reduce <- inception_5b/3x3_reduce
I1104 10:45:10.948381 27012 net.cpp:386] inception_5b/relu_3x3_reduce -> inception_5b/3x3_reduce (in-place)
I1104 10:45:10.948386 27012 net.cpp:141] Setting up inception_5b/relu_3x3_reduce
I1104 10:45:10.948388 27012 net.cpp:148] Top shape: 128 192 1 1 (24576)
I1104 10:45:10.948390 27012 net.cpp:156] Memory required for data: 148481552
I1104 10:45:10.948392 27012 layer_factory.hpp:77] Creating layer inception_5b/3x3
I1104 10:45:10.948397 27012 net.cpp:91] Creating Layer inception_5b/3x3
I1104 10:45:10.948400 27012 net.cpp:425] inception_5b/3x3 <- inception_5b/3x3_reduce
I1104 10:45:10.948405 27012 net.cpp:399] inception_5b/3x3 -> inception_5b/3x3
I1104 10:45:10.951371 27012 net.cpp:141] Setting up inception_5b/3x3
I1104 10:45:10.951377 27012 net.cpp:148] Top shape: 128 384 1 1 (49152)
I1104 10:45:10.951380 27012 net.cpp:156] Memory required for data: 148678160
I1104 10:45:10.951383 27012 layer_factory.hpp:77] Creating layer inception_5b/relu_3x3
I1104 10:45:10.951387 27012 net.cpp:91] Creating Layer inception_5b/relu_3x3
I1104 10:45:10.951390 27012 net.cpp:425] inception_5b/relu_3x3 <- inception_5b/3x3
I1104 10:45:10.951395 27012 net.cpp:386] inception_5b/relu_3x3 -> inception_5b/3x3 (in-place)
I1104 10:45:10.951397 27012 net.cpp:141] Setting up inception_5b/relu_3x3
I1104 10:45:10.951400 27012 net.cpp:148] Top shape: 128 384 1 1 (49152)
I1104 10:45:10.951402 27012 net.cpp:156] Memory required for data: 148874768
I1104 10:45:10.951405 27012 layer_factory.hpp:77] Creating layer inception_5b/5x5_reduce
I1104 10:45:10.951409 27012 net.cpp:91] Creating Layer inception_5b/5x5_reduce
I1104 10:45:10.951411 27012 net.cpp:425] inception_5b/5x5_reduce <- inception_5a/output_inception_5a/output_0_split_2
I1104 10:45:10.951414 27012 net.cpp:399] inception_5b/5x5_reduce -> inception_5b/5x5_reduce
I1104 10:45:10.951769 27012 net.cpp:141] Setting up inception_5b/5x5_reduce
I1104 10:45:10.951776 27012 net.cpp:148] Top shape: 128 48 1 1 (6144)
I1104 10:45:10.951778 27012 net.cpp:156] Memory required for data: 148899344
I1104 10:45:10.951781 27012 layer_factory.hpp:77] Creating layer inception_5b/relu_5x5_reduce
I1104 10:45:10.951784 27012 net.cpp:91] Creating Layer inception_5b/relu_5x5_reduce
I1104 10:45:10.951787 27012 net.cpp:425] inception_5b/relu_5x5_reduce <- inception_5b/5x5_reduce
I1104 10:45:10.951791 27012 net.cpp:386] inception_5b/relu_5x5_reduce -> inception_5b/5x5_reduce (in-place)
I1104 10:45:10.951793 27012 net.cpp:141] Setting up inception_5b/relu_5x5_reduce
I1104 10:45:10.951797 27012 net.cpp:148] Top shape: 128 48 1 1 (6144)
I1104 10:45:10.951799 27012 net.cpp:156] Memory required for data: 148923920
I1104 10:45:10.951802 27012 layer_factory.hpp:77] Creating layer inception_5b/5x5
I1104 10:45:10.951805 27012 net.cpp:91] Creating Layer inception_5b/5x5
I1104 10:45:10.951808 27012 net.cpp:425] inception_5b/5x5 <- inception_5b/5x5_reduce
I1104 10:45:10.951813 27012 net.cpp:399] inception_5b/5x5 -> inception_5b/5x5
I1104 10:45:10.952446 27012 net.cpp:141] Setting up inception_5b/5x5
I1104 10:45:10.952450 27012 net.cpp:148] Top shape: 128 128 1 1 (16384)
I1104 10:45:10.952453 27012 net.cpp:156] Memory required for data: 148989456
I1104 10:45:10.952456 27012 layer_factory.hpp:77] Creating layer inception_5b/relu_5x5
I1104 10:45:10.952459 27012 net.cpp:91] Creating Layer inception_5b/relu_5x5
I1104 10:45:10.952462 27012 net.cpp:425] inception_5b/relu_5x5 <- inception_5b/5x5
I1104 10:45:10.952466 27012 net.cpp:386] inception_5b/relu_5x5 -> inception_5b/5x5 (in-place)
I1104 10:45:10.952471 27012 net.cpp:141] Setting up inception_5b/relu_5x5
I1104 10:45:10.952473 27012 net.cpp:148] Top shape: 128 128 1 1 (16384)
I1104 10:45:10.952476 27012 net.cpp:156] Memory required for data: 149054992
I1104 10:45:10.952477 27012 layer_factory.hpp:77] Creating layer inception_5b/pool
I1104 10:45:10.952481 27012 net.cpp:91] Creating Layer inception_5b/pool
I1104 10:45:10.952482 27012 net.cpp:425] inception_5b/pool <- inception_5a/output_inception_5a/output_0_split_3
I1104 10:45:10.952486 27012 net.cpp:399] inception_5b/pool -> inception_5b/pool
I1104 10:45:10.952512 27012 net.cpp:141] Setting up inception_5b/pool
I1104 10:45:10.952515 27012 net.cpp:148] Top shape: 128 832 1 1 (106496)
I1104 10:45:10.952517 27012 net.cpp:156] Memory required for data: 149480976
I1104 10:45:10.952519 27012 layer_factory.hpp:77] Creating layer inception_5b/pool_proj
I1104 10:45:10.952524 27012 net.cpp:91] Creating Layer inception_5b/pool_proj
I1104 10:45:10.952527 27012 net.cpp:425] inception_5b/pool_proj <- inception_5b/pool
I1104 10:45:10.952531 27012 net.cpp:399] inception_5b/pool_proj -> inception_5b/pool_proj
I1104 10:45:10.953012 27012 net.cpp:141] Setting up inception_5b/pool_proj
I1104 10:45:10.953018 27012 net.cpp:148] Top shape: 128 128 1 1 (16384)
I1104 10:45:10.953020 27012 net.cpp:156] Memory required for data: 149546512
I1104 10:45:10.953023 27012 layer_factory.hpp:77] Creating layer inception_5b/relu_pool_proj
I1104 10:45:10.953027 27012 net.cpp:91] Creating Layer inception_5b/relu_pool_proj
I1104 10:45:10.953029 27012 net.cpp:425] inception_5b/relu_pool_proj <- inception_5b/pool_proj
I1104 10:45:10.953033 27012 net.cpp:386] inception_5b/relu_pool_proj -> inception_5b/pool_proj (in-place)
I1104 10:45:10.953037 27012 net.cpp:141] Setting up inception_5b/relu_pool_proj
I1104 10:45:10.953039 27012 net.cpp:148] Top shape: 128 128 1 1 (16384)
I1104 10:45:10.953042 27012 net.cpp:156] Memory required for data: 149612048
I1104 10:45:10.953043 27012 layer_factory.hpp:77] Creating layer inception_5b/output
I1104 10:45:10.953047 27012 net.cpp:91] Creating Layer inception_5b/output
I1104 10:45:10.953048 27012 net.cpp:425] inception_5b/output <- inception_5b/1x1
I1104 10:45:10.953052 27012 net.cpp:425] inception_5b/output <- inception_5b/3x3
I1104 10:45:10.953053 27012 net.cpp:425] inception_5b/output <- inception_5b/5x5
I1104 10:45:10.953063 27012 net.cpp:425] inception_5b/output <- inception_5b/pool_proj
I1104 10:45:10.953065 27012 net.cpp:399] inception_5b/output -> inception_5b/output
I1104 10:45:10.953083 27012 net.cpp:141] Setting up inception_5b/output
I1104 10:45:10.953085 27012 net.cpp:148] Top shape: 128 1024 1 1 (131072)
I1104 10:45:10.953088 27012 net.cpp:156] Memory required for data: 150136336
I1104 10:45:10.953089 27012 layer_factory.hpp:77] Creating layer loss3/classifier
I1104 10:45:10.953094 27012 net.cpp:91] Creating Layer loss3/classifier
I1104 10:45:10.953097 27012 net.cpp:425] loss3/classifier <- inception_5b/output
I1104 10:45:10.953100 27012 net.cpp:399] loss3/classifier -> loss3/classifier
I1104 10:45:10.953207 27012 net.cpp:141] Setting up loss3/classifier
I1104 10:45:10.953212 27012 net.cpp:148] Top shape: 128 10 (1280)
I1104 10:45:10.953212 27012 net.cpp:156] Memory required for data: 150141456
I1104 10:45:10.953215 27012 layer_factory.hpp:77] Creating layer loss3/classifier_loss3/classifier_0_split
I1104 10:45:10.953219 27012 net.cpp:91] Creating Layer loss3/classifier_loss3/classifier_0_split
I1104 10:45:10.953222 27012 net.cpp:425] loss3/classifier_loss3/classifier_0_split <- loss3/classifier
I1104 10:45:10.953225 27012 net.cpp:399] loss3/classifier_loss3/classifier_0_split -> loss3/classifier_loss3/classifier_0_split_0
I1104 10:45:10.953230 27012 net.cpp:399] loss3/classifier_loss3/classifier_0_split -> loss3/classifier_loss3/classifier_0_split_1
I1104 10:45:10.953250 27012 net.cpp:141] Setting up loss3/classifier_loss3/classifier_0_split
I1104 10:45:10.953254 27012 net.cpp:148] Top shape: 128 10 (1280)
I1104 10:45:10.953256 27012 net.cpp:148] Top shape: 128 10 (1280)
I1104 10:45:10.953258 27012 net.cpp:156] Memory required for data: 150151696
I1104 10:45:10.953260 27012 layer_factory.hpp:77] Creating layer loss3/loss
I1104 10:45:10.953263 27012 net.cpp:91] Creating Layer loss3/loss
I1104 10:45:10.953265 27012 net.cpp:425] loss3/loss <- loss3/classifier_loss3/classifier_0_split_0
I1104 10:45:10.953269 27012 net.cpp:425] loss3/loss <- label_cifar_1_split_4
…
