…
I1024 14:29:05.433135 21201 net.cpp:313] The NetState phase (0) differed from the phase (1) specified by a rule in layer accuracy
I1024 14:29:05.433354 21201 net.cpp:49] Initializing net from parameters: 
name: "CIFAR10_quick"
state {
  phase: TRAIN
}
layer {
  name: "cifar"
  type: "Data"
  top: "data"
  top: "label"
  include {
    phase: TRAIN
  }
  transform_param {
    mean_file: "examples/cifar10/1parts/mean.binaryproto.0"
  }
  data_param {
    source: "examples/cifar10/1parts/cifar10_train_lmdb.0"
    batch_size: 100
    backend: LMDB
  }
}
layer {
  name: "conv_conv1"
  type: "Convolution"
  bottom: "data"
  top: "conv_conv1"
  convolution_param {
    num_output: 96
    bias_term: false
    pad: 1
    kernel_size: 3
    stride: 1
    weight_filler {
      type: "xavier"
    }
  }
}
layer {
  name: "bn_conv1"
  type: "BatchNorm"
  bottom: "conv_conv1"
  top: "bn_conv1"
  batch_norm_param {
    use_global_stats: false
    moving_average_fraction: 0.9
    eps: 0.0001
    scale_filler {
      type: "constant"
      value: 1
    }
    bias_filler {
      type: "constant"
      value: 0
    }
  }
}
layer {
  name: "relu_conv1"
  type: "ReLU"
  bottom: "bn_conv1"
  top: "bn_conv1"
}
layer {
  name: "conv_in3a_1x1"
  type: "Convolution"
  bottom: "bn_conv1"
  top: "conv_in3a_1x1"
  convolution_param {
    num_output: 32
    bias_term: false
    kernel_size: 1
    stride: 1
    weight_filler {
      type: "xavier"
    }
  }
}
layer {
  name: "bn_in3a_1x1"
  type: "BatchNorm"
  bottom: "conv_in3a_1x1"
  top: "bn_in3a_1x1"
  batch_norm_param {
    use_global_stats: false
    moving_average_fraction: 0.9
    eps: 0.0001
    scale_filler {
      type: "constant"
      value: 1
    }
    bias_filler {
      type: "constant"
      value: 0
    }
  }
}
layer {
  name: "relu_in3a_1x1"
  type: "ReLU"
  bottom: "bn_in3a_1x1"
  top: "bn_in3a_1x1"
}
layer {
  name: "conv_in3a_3x3"
  type: "Convolution"
  bottom: "bn_conv1"
  top: "conv_in3a_3x3"
  convolution_param {
    num_output: 32
    bias_term: false
    pad: 1
    kernel_size: 3
    stride: 1
    weight_filler {
      type: "xavier"
    }
  }
}
layer {
  name: "bn_in3a_3x3"
  type: "BatchNorm"
  bottom: "conv_in3a_3x3"
  top: "bn_in3a_3x3"
  batch_norm_param {
    use_global_stats: false
    moving_average_fraction: 0.9
    eps: 0.0001
    scale_filler {
      type: "constant"
      value: 1
    }
    bias_filler {
      type: "constant"
      value: 0
    }
  }
}
layer {
  name: "relu_in3a_3x3"
  type: "ReLU"
  bottom: "bn_in3a_3x3"
  top: "bn_in3a_3x3"
}
layer {
  name: "ch_concat_in3a_chconcat"
  type: "Concat"
  bottom: "bn_in3a_1x1"
  bottom: "bn_in3a_3x3"
  top: "ch_concat_in3a_chconcat"
}
layer {
  name: "conv_in3b_1x1"
  type: "Convolution"
  bottom: "ch_concat_in3a_chconcat"
  top: "conv_in3b_1x1"
  convolution_param {
    num_output: 32
    bias_term: false
    kernel_size: 1
    stride: 1
    weight_filler {
      type: "xavier"
    }
  }
}
layer {
  name: "bn_in3b_1x1"
  type: "BatchNorm"
  bottom: "conv_in3b_1x1"
  top: "bn_in3b_1x1"
  batch_norm_param {
    use_global_stats: false
    moving_average_fraction: 0.9
    eps: 0.0001
    scale_filler {
      type: "constant"
      value: 1
    }
    bias_filler {
      type: "constant"
      value: 0
    }
  }
}
layer {
  name: "relu_in3b_1x1"
  type: "ReLU"
  bottom: "bn_in3b_1x1"
  top: "bn_in3b_1x1"
}
layer {
  name: "conv_in3b_3x3"
  type: "Convolution"
  bottom: "ch_concat_in3a_chconcat"
  top: "conv_in3b_3x3"
  convolution_param {
    num_output: 48
    bias_term: false
    pad: 1
    kernel_size: 3
    stride: 1
    weight_filler {
      type: "xavier"
    }
  }
}
layer {
  name: "bn_in3b_3x3"
  type: "BatchNorm"
  bottom: "conv_in3b_3x3"
  top: "bn_in3b_3x3"
  batch_norm_param {
    use_global_stats: false
    moving_average_fraction: 0.9
    eps: 0.0001
    scale_filler {
      type: "constant"
      value: 1
    }
    bias_filler {
      type: "constant"
      value: 0
    }
  }
}
layer {
  name: "relu_in3b_3x3"
  type: "ReLU"
  bottom: "bn_in3b_3x3"
  top: "bn_in3b_3x3"
}
layer {
  name: "ch_concat_in3b_chconcat"
  type: "Concat"
  bottom: "bn_in3b_1x1"
  bottom: "bn_in3b_3x3"
  top: "ch_concat_in3b_chconcat"
}
layer {
  name: "conv_in3c_3x3"
  type: "Convolution"
  bottom: "ch_concat_in3b_chconcat"
  top: "conv_in3c_3x3"
  convolution_param {
    num_output: 80
    bias_term: false
    pad: 1
    kernel_size: 3
    stride: 2
    weight_filler {
      type: "xavier"
    }
  }
}
layer {
  name: "bn_in3c_3x3"
  type: "BatchNorm"
  bottom: "conv_in3c_3x3"
  top: "bn_in3c_3x3"
  batch_norm_param {
    use_global_stats: false
    moving_average_fraction: 0.9
    eps: 0.0001
    scale_filler {
      type: "constant"
      value: 1
    }
    bias_filler {
      type: "constant"
      value: 0
    }
  }
}
layer {
  name: "relu_in3c_3x3"
  type: "ReLU"
  bottom: "bn_in3c_3x3"
  top: "bn_in3c_3x3"
}
layer {
  name: "max_pool_in3c_pool"
  type: "Pooling"
  bottom: "ch_concat_in3b_chconcat"
  top: "max_pool_in3c_pool"
  pooling_param {
    pool: MAX
    kernel_size: 3
    stride: 2
  }
}
layer {
  name: "ch_concat_in3c_chconcat"
  type: "Concat"
  bottom: "bn_in3c_3x3"
  bottom: "max_pool_in3c_pool"
  top: "ch_concat_in3c_chconcat"
}
layer {
  name: "conv_in4a_1x1"
  type: "Convolution"
  bottom: "ch_concat_in3c_chconcat"
  top: "conv_in4a_1x1"
  convolution_param {
    num_output: 112
    bias_term: false
    kernel_size: 1
    stride: 1
    weight_filler {
      type: "xavier"
    }
  }
}
layer {
  name: "bn_in4a_1x1"
  type: "BatchNorm"
  bottom: "conv_in4a_1x1"
  top: "bn_in4a_1x1"
  batch_norm_param {
    use_global_stats: false
    moving_average_fraction: 0.9
    eps: 0.0001
    scale_filler {
      type: "constant"
      value: 1
    }
    bias_filler {
      type: "constant"
      value: 0
    }
  }
}
layer {
  name: "relu_in4a_1x1"
  type: "ReLU"
  bottom: "bn_in4a_1x1"
  top: "bn_in4a_1x1"
}
layer {
  name: "conv_in4a_3x3"
  type: "Convolution"
  bottom: "ch_concat_in3c_chconcat"
  top: "conv_in4a_3x3"
  convolution_param {
    num_output: 48
    bias_term: false
    pad: 1
    kernel_size: 3
    stride: 1
    weight_filler {
      type: "xavier"
    }
  }
}
layer {
  name: "bn_in4a_3x3"
  type: "BatchNorm"
  bottom: "conv_in4a_3x3"
  top: "bn_in4a_3x3"
  batch_norm_param {
    use_global_stats: false
    moving_average_fraction: 0.9
    eps: 0.0001
    scale_filler {
      type: "constant"
      value: 1
    }
    bias_filler {
      type: "constant"
      value: 0
    }
  }
}
layer {
  name: "relu_in4a_3x3"
  type: "ReLU"
  bottom: "bn_in4a_3x3"
  top: "bn_in4a_3x3"
}
layer {
  name: "ch_concat_in4a_chconcat"
  type: "Concat"
  bottom: "bn_in4a_1x1"
  bottom: "bn_in4a_3x3"
  top: "ch_concat_in4a_chconcat"
}
layer {
  name: "conv_in4b_1x1"
  type: "Convolution"
  bottom: "ch_concat_in4a_chconcat"
  top: "conv_in4b_1x1"
  convolution_param {
    num_output: 96
    bias_term: false
    kernel_size: 1
    stride: 1
    weight_filler {
      type: "xavier"
    }
  }
}
layer {
  name: "bn_in4b_1x1"
  type: "BatchNorm"
  bottom: "conv_in4b_1x1"
  top: "bn_in4b_1x1"
  batch_norm_param {
    use_global_stats: false
    moving_average_fraction: 0.9
    eps: 0.0001
    scale_filler {
      type: "constant"
      value: 1
    }
    bias_filler {
      type: "constant"
      value: 0
    }
  }
}
layer {
  name: "relu_in4b_1x1"
  type: "ReLU"
  bottom: "bn_in4b_1x1"
  top: "bn_in4b_1x1"
}
layer {
  name: "conv_in4b_3x3"
  type: "Convolution"
  bottom: "ch_concat_in4a_chconcat"
  top: "conv_in4b_3x3"
  convolution_param {
    num_output: 64
    bias_term: false
    pad: 1
    kernel_size: 3
    stride: 1
    weight_filler {
      type: "xavier"
    }
  }
}
layer {
  name: "bn_in4b_3x3"
  type: "BatchNorm"
  bottom: "conv_in4b_3x3"
  top: "bn_in4b_3x3"
  batch_norm_param {
    use_global_stats: false
    moving_average_fraction: 0.9
    eps: 0.0001
    scale_filler {
      type: "constant"
      value: 1
    }
    bias_filler {
      type: "constant"
      value: 0
    }
  }
}
layer {
  name: "relu_in4b_3x3"
  type: "ReLU"
  bottom: "bn_in4b_3x3"
  top: "bn_in4b_3x3"
}
layer {
  name: "ch_concat_in4b_chconcat"
  type: "Concat"
  bottom: "bn_in4b_1x1"
  bottom: "bn_in4b_3x3"
  top: "ch_concat_in4b_chconcat"
}
layer {
  name: "conv_in4c_1x1"
  type: "Convolution"
  bottom: "ch_concat_in4b_chconcat"
  top: "conv_in4c_1x1"
  convolution_param {
    num_output: 80
    bias_term: false
    kernel_size: 1
    stride: 1
    weight_filler {
      type: "xavier"
    }
  }
}
layer {
  name: "bn_in4c_1x1"
  type: "BatchNorm"
  bottom: "conv_in4c_1x1"
  top: "bn_in4c_1x1"
  batch_norm_param {
    use_global_stats: false
    moving_average_fraction: 0.9
    eps: 0.0001
    scale_filler {
      type: "constant"
      value: 1
    }
    bias_filler {
      type: "constant"
      value: 0
    }
  }
}
layer {
  name: "relu_in4c_1x1"
  type: "ReLU"
  bottom: "bn_in4c_1x1"
  top: "bn_in4c_1x1"
}
layer {
  name: "conv_in4c_3x3"
  type: "Convolution"
  bottom: "ch_concat_in4b_chconcat"
  top: "conv_in4c_3x3"
  convolution_param {
    num_output: 80
    bias_term: false
    pad: 1
    kernel_size: 3
    stride: 1
    weight_filler {
      type: "xavier"
    }
  }
}
layer {
  name: "bn_in4c_3x3"
  type: "BatchNorm"
  bottom: "conv_in4c_3x3"
  top: "bn_in4c_3x3"
  batch_norm_param {
    use_global_stats: false
    moving_average_fraction: 0.9
    eps: 0.0001
    scale_filler {
      type: "constant"
      value: 1
    }
    bias_filler {
      type: "constant"
      value: 0
    }
  }
}
layer {
  name: "relu_in4c_3x3"
  type: "ReLU"
  bottom: "bn_in4c_3x3"
  top: "bn_in4c_3x3"
}
layer {
  name: "ch_concat_in4c_chconcat"
  type: "Concat"
  bottom: "bn_in4c_1x1"
  bottom: "bn_in4c_3x3"
  top: "ch_concat_in4c_chconcat"
}
layer {
  name: "conv_in4d_1x1"
  type: "Convolution"
  bottom: "ch_concat_in4c_chconcat"
  top: "conv_in4d_1x1"
  convolution_param {
    num_output: 48
    bias_term: false
    kernel_size: 1
    stride: 1
    weight_filler {
      type: "xavier"
    }
  }
}
layer {
  name: "bn_in4d_1x1"
  type: "BatchNorm"
  bottom: "conv_in4d_1x1"
  top: "bn_in4d_1x1"
  batch_norm_param {
    use_global_stats: false
    moving_average_fraction: 0.9
    eps: 0.0001
    scale_filler {
      type: "constant"
      value: 1
    }
    bias_filler {
      type: "constant"
      value: 0
    }
  }
}
layer {
  name: "relu_in4d_1x1"
  type: "ReLU"
  bottom: "bn_in4d_1x1"
  top: "bn_in4d_1x1"
}
layer {
  name: "conv_in4d_3x3"
  type: "Convolution"
  bottom: "ch_concat_in4c_chconcat"
  top: "conv_in4d_3x3"
  convolution_param {
    num_output: 96
    bias_term: false
    pad: 1
    kernel_size: 3
    stride: 1
    weight_filler {
      type: "xavier"
    }
  }
}
layer {
  name: "bn_in4d_3x3"
  type: "BatchNorm"
  bottom: "conv_in4d_3x3"
  top: "bn_in4d_3x3"
  batch_norm_param {
    use_global_stats: false
    moving_average_fraction: 0.9
    eps: 0.0001
    scale_filler {
      type: "constant"
      value: 1
    }
    bias_filler {
      type: "constant"
      value: 0
    }
  }
}
layer {
  name: "relu_in4d_3x3"
  type: "ReLU"
  bottom: "bn_in4d_3x3"
  top: "bn_in4d_3x3"
}
layer {
  name: "ch_concat_in4d_chconcat"
  type: "Concat"
  bottom: "bn_in4d_1x1"
  bottom: "bn_in4d_3x3"
  top: "ch_concat_in4d_chconcat"
}
layer {
  name: "conv_in4e_3x3"
  type: "Convolution"
  bottom: "ch_concat_in4d_chconcat"
  top: "conv_in4e_3x3"
  convolution_param {
    num_output: 96
    bias_term: false
    pad: 1
    kernel_size: 3
    stride: 2
    weight_filler {
      type: "xavier"
    }
  }
}
layer {
  name: "bn_in4e_3x3"
  type: "BatchNorm"
  bottom: "conv_in4e_3x3"
  top: "bn_in4e_3x3"
  batch_norm_param {
    use_global_stats: false
    moving_average_fraction: 0.9
    eps: 0.0001
    scale_filler {
      type: "constant"
      value: 1
    }
    bias_filler {
      type: "constant"
      value: 0
    }
  }
}
layer {
  name: "relu_in4e_3x3"
  type: "ReLU"
  bottom: "bn_in4e_3x3"
  top: "bn_in4e_3x3"
}
layer {
  name: "max_pool_in4e_pool"
  type: "Pooling"
  bottom: "ch_concat_in4d_chconcat"
  top: "max_pool_in4e_pool"
  pooling_param {
    pool: MAX
    kernel_size: 3
    stride: 2
  }
}
layer {
  name: "ch_concat_in4e_chconcat"
  type: "Concat"
  bottom: "bn_in4e_3x3"
  bottom: "max_pool_in4e_pool"
  top: "ch_concat_in4e_chconcat"
}
layer {
  name: "conv_in5a_1x1"
  type: "Convolution"
  bottom: "ch_concat_in4e_chconcat"
  top: "conv_in5a_1x1"
  convolution_param {
    num_output: 176
    bias_term: false
    kernel_size: 1
    stride: 1
    weight_filler {
      type: "xavier"
    }
  }
}
layer {
  name: "bn_in5a_1x1"
  type: "BatchNorm"
  bottom: "conv_in5a_1x1"
  top: "bn_in5a_1x1"
  batch_norm_param {
    use_global_stats: false
    moving_average_fraction: 0.9
    eps: 0.0001
    scale_filler {
      type: "constant"
      value: 1
    }
    bias_filler {
      type: "constant"
      value: 0
    }
  }
}
layer {
  name: "relu_in5a_1x1"
  type: "ReLU"
  bottom: "bn_in5a_1x1"
  top: "bn_in5a_1x1"
}
layer {
  name: "conv_in5a_3x3"
  type: "Convolution"
  bottom: "ch_concat_in4e_chconcat"
  top: "conv_in5a_3x3"
  convolution_param {
    num_output: 160
    bias_term: false
    pad: 1
    kernel_size: 3
    stride: 1
    weight_filler {
      type: "xavier"
    }
  }
}
layer {
  name: "bn_in5a_3x3"
  type: "BatchNorm"
  bottom: "conv_in5a_3x3"
  top: "bn_in5a_3x3"
  batch_norm_param {
    use_global_stats: false
    moving_average_fraction: 0.9
    eps: 0.0001
    scale_filler {
      type: "constant"
      value: 1
    }
    bias_filler {
      type: "constant"
      value: 0
    }
  }
}
layer {
  name: "relu_in5a_3x3"
  type: "ReLU"
  bottom: "bn_in5a_3x3"
  top: "bn_in5a_3x3"
}
layer {
  name: "ch_concat_in5a_chconcat"
  type: "Concat"
  bottom: "bn_in5a_1x1"
  bottom: "bn_in5a_3x3"
  top: "ch_concat_in5a_chconcat"
}
layer {
  name: "conv_in5b_1x1"
  type: "Convolution"
  bottom: "ch_concat_in5a_chconcat"
  top: "conv_in5b_1x1"
  convolution_param {
    num_output: 176
    bias_term: false
    kernel_size: 1
    stride: 1
    weight_filler {
      type: "xavier"
    }
  }
}
layer {
  name: "bn_in5b_1x1"
  type: "BatchNorm"
  bottom: "conv_in5b_1x1"
  top: "bn_in5b_1x1"
  batch_norm_param {
    use_global_stats: false
    moving_average_fraction: 0.9
    eps: 0.0001
    scale_filler {
      type: "constant"
      value: 1
    }
    bias_filler {
      type: "constant"
      value: 0
    }
  }
}
layer {
  name: "relu_in5b_1x1"
  type: "ReLU"
  bottom: "bn_in5b_1x1"
  top: "bn_in5b_1x1"
}
layer {
  name: "conv_in5b_3x3"
  type: "Convolution"
  bottom: "ch_concat_in5a_chconcat"
  top: "conv_in5b_3x3"
  convolution_param {
    num_output: 160
    bias_term: false
    pad: 1
    kernel_size: 3
    stride: 1
    weight_filler {
      type: "xavier"
    }
  }
}
layer {
  name: "bn_in5b_3x3"
  type: "BatchNorm"
  bottom: "conv_in5b_3x3"
  top: "bn_in5b_3x3"
  batch_norm_param {
    use_global_stats: false
    moving_average_fraction: 0.9
    eps: 0.0001
    scale_filler {
      type: "constant"
      value: 1
    }
    bias_filler {
      type: "constant"
      value: 0
    }
  }
}
layer {
  name: "relu_in5b_3x3"
  type: "ReLU"
  bottom: "bn_in5b_3x3"
  top: "bn_in5b_3x3"
}
layer {
  name: "ch_concat_in5b_chconcat"
  type: "Concat"
  bottom: "bn_in5b_1x1"
  bottom: "bn_in5b_3x3"
  top: "ch_concat_in5b_chconcat"
}
layer {
  name: "global_pool"
  type: "Pooling"
  bottom: "ch_concat_in5b_chconcat"
  top: "global_pool"
  pooling_param {
    pool: AVE
    kernel_size: 7
    stride: 1
  }
}
layer {
  name: "fc1"
  type: "InnerProduct"
  bottom: "global_pool"
  top: "fc1"
  inner_product_param {
    num_output: 10
    weight_filler {
      type: "xavier"
    }
    bias_filler {
      type: "constant"
      value: 0
    }
  }
}
layer {
  name: "loss"
  type: "SoftmaxWithLoss"
  bottom: "fc1"
  bottom: "label"
  top: "loss"
  include {
    phase: TRAIN
  }
}
I1024 14:29:05.433588 21201 layer_factory.hpp:77] Creating layer cifar
I1024 14:29:05.433985 21201 net.cpp:91] Creating Layer cifar
I1024 14:29:05.433995 21201 net.cpp:399] cifar -> data
I1024 14:29:05.434010 21201 net.cpp:399] cifar -> label
I1024 14:29:05.434020 21201 data_transformer.cpp:25] Loading mean file from: examples/cifar10/1parts/mean.binaryproto.0
I1024 14:29:05.434720 21209 db_lmdb.cpp:38] Opened lmdb examples/cifar10/1parts/cifar10_train_lmdb.0
I1024 14:29:05.442440 21201 data_layer.cpp:41] output data size: 100,3,32,32
I1024 14:29:05.444607 21201 net.cpp:141] Setting up cifar
I1024 14:29:05.444618 21201 net.cpp:148] Top shape: 100 3 32 32 (307200)
I1024 14:29:05.444622 21201 net.cpp:148] Top shape: 100 (100)
I1024 14:29:05.444623 21201 net.cpp:156] Memory required for data: 1229200
I1024 14:29:05.444630 21201 layer_factory.hpp:77] Creating layer conv_conv1
I1024 14:29:05.444643 21201 net.cpp:91] Creating Layer conv_conv1
I1024 14:29:05.444648 21201 net.cpp:425] conv_conv1 <- data
I1024 14:29:05.444679 21201 net.cpp:399] conv_conv1 -> conv_conv1
I1024 14:29:05.444876 21201 net.cpp:141] Setting up conv_conv1
I1024 14:29:05.444882 21201 net.cpp:148] Top shape: 100 96 32 32 (9830400)
I1024 14:29:05.444885 21201 net.cpp:156] Memory required for data: 40550800
I1024 14:29:05.444895 21201 layer_factory.hpp:77] Creating layer bn_conv1
I1024 14:29:05.444900 21201 net.cpp:91] Creating Layer bn_conv1
I1024 14:29:05.444901 21201 net.cpp:425] bn_conv1 <- conv_conv1
I1024 14:29:05.444905 21201 net.cpp:399] bn_conv1 -> bn_conv1
I1024 14:29:05.445495 21201 net.cpp:141] Setting up bn_conv1
I1024 14:29:05.445504 21201 net.cpp:148] Top shape: 100 96 32 32 (9830400)
I1024 14:29:05.445506 21201 net.cpp:156] Memory required for data: 79872400
I1024 14:29:05.445514 21201 layer_factory.hpp:77] Creating layer relu_conv1
I1024 14:29:05.445518 21201 net.cpp:91] Creating Layer relu_conv1
I1024 14:29:05.445520 21201 net.cpp:425] relu_conv1 <- bn_conv1
I1024 14:29:05.445523 21201 net.cpp:386] relu_conv1 -> bn_conv1 (in-place)
I1024 14:29:05.445528 21201 net.cpp:141] Setting up relu_conv1
I1024 14:29:05.445529 21201 net.cpp:148] Top shape: 100 96 32 32 (9830400)
I1024 14:29:05.445531 21201 net.cpp:156] Memory required for data: 119194000
I1024 14:29:05.445534 21201 layer_factory.hpp:77] Creating layer bn_conv1_relu_conv1_0_split
I1024 14:29:05.445538 21201 net.cpp:91] Creating Layer bn_conv1_relu_conv1_0_split
I1024 14:29:05.445539 21201 net.cpp:425] bn_conv1_relu_conv1_0_split <- bn_conv1
I1024 14:29:05.445557 21201 net.cpp:399] bn_conv1_relu_conv1_0_split -> bn_conv1_relu_conv1_0_split_0
I1024 14:29:05.445562 21201 net.cpp:399] bn_conv1_relu_conv1_0_split -> bn_conv1_relu_conv1_0_split_1
I1024 14:29:05.445601 21201 net.cpp:141] Setting up bn_conv1_relu_conv1_0_split
I1024 14:29:05.445606 21201 net.cpp:148] Top shape: 100 96 32 32 (9830400)
I1024 14:29:05.445611 21201 net.cpp:148] Top shape: 100 96 32 32 (9830400)
I1024 14:29:05.445613 21201 net.cpp:156] Memory required for data: 197837200
I1024 14:29:05.445616 21201 layer_factory.hpp:77] Creating layer conv_in3a_1x1
I1024 14:29:05.445621 21201 net.cpp:91] Creating Layer conv_in3a_1x1
I1024 14:29:05.445626 21201 net.cpp:425] conv_in3a_1x1 <- bn_conv1_relu_conv1_0_split_0
I1024 14:29:05.445631 21201 net.cpp:399] conv_in3a_1x1 -> conv_in3a_1x1
I1024 14:29:05.445807 21201 net.cpp:141] Setting up conv_in3a_1x1
I1024 14:29:05.445813 21201 net.cpp:148] Top shape: 100 32 32 32 (3276800)
I1024 14:29:05.445816 21201 net.cpp:156] Memory required for data: 210944400
I1024 14:29:05.445818 21201 layer_factory.hpp:77] Creating layer bn_in3a_1x1
I1024 14:29:05.445822 21201 net.cpp:91] Creating Layer bn_in3a_1x1
I1024 14:29:05.445824 21201 net.cpp:425] bn_in3a_1x1 <- conv_in3a_1x1
I1024 14:29:05.445828 21201 net.cpp:399] bn_in3a_1x1 -> bn_in3a_1x1
I1024 14:29:05.446084 21201 net.cpp:141] Setting up bn_in3a_1x1
I1024 14:29:05.446089 21201 net.cpp:148] Top shape: 100 32 32 32 (3276800)
I1024 14:29:05.446091 21201 net.cpp:156] Memory required for data: 224051600
I1024 14:29:05.446097 21201 layer_factory.hpp:77] Creating layer relu_in3a_1x1
I1024 14:29:05.446101 21201 net.cpp:91] Creating Layer relu_in3a_1x1
I1024 14:29:05.446103 21201 net.cpp:425] relu_in3a_1x1 <- bn_in3a_1x1
I1024 14:29:05.446106 21201 net.cpp:386] relu_in3a_1x1 -> bn_in3a_1x1 (in-place)
I1024 14:29:05.446110 21201 net.cpp:141] Setting up relu_in3a_1x1
I1024 14:29:05.446112 21201 net.cpp:148] Top shape: 100 32 32 32 (3276800)
I1024 14:29:05.446115 21201 net.cpp:156] Memory required for data: 237158800
I1024 14:29:05.446117 21201 layer_factory.hpp:77] Creating layer conv_in3a_3x3
I1024 14:29:05.446141 21201 net.cpp:91] Creating Layer conv_in3a_3x3
I1024 14:29:05.446146 21201 net.cpp:425] conv_in3a_3x3 <- bn_conv1_relu_conv1_0_split_1
I1024 14:29:05.446151 21201 net.cpp:399] conv_in3a_3x3 -> conv_in3a_3x3
I1024 14:29:05.446759 21201 net.cpp:141] Setting up conv_in3a_3x3
I1024 14:29:05.446768 21201 net.cpp:148] Top shape: 100 32 32 32 (3276800)
I1024 14:29:05.446769 21201 net.cpp:156] Memory required for data: 250266000
I1024 14:29:05.446774 21201 layer_factory.hpp:77] Creating layer bn_in3a_3x3
I1024 14:29:05.446777 21201 net.cpp:91] Creating Layer bn_in3a_3x3
I1024 14:29:05.446779 21201 net.cpp:425] bn_in3a_3x3 <- conv_in3a_3x3
I1024 14:29:05.446782 21201 net.cpp:399] bn_in3a_3x3 -> bn_in3a_3x3
I1024 14:29:05.446954 21201 net.cpp:141] Setting up bn_in3a_3x3
I1024 14:29:05.446961 21201 net.cpp:148] Top shape: 100 32 32 32 (3276800)
I1024 14:29:05.446964 21201 net.cpp:156] Memory required for data: 263373200
I1024 14:29:05.446970 21201 layer_factory.hpp:77] Creating layer relu_in3a_3x3
I1024 14:29:05.446974 21201 net.cpp:91] Creating Layer relu_in3a_3x3
I1024 14:29:05.446976 21201 net.cpp:425] relu_in3a_3x3 <- bn_in3a_3x3
I1024 14:29:05.446979 21201 net.cpp:386] relu_in3a_3x3 -> bn_in3a_3x3 (in-place)
I1024 14:29:05.446982 21201 net.cpp:141] Setting up relu_in3a_3x3
I1024 14:29:05.446985 21201 net.cpp:148] Top shape: 100 32 32 32 (3276800)
I1024 14:29:05.446987 21201 net.cpp:156] Memory required for data: 276480400
I1024 14:29:05.446990 21201 layer_factory.hpp:77] Creating layer ch_concat_in3a_chconcat
I1024 14:29:05.446992 21201 net.cpp:91] Creating Layer ch_concat_in3a_chconcat
I1024 14:29:05.446995 21201 net.cpp:425] ch_concat_in3a_chconcat <- bn_in3a_1x1
I1024 14:29:05.447011 21201 net.cpp:425] ch_concat_in3a_chconcat <- bn_in3a_3x3
I1024 14:29:05.447015 21201 net.cpp:399] ch_concat_in3a_chconcat -> ch_concat_in3a_chconcat
I1024 14:29:05.447031 21201 net.cpp:141] Setting up ch_concat_in3a_chconcat
I1024 14:29:05.447037 21201 net.cpp:148] Top shape: 100 64 32 32 (6553600)
I1024 14:29:05.447054 21201 net.cpp:156] Memory required for data: 302694800
I1024 14:29:05.447057 21201 layer_factory.hpp:77] Creating layer ch_concat_in3a_chconcat_ch_concat_in3a_chconcat_0_split
I1024 14:29:05.447060 21201 net.cpp:91] Creating Layer ch_concat_in3a_chconcat_ch_concat_in3a_chconcat_0_split
I1024 14:29:05.447062 21201 net.cpp:425] ch_concat_in3a_chconcat_ch_concat_in3a_chconcat_0_split <- ch_concat_in3a_chconcat
I1024 14:29:05.447065 21201 net.cpp:399] ch_concat_in3a_chconcat_ch_concat_in3a_chconcat_0_split -> ch_concat_in3a_chconcat_ch_concat_in3a_chconcat_0_split_0
I1024 14:29:05.447069 21201 net.cpp:399] ch_concat_in3a_chconcat_ch_concat_in3a_chconcat_0_split -> ch_concat_in3a_chconcat_ch_concat_in3a_chconcat_0_split_1
I1024 14:29:05.447087 21201 net.cpp:141] Setting up ch_concat_in3a_chconcat_ch_concat_in3a_chconcat_0_split
I1024 14:29:05.447089 21201 net.cpp:148] Top shape: 100 64 32 32 (6553600)
I1024 14:29:05.447093 21201 net.cpp:148] Top shape: 100 64 32 32 (6553600)
I1024 14:29:05.447109 21201 net.cpp:156] Memory required for data: 355123600
I1024 14:29:05.447119 21201 layer_factory.hpp:77] Creating layer conv_in3b_1x1
I1024 14:29:05.447125 21201 net.cpp:91] Creating Layer conv_in3b_1x1
I1024 14:29:05.447139 21201 net.cpp:425] conv_in3b_1x1 <- ch_concat_in3a_chconcat_ch_concat_in3a_chconcat_0_split_0
I1024 14:29:05.447142 21201 net.cpp:399] conv_in3b_1x1 -> conv_in3b_1x1
I1024 14:29:05.447335 21201 net.cpp:141] Setting up conv_in3b_1x1
I1024 14:29:05.447340 21201 net.cpp:148] Top shape: 100 32 32 32 (3276800)
I1024 14:29:05.447341 21201 net.cpp:156] Memory required for data: 368230800
I1024 14:29:05.447345 21201 layer_factory.hpp:77] Creating layer bn_in3b_1x1
I1024 14:29:05.447371 21201 net.cpp:91] Creating Layer bn_in3b_1x1
I1024 14:29:05.447373 21201 net.cpp:425] bn_in3b_1x1 <- conv_in3b_1x1
I1024 14:29:05.447377 21201 net.cpp:399] bn_in3b_1x1 -> bn_in3b_1x1
I1024 14:29:05.447576 21201 net.cpp:141] Setting up bn_in3b_1x1
I1024 14:29:05.447582 21201 net.cpp:148] Top shape: 100 32 32 32 (3276800)
I1024 14:29:05.447584 21201 net.cpp:156] Memory required for data: 381338000
I1024 14:29:05.447589 21201 layer_factory.hpp:77] Creating layer relu_in3b_1x1
I1024 14:29:05.447592 21201 net.cpp:91] Creating Layer relu_in3b_1x1
I1024 14:29:05.447594 21201 net.cpp:425] relu_in3b_1x1 <- bn_in3b_1x1
I1024 14:29:05.447597 21201 net.cpp:386] relu_in3b_1x1 -> bn_in3b_1x1 (in-place)
I1024 14:29:05.447600 21201 net.cpp:141] Setting up relu_in3b_1x1
I1024 14:29:05.447602 21201 net.cpp:148] Top shape: 100 32 32 32 (3276800)
I1024 14:29:05.447604 21201 net.cpp:156] Memory required for data: 394445200
I1024 14:29:05.447607 21201 layer_factory.hpp:77] Creating layer conv_in3b_3x3
I1024 14:29:05.447612 21201 net.cpp:91] Creating Layer conv_in3b_3x3
I1024 14:29:05.447613 21201 net.cpp:425] conv_in3b_3x3 <- ch_concat_in3a_chconcat_ch_concat_in3a_chconcat_0_split_1
I1024 14:29:05.447618 21201 net.cpp:399] conv_in3b_3x3 -> conv_in3b_3x3
I1024 14:29:05.447852 21201 net.cpp:141] Setting up conv_in3b_3x3
I1024 14:29:05.447857 21201 net.cpp:148] Top shape: 100 48 32 32 (4915200)
I1024 14:29:05.447860 21201 net.cpp:156] Memory required for data: 414106000
I1024 14:29:05.447863 21201 layer_factory.hpp:77] Creating layer bn_in3b_3x3
I1024 14:29:05.447866 21201 net.cpp:91] Creating Layer bn_in3b_3x3
I1024 14:29:05.447868 21201 net.cpp:425] bn_in3b_3x3 <- conv_in3b_3x3
I1024 14:29:05.447871 21201 net.cpp:399] bn_in3b_3x3 -> bn_in3b_3x3
I1024 14:29:05.448050 21201 net.cpp:141] Setting up bn_in3b_3x3
I1024 14:29:05.448055 21201 net.cpp:148] Top shape: 100 48 32 32 (4915200)
I1024 14:29:05.448072 21201 net.cpp:156] Memory required for data: 433766800
I1024 14:29:05.448077 21201 layer_factory.hpp:77] Creating layer relu_in3b_3x3
I1024 14:29:05.448081 21201 net.cpp:91] Creating Layer relu_in3b_3x3
I1024 14:29:05.448082 21201 net.cpp:425] relu_in3b_3x3 <- bn_in3b_3x3
I1024 14:29:05.448086 21201 net.cpp:386] relu_in3b_3x3 -> bn_in3b_3x3 (in-place)
I1024 14:29:05.448088 21201 net.cpp:141] Setting up relu_in3b_3x3
I1024 14:29:05.448093 21201 net.cpp:148] Top shape: 100 48 32 32 (4915200)
I1024 14:29:05.448096 21201 net.cpp:156] Memory required for data: 453427600
I1024 14:29:05.448097 21201 layer_factory.hpp:77] Creating layer ch_concat_in3b_chconcat
I1024 14:29:05.448099 21201 net.cpp:91] Creating Layer ch_concat_in3b_chconcat
I1024 14:29:05.448102 21201 net.cpp:425] ch_concat_in3b_chconcat <- bn_in3b_1x1
I1024 14:29:05.448107 21201 net.cpp:425] ch_concat_in3b_chconcat <- bn_in3b_3x3
I1024 14:29:05.448109 21201 net.cpp:399] ch_concat_in3b_chconcat -> ch_concat_in3b_chconcat
I1024 14:29:05.448127 21201 net.cpp:141] Setting up ch_concat_in3b_chconcat
I1024 14:29:05.448133 21201 net.cpp:148] Top shape: 100 80 32 32 (8192000)
I1024 14:29:05.448135 21201 net.cpp:156] Memory required for data: 486195600
I1024 14:29:05.448137 21201 layer_factory.hpp:77] Creating layer ch_concat_in3b_chconcat_ch_concat_in3b_chconcat_0_split
I1024 14:29:05.448140 21201 net.cpp:91] Creating Layer ch_concat_in3b_chconcat_ch_concat_in3b_chconcat_0_split
I1024 14:29:05.448155 21201 net.cpp:425] ch_concat_in3b_chconcat_ch_concat_in3b_chconcat_0_split <- ch_concat_in3b_chconcat
I1024 14:29:05.448159 21201 net.cpp:399] ch_concat_in3b_chconcat_ch_concat_in3b_chconcat_0_split -> ch_concat_in3b_chconcat_ch_concat_in3b_chconcat_0_split_0
I1024 14:29:05.448184 21201 net.cpp:399] ch_concat_in3b_chconcat_ch_concat_in3b_chconcat_0_split -> ch_concat_in3b_chconcat_ch_concat_in3b_chconcat_0_split_1
I1024 14:29:05.448207 21201 net.cpp:141] Setting up ch_concat_in3b_chconcat_ch_concat_in3b_chconcat_0_split
I1024 14:29:05.448213 21201 net.cpp:148] Top shape: 100 80 32 32 (8192000)
I1024 14:29:05.448216 21201 net.cpp:148] Top shape: 100 80 32 32 (8192000)
I1024 14:29:05.448218 21201 net.cpp:156] Memory required for data: 551731600
I1024 14:29:05.448220 21201 layer_factory.hpp:77] Creating layer conv_in3c_3x3
I1024 14:29:05.448225 21201 net.cpp:91] Creating Layer conv_in3c_3x3
I1024 14:29:05.448227 21201 net.cpp:425] conv_in3c_3x3 <- ch_concat_in3b_chconcat_ch_concat_in3b_chconcat_0_split_0
I1024 14:29:05.448230 21201 net.cpp:399] conv_in3c_3x3 -> conv_in3c_3x3
I1024 14:29:05.448506 21201 net.cpp:141] Setting up conv_in3c_3x3
I1024 14:29:05.448513 21201 net.cpp:148] Top shape: 100 80 16 16 (2048000)
I1024 14:29:05.448516 21201 net.cpp:156] Memory required for data: 559923600
I1024 14:29:05.448518 21201 layer_factory.hpp:77] Creating layer bn_in3c_3x3
I1024 14:29:05.448523 21201 net.cpp:91] Creating Layer bn_in3c_3x3
I1024 14:29:05.448525 21201 net.cpp:425] bn_in3c_3x3 <- conv_in3c_3x3
I1024 14:29:05.448529 21201 net.cpp:399] bn_in3c_3x3 -> bn_in3c_3x3
I1024 14:29:05.448675 21201 net.cpp:141] Setting up bn_in3c_3x3
I1024 14:29:05.448681 21201 net.cpp:148] Top shape: 100 80 16 16 (2048000)
I1024 14:29:05.448683 21201 net.cpp:156] Memory required for data: 568115600
I1024 14:29:05.448690 21201 layer_factory.hpp:77] Creating layer relu_in3c_3x3
I1024 14:29:05.448694 21201 net.cpp:91] Creating Layer relu_in3c_3x3
I1024 14:29:05.448696 21201 net.cpp:425] relu_in3c_3x3 <- bn_in3c_3x3
I1024 14:29:05.448699 21201 net.cpp:386] relu_in3c_3x3 -> bn_in3c_3x3 (in-place)
I1024 14:29:05.448702 21201 net.cpp:141] Setting up relu_in3c_3x3
I1024 14:29:05.448705 21201 net.cpp:148] Top shape: 100 80 16 16 (2048000)
I1024 14:29:05.448707 21201 net.cpp:156] Memory required for data: 576307600
I1024 14:29:05.448710 21201 layer_factory.hpp:77] Creating layer max_pool_in3c_pool
I1024 14:29:05.448715 21201 net.cpp:91] Creating Layer max_pool_in3c_pool
I1024 14:29:05.448719 21201 net.cpp:425] max_pool_in3c_pool <- ch_concat_in3b_chconcat_ch_concat_in3b_chconcat_0_split_1
I1024 14:29:05.448724 21201 net.cpp:399] max_pool_in3c_pool -> max_pool_in3c_pool
I1024 14:29:05.448750 21201 net.cpp:141] Setting up max_pool_in3c_pool
I1024 14:29:05.448755 21201 net.cpp:148] Top shape: 100 80 16 16 (2048000)
I1024 14:29:05.448756 21201 net.cpp:156] Memory required for data: 584499600
I1024 14:29:05.448758 21201 layer_factory.hpp:77] Creating layer ch_concat_in3c_chconcat
I1024 14:29:05.448761 21201 net.cpp:91] Creating Layer ch_concat_in3c_chconcat
I1024 14:29:05.448763 21201 net.cpp:425] ch_concat_in3c_chconcat <- bn_in3c_3x3
I1024 14:29:05.448766 21201 net.cpp:425] ch_concat_in3c_chconcat <- max_pool_in3c_pool
I1024 14:29:05.448770 21201 net.cpp:399] ch_concat_in3c_chconcat -> ch_concat_in3c_chconcat
I1024 14:29:05.448786 21201 net.cpp:141] Setting up ch_concat_in3c_chconcat
I1024 14:29:05.448791 21201 net.cpp:148] Top shape: 100 160 16 16 (4096000)
I1024 14:29:05.448796 21201 net.cpp:156] Memory required for data: 600883600
I1024 14:29:05.448797 21201 layer_factory.hpp:77] Creating layer ch_concat_in3c_chconcat_ch_concat_in3c_chconcat_0_split
I1024 14:29:05.448813 21201 net.cpp:91] Creating Layer ch_concat_in3c_chconcat_ch_concat_in3c_chconcat_0_split
I1024 14:29:05.448817 21201 net.cpp:425] ch_concat_in3c_chconcat_ch_concat_in3c_chconcat_0_split <- ch_concat_in3c_chconcat
I1024 14:29:05.448819 21201 net.cpp:399] ch_concat_in3c_chconcat_ch_concat_in3c_chconcat_0_split -> ch_concat_in3c_chconcat_ch_concat_in3c_chconcat_0_split_0
I1024 14:29:05.448837 21201 net.cpp:399] ch_concat_in3c_chconcat_ch_concat_in3c_chconcat_0_split -> ch_concat_in3c_chconcat_ch_concat_in3c_chconcat_0_split_1
I1024 14:29:05.448860 21201 net.cpp:141] Setting up ch_concat_in3c_chconcat_ch_concat_in3c_chconcat_0_split
I1024 14:29:05.448873 21201 net.cpp:148] Top shape: 100 160 16 16 (4096000)
I1024 14:29:05.448875 21201 net.cpp:148] Top shape: 100 160 16 16 (4096000)
I1024 14:29:05.448877 21201 net.cpp:156] Memory required for data: 633651600
I1024 14:29:05.448879 21201 layer_factory.hpp:77] Creating layer conv_in4a_1x1
I1024 14:29:05.448884 21201 net.cpp:91] Creating Layer conv_in4a_1x1
I1024 14:29:05.448886 21201 net.cpp:425] conv_in4a_1x1 <- ch_concat_in3c_chconcat_ch_concat_in3c_chconcat_0_split_0
I1024 14:29:05.448889 21201 net.cpp:399] conv_in4a_1x1 -> conv_in4a_1x1
I1024 14:29:05.449053 21201 net.cpp:141] Setting up conv_in4a_1x1
I1024 14:29:05.449057 21201 net.cpp:148] Top shape: 100 112 16 16 (2867200)
I1024 14:29:05.449074 21201 net.cpp:156] Memory required for data: 645120400
I1024 14:29:05.449076 21201 layer_factory.hpp:77] Creating layer bn_in4a_1x1
I1024 14:29:05.449079 21201 net.cpp:91] Creating Layer bn_in4a_1x1
I1024 14:29:05.449082 21201 net.cpp:425] bn_in4a_1x1 <- conv_in4a_1x1
I1024 14:29:05.449086 21201 net.cpp:399] bn_in4a_1x1 -> bn_in4a_1x1
I1024 14:29:05.449240 21201 net.cpp:141] Setting up bn_in4a_1x1
I1024 14:29:05.449245 21201 net.cpp:148] Top shape: 100 112 16 16 (2867200)
I1024 14:29:05.449259 21201 net.cpp:156] Memory required for data: 656589200
I1024 14:29:05.449265 21201 layer_factory.hpp:77] Creating layer relu_in4a_1x1
I1024 14:29:05.449268 21201 net.cpp:91] Creating Layer relu_in4a_1x1
I1024 14:29:05.449271 21201 net.cpp:425] relu_in4a_1x1 <- bn_in4a_1x1
I1024 14:29:05.449275 21201 net.cpp:386] relu_in4a_1x1 -> bn_in4a_1x1 (in-place)
I1024 14:29:05.449280 21201 net.cpp:141] Setting up relu_in4a_1x1
I1024 14:29:05.449282 21201 net.cpp:148] Top shape: 100 112 16 16 (2867200)
I1024 14:29:05.449285 21201 net.cpp:156] Memory required for data: 668058000
I1024 14:29:05.449286 21201 layer_factory.hpp:77] Creating layer conv_in4a_3x3
I1024 14:29:05.449290 21201 net.cpp:91] Creating Layer conv_in4a_3x3
I1024 14:29:05.449295 21201 net.cpp:425] conv_in4a_3x3 <- ch_concat_in3c_chconcat_ch_concat_in3c_chconcat_0_split_1
I1024 14:29:05.449301 21201 net.cpp:399] conv_in4a_3x3 -> conv_in4a_3x3
I1024 14:29:05.449620 21201 net.cpp:141] Setting up conv_in4a_3x3
I1024 14:29:05.449626 21201 net.cpp:148] Top shape: 100 48 16 16 (1228800)
I1024 14:29:05.449630 21201 net.cpp:156] Memory required for data: 672973200
I1024 14:29:05.449635 21201 layer_factory.hpp:77] Creating layer bn_in4a_3x3
I1024 14:29:05.449640 21201 net.cpp:91] Creating Layer bn_in4a_3x3
I1024 14:29:05.449645 21201 net.cpp:425] bn_in4a_3x3 <- conv_in4a_3x3
I1024 14:29:05.449647 21201 net.cpp:399] bn_in4a_3x3 -> bn_in4a_3x3
I1024 14:29:05.449792 21201 net.cpp:141] Setting up bn_in4a_3x3
I1024 14:29:05.449797 21201 net.cpp:148] Top shape: 100 48 16 16 (1228800)
I1024 14:29:05.449800 21201 net.cpp:156] Memory required for data: 677888400
I1024 14:29:05.449810 21201 layer_factory.hpp:77] Creating layer relu_in4a_3x3
I1024 14:29:05.449817 21201 net.cpp:91] Creating Layer relu_in4a_3x3
I1024 14:29:05.449821 21201 net.cpp:425] relu_in4a_3x3 <- bn_in4a_3x3
I1024 14:29:05.449827 21201 net.cpp:386] relu_in4a_3x3 -> bn_in4a_3x3 (in-place)
I1024 14:29:05.449832 21201 net.cpp:141] Setting up relu_in4a_3x3
I1024 14:29:05.449837 21201 net.cpp:148] Top shape: 100 48 16 16 (1228800)
I1024 14:29:05.449841 21201 net.cpp:156] Memory required for data: 682803600
I1024 14:29:05.449846 21201 layer_factory.hpp:77] Creating layer ch_concat_in4a_chconcat
I1024 14:29:05.449851 21201 net.cpp:91] Creating Layer ch_concat_in4a_chconcat
I1024 14:29:05.449854 21201 net.cpp:425] ch_concat_in4a_chconcat <- bn_in4a_1x1
I1024 14:29:05.449858 21201 net.cpp:425] ch_concat_in4a_chconcat <- bn_in4a_3x3
I1024 14:29:05.449864 21201 net.cpp:399] ch_concat_in4a_chconcat -> ch_concat_in4a_chconcat
I1024 14:29:05.449882 21201 net.cpp:141] Setting up ch_concat_in4a_chconcat
I1024 14:29:05.449887 21201 net.cpp:148] Top shape: 100 160 16 16 (4096000)
I1024 14:29:05.449892 21201 net.cpp:156] Memory required for data: 699187600
I1024 14:29:05.449894 21201 layer_factory.hpp:77] Creating layer ch_concat_in4a_chconcat_ch_concat_in4a_chconcat_0_split
I1024 14:29:05.449906 21201 net.cpp:91] Creating Layer ch_concat_in4a_chconcat_ch_concat_in4a_chconcat_0_split
I1024 14:29:05.449911 21201 net.cpp:425] ch_concat_in4a_chconcat_ch_concat_in4a_chconcat_0_split <- ch_concat_in4a_chconcat
I1024 14:29:05.449916 21201 net.cpp:399] ch_concat_in4a_chconcat_ch_concat_in4a_chconcat_0_split -> ch_concat_in4a_chconcat_ch_concat_in4a_chconcat_0_split_0
I1024 14:29:05.449924 21201 net.cpp:399] ch_concat_in4a_chconcat_ch_concat_in4a_chconcat_0_split -> ch_concat_in4a_chconcat_ch_concat_in4a_chconcat_0_split_1
I1024 14:29:05.449952 21201 net.cpp:141] Setting up ch_concat_in4a_chconcat_ch_concat_in4a_chconcat_0_split
I1024 14:29:05.449959 21201 net.cpp:148] Top shape: 100 160 16 16 (4096000)
I1024 14:29:05.449961 21201 net.cpp:148] Top shape: 100 160 16 16 (4096000)
I1024 14:29:05.449965 21201 net.cpp:156] Memory required for data: 731955600
I1024 14:29:05.449970 21201 layer_factory.hpp:77] Creating layer conv_in4b_1x1
I1024 14:29:05.449976 21201 net.cpp:91] Creating Layer conv_in4b_1x1
I1024 14:29:05.449981 21201 net.cpp:425] conv_in4b_1x1 <- ch_concat_in4a_chconcat_ch_concat_in4a_chconcat_0_split_0
I1024 14:29:05.449987 21201 net.cpp:399] conv_in4b_1x1 -> conv_in4b_1x1
I1024 14:29:05.450549 21201 net.cpp:141] Setting up conv_in4b_1x1
I1024 14:29:05.450557 21201 net.cpp:148] Top shape: 100 96 16 16 (2457600)
I1024 14:29:05.450561 21201 net.cpp:156] Memory required for data: 741786000
I1024 14:29:05.450565 21201 layer_factory.hpp:77] Creating layer bn_in4b_1x1
I1024 14:29:05.450573 21201 net.cpp:91] Creating Layer bn_in4b_1x1
I1024 14:29:05.450577 21201 net.cpp:425] bn_in4b_1x1 <- conv_in4b_1x1
I1024 14:29:05.450583 21201 net.cpp:399] bn_in4b_1x1 -> bn_in4b_1x1
I1024 14:29:05.450731 21201 net.cpp:141] Setting up bn_in4b_1x1
I1024 14:29:05.450737 21201 net.cpp:148] Top shape: 100 96 16 16 (2457600)
I1024 14:29:05.450738 21201 net.cpp:156] Memory required for data: 751616400
I1024 14:29:05.450745 21201 layer_factory.hpp:77] Creating layer relu_in4b_1x1
I1024 14:29:05.450752 21201 net.cpp:91] Creating Layer relu_in4b_1x1
I1024 14:29:05.450755 21201 net.cpp:425] relu_in4b_1x1 <- bn_in4b_1x1
I1024 14:29:05.450760 21201 net.cpp:386] relu_in4b_1x1 -> bn_in4b_1x1 (in-place)
I1024 14:29:05.450767 21201 net.cpp:141] Setting up relu_in4b_1x1
I1024 14:29:05.450772 21201 net.cpp:148] Top shape: 100 96 16 16 (2457600)
I1024 14:29:05.450775 21201 net.cpp:156] Memory required for data: 761446800
I1024 14:29:05.450778 21201 layer_factory.hpp:77] Creating layer conv_in4b_3x3
I1024 14:29:05.450784 21201 net.cpp:91] Creating Layer conv_in4b_3x3
I1024 14:29:05.450788 21201 net.cpp:425] conv_in4b_3x3 <- ch_concat_in4a_chconcat_ch_concat_in4a_chconcat_0_split_1
I1024 14:29:05.450795 21201 net.cpp:399] conv_in4b_3x3 -> conv_in4b_3x3
I1024 14:29:05.451189 21201 net.cpp:141] Setting up conv_in4b_3x3
I1024 14:29:05.451195 21201 net.cpp:148] Top shape: 100 64 16 16 (1638400)
I1024 14:29:05.451196 21201 net.cpp:156] Memory required for data: 768000400
I1024 14:29:05.451201 21201 layer_factory.hpp:77] Creating layer bn_in4b_3x3
I1024 14:29:05.451206 21201 net.cpp:91] Creating Layer bn_in4b_3x3
I1024 14:29:05.451210 21201 net.cpp:425] bn_in4b_3x3 <- conv_in4b_3x3
I1024 14:29:05.451215 21201 net.cpp:399] bn_in4b_3x3 -> bn_in4b_3x3
I1024 14:29:05.451360 21201 net.cpp:141] Setting up bn_in4b_3x3
I1024 14:29:05.451365 21201 net.cpp:148] Top shape: 100 64 16 16 (1638400)
I1024 14:29:05.451369 21201 net.cpp:156] Memory required for data: 774554000
I1024 14:29:05.451375 21201 layer_factory.hpp:77] Creating layer relu_in4b_3x3
I1024 14:29:05.451380 21201 net.cpp:91] Creating Layer relu_in4b_3x3
I1024 14:29:05.451385 21201 net.cpp:425] relu_in4b_3x3 <- bn_in4b_3x3
I1024 14:29:05.451388 21201 net.cpp:386] relu_in4b_3x3 -> bn_in4b_3x3 (in-place)
I1024 14:29:05.451395 21201 net.cpp:141] Setting up relu_in4b_3x3
I1024 14:29:05.451400 21201 net.cpp:148] Top shape: 100 64 16 16 (1638400)
I1024 14:29:05.451403 21201 net.cpp:156] Memory required for data: 781107600
I1024 14:29:05.451414 21201 layer_factory.hpp:77] Creating layer ch_concat_in4b_chconcat
I1024 14:29:05.451421 21201 net.cpp:91] Creating Layer ch_concat_in4b_chconcat
I1024 14:29:05.451424 21201 net.cpp:425] ch_concat_in4b_chconcat <- bn_in4b_1x1
I1024 14:29:05.451428 21201 net.cpp:425] ch_concat_in4b_chconcat <- bn_in4b_3x3
I1024 14:29:05.451434 21201 net.cpp:399] ch_concat_in4b_chconcat -> ch_concat_in4b_chconcat
I1024 14:29:05.451452 21201 net.cpp:141] Setting up ch_concat_in4b_chconcat
I1024 14:29:05.451458 21201 net.cpp:148] Top shape: 100 160 16 16 (4096000)
I1024 14:29:05.451460 21201 net.cpp:156] Memory required for data: 797491600
I1024 14:29:05.451462 21201 layer_factory.hpp:77] Creating layer ch_concat_in4b_chconcat_ch_concat_in4b_chconcat_0_split
I1024 14:29:05.451468 21201 net.cpp:91] Creating Layer ch_concat_in4b_chconcat_ch_concat_in4b_chconcat_0_split
I1024 14:29:05.451472 21201 net.cpp:425] ch_concat_in4b_chconcat_ch_concat_in4b_chconcat_0_split <- ch_concat_in4b_chconcat
I1024 14:29:05.451478 21201 net.cpp:399] ch_concat_in4b_chconcat_ch_concat_in4b_chconcat_0_split -> ch_concat_in4b_chconcat_ch_concat_in4b_chconcat_0_split_0
I1024 14:29:05.451484 21201 net.cpp:399] ch_concat_in4b_chconcat_ch_concat_in4b_chconcat_0_split -> ch_concat_in4b_chconcat_ch_concat_in4b_chconcat_0_split_1
I1024 14:29:05.451509 21201 net.cpp:141] Setting up ch_concat_in4b_chconcat_ch_concat_in4b_chconcat_0_split
I1024 14:29:05.451514 21201 net.cpp:148] Top shape: 100 160 16 16 (4096000)
I1024 14:29:05.451517 21201 net.cpp:148] Top shape: 100 160 16 16 (4096000)
I1024 14:29:05.451520 21201 net.cpp:156] Memory required for data: 830259600
I1024 14:29:05.451524 21201 layer_factory.hpp:77] Creating layer conv_in4c_1x1
I1024 14:29:05.451530 21201 net.cpp:91] Creating Layer conv_in4c_1x1
I1024 14:29:05.451534 21201 net.cpp:425] conv_in4c_1x1 <- ch_concat_in4b_chconcat_ch_concat_in4b_chconcat_0_split_0
I1024 14:29:05.451539 21201 net.cpp:399] conv_in4c_1x1 -> conv_in4c_1x1
I1024 14:29:05.451678 21201 net.cpp:141] Setting up conv_in4c_1x1
I1024 14:29:05.451684 21201 net.cpp:148] Top shape: 100 80 16 16 (2048000)
I1024 14:29:05.451686 21201 net.cpp:156] Memory required for data: 838451600
I1024 14:29:05.451690 21201 layer_factory.hpp:77] Creating layer bn_in4c_1x1
I1024 14:29:05.451695 21201 net.cpp:91] Creating Layer bn_in4c_1x1
I1024 14:29:05.451700 21201 net.cpp:425] bn_in4c_1x1 <- conv_in4c_1x1
I1024 14:29:05.451705 21201 net.cpp:399] bn_in4c_1x1 -> bn_in4c_1x1
I1024 14:29:05.451862 21201 net.cpp:141] Setting up bn_in4c_1x1
I1024 14:29:05.451869 21201 net.cpp:148] Top shape: 100 80 16 16 (2048000)
I1024 14:29:05.451871 21201 net.cpp:156] Memory required for data: 846643600
I1024 14:29:05.451887 21201 layer_factory.hpp:77] Creating layer relu_in4c_1x1
I1024 14:29:05.451894 21201 net.cpp:91] Creating Layer relu_in4c_1x1
I1024 14:29:05.451896 21201 net.cpp:425] relu_in4c_1x1 <- bn_in4c_1x1
I1024 14:29:05.451902 21201 net.cpp:386] relu_in4c_1x1 -> bn_in4c_1x1 (in-place)
I1024 14:29:05.451908 21201 net.cpp:141] Setting up relu_in4c_1x1
I1024 14:29:05.451913 21201 net.cpp:148] Top shape: 100 80 16 16 (2048000)
I1024 14:29:05.451917 21201 net.cpp:156] Memory required for data: 854835600
I1024 14:29:05.451920 21201 layer_factory.hpp:77] Creating layer conv_in4c_3x3
I1024 14:29:05.451927 21201 net.cpp:91] Creating Layer conv_in4c_3x3
I1024 14:29:05.451932 21201 net.cpp:425] conv_in4c_3x3 <- ch_concat_in4b_chconcat_ch_concat_in4b_chconcat_0_split_1
I1024 14:29:05.451936 21201 net.cpp:399] conv_in4c_3x3 -> conv_in4c_3x3
I1024 14:29:05.452411 21201 net.cpp:141] Setting up conv_in4c_3x3
I1024 14:29:05.452417 21201 net.cpp:148] Top shape: 100 80 16 16 (2048000)
I1024 14:29:05.452419 21201 net.cpp:156] Memory required for data: 863027600
I1024 14:29:05.452422 21201 layer_factory.hpp:77] Creating layer bn_in4c_3x3
I1024 14:29:05.452430 21201 net.cpp:91] Creating Layer bn_in4c_3x3
I1024 14:29:05.452435 21201 net.cpp:425] bn_in4c_3x3 <- conv_in4c_3x3
I1024 14:29:05.452440 21201 net.cpp:399] bn_in4c_3x3 -> bn_in4c_3x3
I1024 14:29:05.452618 21201 net.cpp:141] Setting up bn_in4c_3x3
I1024 14:29:05.452625 21201 net.cpp:148] Top shape: 100 80 16 16 (2048000)
I1024 14:29:05.452627 21201 net.cpp:156] Memory required for data: 871219600
I1024 14:29:05.452636 21201 layer_factory.hpp:77] Creating layer relu_in4c_3x3
I1024 14:29:05.452656 21201 net.cpp:91] Creating Layer relu_in4c_3x3
I1024 14:29:05.452661 21201 net.cpp:425] relu_in4c_3x3 <- bn_in4c_3x3
I1024 14:29:05.452664 21201 net.cpp:386] relu_in4c_3x3 -> bn_in4c_3x3 (in-place)
I1024 14:29:05.452670 21201 net.cpp:141] Setting up relu_in4c_3x3
I1024 14:29:05.452675 21201 net.cpp:148] Top shape: 100 80 16 16 (2048000)
I1024 14:29:05.452680 21201 net.cpp:156] Memory required for data: 879411600
I1024 14:29:05.452683 21201 layer_factory.hpp:77] Creating layer ch_concat_in4c_chconcat
I1024 14:29:05.452687 21201 net.cpp:91] Creating Layer ch_concat_in4c_chconcat
I1024 14:29:05.452692 21201 net.cpp:425] ch_concat_in4c_chconcat <- bn_in4c_1x1
I1024 14:29:05.452697 21201 net.cpp:425] ch_concat_in4c_chconcat <- bn_in4c_3x3
I1024 14:29:05.452703 21201 net.cpp:399] ch_concat_in4c_chconcat -> ch_concat_in4c_chconcat
I1024 14:29:05.452723 21201 net.cpp:141] Setting up ch_concat_in4c_chconcat
I1024 14:29:05.452728 21201 net.cpp:148] Top shape: 100 160 16 16 (4096000)
I1024 14:29:05.452730 21201 net.cpp:156] Memory required for data: 895795600
I1024 14:29:05.452733 21201 layer_factory.hpp:77] Creating layer ch_concat_in4c_chconcat_ch_concat_in4c_chconcat_0_split
I1024 14:29:05.452739 21201 net.cpp:91] Creating Layer ch_concat_in4c_chconcat_ch_concat_in4c_chconcat_0_split
I1024 14:29:05.452742 21201 net.cpp:425] ch_concat_in4c_chconcat_ch_concat_in4c_chconcat_0_split <- ch_concat_in4c_chconcat
I1024 14:29:05.452749 21201 net.cpp:399] ch_concat_in4c_chconcat_ch_concat_in4c_chconcat_0_split -> ch_concat_in4c_chconcat_ch_concat_in4c_chconcat_0_split_0
I1024 14:29:05.452756 21201 net.cpp:399] ch_concat_in4c_chconcat_ch_concat_in4c_chconcat_0_split -> ch_concat_in4c_chconcat_ch_concat_in4c_chconcat_0_split_1
I1024 14:29:05.452783 21201 net.cpp:141] Setting up ch_concat_in4c_chconcat_ch_concat_in4c_chconcat_0_split
I1024 14:29:05.452788 21201 net.cpp:148] Top shape: 100 160 16 16 (4096000)
I1024 14:29:05.452792 21201 net.cpp:148] Top shape: 100 160 16 16 (4096000)
I1024 14:29:05.452795 21201 net.cpp:156] Memory required for data: 928563600
I1024 14:29:05.452798 21201 layer_factory.hpp:77] Creating layer conv_in4d_1x1
I1024 14:29:05.452805 21201 net.cpp:91] Creating Layer conv_in4d_1x1
I1024 14:29:05.452810 21201 net.cpp:425] conv_in4d_1x1 <- ch_concat_in4c_chconcat_ch_concat_in4c_chconcat_0_split_0
I1024 14:29:05.452816 21201 net.cpp:399] conv_in4d_1x1 -> conv_in4d_1x1
I1024 14:29:05.452940 21201 net.cpp:141] Setting up conv_in4d_1x1
I1024 14:29:05.452946 21201 net.cpp:148] Top shape: 100 48 16 16 (1228800)
I1024 14:29:05.452947 21201 net.cpp:156] Memory required for data: 933478800
I1024 14:29:05.452952 21201 layer_factory.hpp:77] Creating layer bn_in4d_1x1
I1024 14:29:05.452958 21201 net.cpp:91] Creating Layer bn_in4d_1x1
I1024 14:29:05.452963 21201 net.cpp:425] bn_in4d_1x1 <- conv_in4d_1x1
I1024 14:29:05.452967 21201 net.cpp:399] bn_in4d_1x1 -> bn_in4d_1x1
I1024 14:29:05.453125 21201 net.cpp:141] Setting up bn_in4d_1x1
I1024 14:29:05.453130 21201 net.cpp:148] Top shape: 100 48 16 16 (1228800)
I1024 14:29:05.453133 21201 net.cpp:156] Memory required for data: 938394000
I1024 14:29:05.453140 21201 layer_factory.hpp:77] Creating layer relu_in4d_1x1
I1024 14:29:05.453146 21201 net.cpp:91] Creating Layer relu_in4d_1x1
I1024 14:29:05.453150 21201 net.cpp:425] relu_in4d_1x1 <- bn_in4d_1x1
I1024 14:29:05.453155 21201 net.cpp:386] relu_in4d_1x1 -> bn_in4d_1x1 (in-place)
I1024 14:29:05.453161 21201 net.cpp:141] Setting up relu_in4d_1x1
I1024 14:29:05.453166 21201 net.cpp:148] Top shape: 100 48 16 16 (1228800)
I1024 14:29:05.453171 21201 net.cpp:156] Memory required for data: 943309200
I1024 14:29:05.453173 21201 layer_factory.hpp:77] Creating layer conv_in4d_3x3
I1024 14:29:05.453181 21201 net.cpp:91] Creating Layer conv_in4d_3x3
I1024 14:29:05.453191 21201 net.cpp:425] conv_in4d_3x3 <- ch_concat_in4c_chconcat_ch_concat_in4c_chconcat_0_split_1
I1024 14:29:05.453198 21201 net.cpp:399] conv_in4d_3x3 -> conv_in4d_3x3
I1024 14:29:05.453748 21201 net.cpp:141] Setting up conv_in4d_3x3
I1024 14:29:05.453754 21201 net.cpp:148] Top shape: 100 96 16 16 (2457600)
I1024 14:29:05.453758 21201 net.cpp:156] Memory required for data: 953139600
I1024 14:29:05.453761 21201 layer_factory.hpp:77] Creating layer bn_in4d_3x3
I1024 14:29:05.453768 21201 net.cpp:91] Creating Layer bn_in4d_3x3
I1024 14:29:05.453771 21201 net.cpp:425] bn_in4d_3x3 <- conv_in4d_3x3
I1024 14:29:05.453778 21201 net.cpp:399] bn_in4d_3x3 -> bn_in4d_3x3
I1024 14:29:05.453933 21201 net.cpp:141] Setting up bn_in4d_3x3
I1024 14:29:05.453938 21201 net.cpp:148] Top shape: 100 96 16 16 (2457600)
I1024 14:29:05.453940 21201 net.cpp:156] Memory required for data: 962970000
I1024 14:29:05.453948 21201 layer_factory.hpp:77] Creating layer relu_in4d_3x3
I1024 14:29:05.453954 21201 net.cpp:91] Creating Layer relu_in4d_3x3
I1024 14:29:05.453958 21201 net.cpp:425] relu_in4d_3x3 <- bn_in4d_3x3
I1024 14:29:05.453963 21201 net.cpp:386] relu_in4d_3x3 -> bn_in4d_3x3 (in-place)
I1024 14:29:05.453969 21201 net.cpp:141] Setting up relu_in4d_3x3
I1024 14:29:05.453974 21201 net.cpp:148] Top shape: 100 96 16 16 (2457600)
I1024 14:29:05.453977 21201 net.cpp:156] Memory required for data: 972800400
I1024 14:29:05.453980 21201 layer_factory.hpp:77] Creating layer ch_concat_in4d_chconcat
I1024 14:29:05.453987 21201 net.cpp:91] Creating Layer ch_concat_in4d_chconcat
I1024 14:29:05.453991 21201 net.cpp:425] ch_concat_in4d_chconcat <- bn_in4d_1x1
I1024 14:29:05.453995 21201 net.cpp:425] ch_concat_in4d_chconcat <- bn_in4d_3x3
I1024 14:29:05.454000 21201 net.cpp:399] ch_concat_in4d_chconcat -> ch_concat_in4d_chconcat
I1024 14:29:05.454020 21201 net.cpp:141] Setting up ch_concat_in4d_chconcat
I1024 14:29:05.454025 21201 net.cpp:148] Top shape: 100 144 16 16 (3686400)
I1024 14:29:05.454027 21201 net.cpp:156] Memory required for data: 987546000
I1024 14:29:05.454030 21201 layer_factory.hpp:77] Creating layer ch_concat_in4d_chconcat_ch_concat_in4d_chconcat_0_split
I1024 14:29:05.454036 21201 net.cpp:91] Creating Layer ch_concat_in4d_chconcat_ch_concat_in4d_chconcat_0_split
I1024 14:29:05.454041 21201 net.cpp:425] ch_concat_in4d_chconcat_ch_concat_in4d_chconcat_0_split <- ch_concat_in4d_chconcat
I1024 14:29:05.454046 21201 net.cpp:399] ch_concat_in4d_chconcat_ch_concat_in4d_chconcat_0_split -> ch_concat_in4d_chconcat_ch_concat_in4d_chconcat_0_split_0
I1024 14:29:05.454053 21201 net.cpp:399] ch_concat_in4d_chconcat_ch_concat_in4d_chconcat_0_split -> ch_concat_in4d_chconcat_ch_concat_in4d_chconcat_0_split_1
I1024 14:29:05.454080 21201 net.cpp:141] Setting up ch_concat_in4d_chconcat_ch_concat_in4d_chconcat_0_split
I1024 14:29:05.454085 21201 net.cpp:148] Top shape: 100 144 16 16 (3686400)
I1024 14:29:05.454087 21201 net.cpp:148] Top shape: 100 144 16 16 (3686400)
I1024 14:29:05.454090 21201 net.cpp:156] Memory required for data: 1017037200
I1024 14:29:05.454094 21201 layer_factory.hpp:77] Creating layer conv_in4e_3x3
I1024 14:29:05.454103 21201 net.cpp:91] Creating Layer conv_in4e_3x3
I1024 14:29:05.454107 21201 net.cpp:425] conv_in4e_3x3 <- ch_concat_in4d_chconcat_ch_concat_in4d_chconcat_0_split_0
I1024 14:29:05.454113 21201 net.cpp:399] conv_in4e_3x3 -> conv_in4e_3x3
I1024 14:29:05.455045 21201 net.cpp:141] Setting up conv_in4e_3x3
I1024 14:29:05.455054 21201 net.cpp:148] Top shape: 100 96 8 8 (614400)
I1024 14:29:05.455056 21201 net.cpp:156] Memory required for data: 1019494800
I1024 14:29:05.455061 21201 layer_factory.hpp:77] Creating layer bn_in4e_3x3
I1024 14:29:05.455070 21201 net.cpp:91] Creating Layer bn_in4e_3x3
I1024 14:29:05.455073 21201 net.cpp:425] bn_in4e_3x3 <- conv_in4e_3x3
I1024 14:29:05.455078 21201 net.cpp:399] bn_in4e_3x3 -> bn_in4e_3x3
I1024 14:29:05.455245 21201 net.cpp:141] Setting up bn_in4e_3x3
I1024 14:29:05.455250 21201 net.cpp:148] Top shape: 100 96 8 8 (614400)
I1024 14:29:05.455252 21201 net.cpp:156] Memory required for data: 1021952400
I1024 14:29:05.455268 21201 layer_factory.hpp:77] Creating layer relu_in4e_3x3
I1024 14:29:05.455274 21201 net.cpp:91] Creating Layer relu_in4e_3x3
I1024 14:29:05.455279 21201 net.cpp:425] relu_in4e_3x3 <- bn_in4e_3x3
I1024 14:29:05.455284 21201 net.cpp:386] relu_in4e_3x3 -> bn_in4e_3x3 (in-place)
I1024 14:29:05.455291 21201 net.cpp:141] Setting up relu_in4e_3x3
I1024 14:29:05.455296 21201 net.cpp:148] Top shape: 100 96 8 8 (614400)
I1024 14:29:05.455301 21201 net.cpp:156] Memory required for data: 1024410000
I1024 14:29:05.455303 21201 layer_factory.hpp:77] Creating layer max_pool_in4e_pool
I1024 14:29:05.455308 21201 net.cpp:91] Creating Layer max_pool_in4e_pool
I1024 14:29:05.455314 21201 net.cpp:425] max_pool_in4e_pool <- ch_concat_in4d_chconcat_ch_concat_in4d_chconcat_0_split_1
I1024 14:29:05.455320 21201 net.cpp:399] max_pool_in4e_pool -> max_pool_in4e_pool
I1024 14:29:05.455349 21201 net.cpp:141] Setting up max_pool_in4e_pool
I1024 14:29:05.455354 21201 net.cpp:148] Top shape: 100 144 8 8 (921600)
I1024 14:29:05.455356 21201 net.cpp:156] Memory required for data: 1028096400
I1024 14:29:05.455359 21201 layer_factory.hpp:77] Creating layer ch_concat_in4e_chconcat
I1024 14:29:05.455365 21201 net.cpp:91] Creating Layer ch_concat_in4e_chconcat
I1024 14:29:05.455368 21201 net.cpp:425] ch_concat_in4e_chconcat <- bn_in4e_3x3
I1024 14:29:05.455373 21201 net.cpp:425] ch_concat_in4e_chconcat <- max_pool_in4e_pool
I1024 14:29:05.455380 21201 net.cpp:399] ch_concat_in4e_chconcat -> ch_concat_in4e_chconcat
I1024 14:29:05.455399 21201 net.cpp:141] Setting up ch_concat_in4e_chconcat
I1024 14:29:05.455404 21201 net.cpp:148] Top shape: 100 240 8 8 (1536000)
I1024 14:29:05.455407 21201 net.cpp:156] Memory required for data: 1034240400
I1024 14:29:05.455410 21201 layer_factory.hpp:77] Creating layer ch_concat_in4e_chconcat_ch_concat_in4e_chconcat_0_split
I1024 14:29:05.455422 21201 net.cpp:91] Creating Layer ch_concat_in4e_chconcat_ch_concat_in4e_chconcat_0_split
I1024 14:29:05.455426 21201 net.cpp:425] ch_concat_in4e_chconcat_ch_concat_in4e_chconcat_0_split <- ch_concat_in4e_chconcat
I1024 14:29:05.455431 21201 net.cpp:399] ch_concat_in4e_chconcat_ch_concat_in4e_chconcat_0_split -> ch_concat_in4e_chconcat_ch_concat_in4e_chconcat_0_split_0
I1024 14:29:05.455440 21201 net.cpp:399] ch_concat_in4e_chconcat_ch_concat_in4e_chconcat_0_split -> ch_concat_in4e_chconcat_ch_concat_in4e_chconcat_0_split_1
I1024 14:29:05.455466 21201 net.cpp:141] Setting up ch_concat_in4e_chconcat_ch_concat_in4e_chconcat_0_split
I1024 14:29:05.455471 21201 net.cpp:148] Top shape: 100 240 8 8 (1536000)
I1024 14:29:05.455474 21201 net.cpp:148] Top shape: 100 240 8 8 (1536000)
I1024 14:29:05.455478 21201 net.cpp:156] Memory required for data: 1046528400
I1024 14:29:05.455482 21201 layer_factory.hpp:77] Creating layer conv_in5a_1x1
I1024 14:29:05.455488 21201 net.cpp:91] Creating Layer conv_in5a_1x1
I1024 14:29:05.455492 21201 net.cpp:425] conv_in5a_1x1 <- ch_concat_in4e_chconcat_ch_concat_in4e_chconcat_0_split_0
I1024 14:29:05.455499 21201 net.cpp:399] conv_in5a_1x1 -> conv_in5a_1x1
I1024 14:29:05.455746 21201 net.cpp:141] Setting up conv_in5a_1x1
I1024 14:29:05.455754 21201 net.cpp:148] Top shape: 100 176 8 8 (1126400)
I1024 14:29:05.455755 21201 net.cpp:156] Memory required for data: 1051034000
I1024 14:29:05.455760 21201 layer_factory.hpp:77] Creating layer bn_in5a_1x1
I1024 14:29:05.455767 21201 net.cpp:91] Creating Layer bn_in5a_1x1
I1024 14:29:05.455771 21201 net.cpp:425] bn_in5a_1x1 <- conv_in5a_1x1
I1024 14:29:05.455776 21201 net.cpp:399] bn_in5a_1x1 -> bn_in5a_1x1
I1024 14:29:05.455935 21201 net.cpp:141] Setting up bn_in5a_1x1
I1024 14:29:05.455940 21201 net.cpp:148] Top shape: 100 176 8 8 (1126400)
I1024 14:29:05.455942 21201 net.cpp:156] Memory required for data: 1055539600
I1024 14:29:05.455950 21201 layer_factory.hpp:77] Creating layer relu_in5a_1x1
I1024 14:29:05.455955 21201 net.cpp:91] Creating Layer relu_in5a_1x1
I1024 14:29:05.455960 21201 net.cpp:425] relu_in5a_1x1 <- bn_in5a_1x1
I1024 14:29:05.455965 21201 net.cpp:386] relu_in5a_1x1 -> bn_in5a_1x1 (in-place)
I1024 14:29:05.455977 21201 net.cpp:141] Setting up relu_in5a_1x1
I1024 14:29:05.455983 21201 net.cpp:148] Top shape: 100 176 8 8 (1126400)
I1024 14:29:05.455987 21201 net.cpp:156] Memory required for data: 1060045200
I1024 14:29:05.455991 21201 layer_factory.hpp:77] Creating layer conv_in5a_3x3
I1024 14:29:05.455996 21201 net.cpp:91] Creating Layer conv_in5a_3x3
I1024 14:29:05.456001 21201 net.cpp:425] conv_in5a_3x3 <- ch_concat_in4e_chconcat_ch_concat_in4e_chconcat_0_split_1
I1024 14:29:05.456007 21201 net.cpp:399] conv_in5a_3x3 -> conv_in5a_3x3
I1024 14:29:05.457278 21201 net.cpp:141] Setting up conv_in5a_3x3
I1024 14:29:05.457285 21201 net.cpp:148] Top shape: 100 160 8 8 (1024000)
I1024 14:29:05.457289 21201 net.cpp:156] Memory required for data: 1064141200
I1024 14:29:05.457293 21201 layer_factory.hpp:77] Creating layer bn_in5a_3x3
I1024 14:29:05.457301 21201 net.cpp:91] Creating Layer bn_in5a_3x3
I1024 14:29:05.457305 21201 net.cpp:425] bn_in5a_3x3 <- conv_in5a_3x3
I1024 14:29:05.457312 21201 net.cpp:399] bn_in5a_3x3 -> bn_in5a_3x3
I1024 14:29:05.457473 21201 net.cpp:141] Setting up bn_in5a_3x3
I1024 14:29:05.457478 21201 net.cpp:148] Top shape: 100 160 8 8 (1024000)
I1024 14:29:05.457479 21201 net.cpp:156] Memory required for data: 1068237200
I1024 14:29:05.457487 21201 layer_factory.hpp:77] Creating layer relu_in5a_3x3
I1024 14:29:05.457494 21201 net.cpp:91] Creating Layer relu_in5a_3x3
I1024 14:29:05.457499 21201 net.cpp:425] relu_in5a_3x3 <- bn_in5a_3x3
I1024 14:29:05.457504 21201 net.cpp:386] relu_in5a_3x3 -> bn_in5a_3x3 (in-place)
I1024 14:29:05.457509 21201 net.cpp:141] Setting up relu_in5a_3x3
I1024 14:29:05.457515 21201 net.cpp:148] Top shape: 100 160 8 8 (1024000)
I1024 14:29:05.457518 21201 net.cpp:156] Memory required for data: 1072333200
I1024 14:29:05.457521 21201 layer_factory.hpp:77] Creating layer ch_concat_in5a_chconcat
I1024 14:29:05.457528 21201 net.cpp:91] Creating Layer ch_concat_in5a_chconcat
I1024 14:29:05.457533 21201 net.cpp:425] ch_concat_in5a_chconcat <- bn_in5a_1x1
I1024 14:29:05.457536 21201 net.cpp:425] ch_concat_in5a_chconcat <- bn_in5a_3x3
I1024 14:29:05.457542 21201 net.cpp:399] ch_concat_in5a_chconcat -> ch_concat_in5a_chconcat
I1024 14:29:05.457568 21201 net.cpp:141] Setting up ch_concat_in5a_chconcat
I1024 14:29:05.457573 21201 net.cpp:148] Top shape: 100 336 8 8 (2150400)
I1024 14:29:05.457576 21201 net.cpp:156] Memory required for data: 1080934800
I1024 14:29:05.457578 21201 layer_factory.hpp:77] Creating layer ch_concat_in5a_chconcat_ch_concat_in5a_chconcat_0_split
I1024 14:29:05.457587 21201 net.cpp:91] Creating Layer ch_concat_in5a_chconcat_ch_concat_in5a_chconcat_0_split
I1024 14:29:05.457590 21201 net.cpp:425] ch_concat_in5a_chconcat_ch_concat_in5a_chconcat_0_split <- ch_concat_in5a_chconcat
I1024 14:29:05.457595 21201 net.cpp:399] ch_concat_in5a_chconcat_ch_concat_in5a_chconcat_0_split -> ch_concat_in5a_chconcat_ch_concat_in5a_chconcat_0_split_0
I1024 14:29:05.457602 21201 net.cpp:399] ch_concat_in5a_chconcat_ch_concat_in5a_chconcat_0_split -> ch_concat_in5a_chconcat_ch_concat_in5a_chconcat_0_split_1
I1024 14:29:05.457629 21201 net.cpp:141] Setting up ch_concat_in5a_chconcat_ch_concat_in5a_chconcat_0_split
I1024 14:29:05.457634 21201 net.cpp:148] Top shape: 100 336 8 8 (2150400)
I1024 14:29:05.457638 21201 net.cpp:148] Top shape: 100 336 8 8 (2150400)
I1024 14:29:05.457641 21201 net.cpp:156] Memory required for data: 1098138000
I1024 14:29:05.457646 21201 layer_factory.hpp:77] Creating layer conv_in5b_1x1
I1024 14:29:05.457653 21201 net.cpp:91] Creating Layer conv_in5b_1x1
I1024 14:29:05.457656 21201 net.cpp:425] conv_in5b_1x1 <- ch_concat_in5a_chconcat_ch_concat_in5a_chconcat_0_split_0
I1024 14:29:05.457662 21201 net.cpp:399] conv_in5b_1x1 -> conv_in5b_1x1
I1024 14:29:05.457959 21201 net.cpp:141] Setting up conv_in5b_1x1
I1024 14:29:05.457964 21201 net.cpp:148] Top shape: 100 176 8 8 (1126400)
I1024 14:29:05.457967 21201 net.cpp:156] Memory required for data: 1102643600
I1024 14:29:05.457970 21201 layer_factory.hpp:77] Creating layer bn_in5b_1x1
I1024 14:29:05.457984 21201 net.cpp:91] Creating Layer bn_in5b_1x1
I1024 14:29:05.457988 21201 net.cpp:425] bn_in5b_1x1 <- conv_in5b_1x1
I1024 14:29:05.457993 21201 net.cpp:399] bn_in5b_1x1 -> bn_in5b_1x1
I1024 14:29:05.458151 21201 net.cpp:141] Setting up bn_in5b_1x1
I1024 14:29:05.458158 21201 net.cpp:148] Top shape: 100 176 8 8 (1126400)
I1024 14:29:05.458159 21201 net.cpp:156] Memory required for data: 1107149200
I1024 14:29:05.458165 21201 layer_factory.hpp:77] Creating layer relu_in5b_1x1
I1024 14:29:05.458173 21201 net.cpp:91] Creating Layer relu_in5b_1x1
I1024 14:29:05.458178 21201 net.cpp:425] relu_in5b_1x1 <- bn_in5b_1x1
I1024 14:29:05.458181 21201 net.cpp:386] relu_in5b_1x1 -> bn_in5b_1x1 (in-place)
I1024 14:29:05.458187 21201 net.cpp:141] Setting up relu_in5b_1x1
I1024 14:29:05.458192 21201 net.cpp:148] Top shape: 100 176 8 8 (1126400)
I1024 14:29:05.458196 21201 net.cpp:156] Memory required for data: 1111654800
I1024 14:29:05.458199 21201 layer_factory.hpp:77] Creating layer conv_in5b_3x3
I1024 14:29:05.458207 21201 net.cpp:91] Creating Layer conv_in5b_3x3
I1024 14:29:05.458211 21201 net.cpp:425] conv_in5b_3x3 <- ch_concat_in5a_chconcat_ch_concat_in5a_chconcat_0_split_1
I1024 14:29:05.458218 21201 net.cpp:399] conv_in5b_3x3 -> conv_in5b_3x3
I1024 14:29:05.460285 21201 net.cpp:141] Setting up conv_in5b_3x3
I1024 14:29:05.460294 21201 net.cpp:148] Top shape: 100 160 8 8 (1024000)
I1024 14:29:05.460295 21201 net.cpp:156] Memory required for data: 1115750800
I1024 14:29:05.460301 21201 layer_factory.hpp:77] Creating layer bn_in5b_3x3
I1024 14:29:05.460309 21201 net.cpp:91] Creating Layer bn_in5b_3x3
I1024 14:29:05.460312 21201 net.cpp:425] bn_in5b_3x3 <- conv_in5b_3x3
I1024 14:29:05.460319 21201 net.cpp:399] bn_in5b_3x3 -> bn_in5b_3x3
I1024 14:29:05.460484 21201 net.cpp:141] Setting up bn_in5b_3x3
I1024 14:29:05.460490 21201 net.cpp:148] Top shape: 100 160 8 8 (1024000)
I1024 14:29:05.460492 21201 net.cpp:156] Memory required for data: 1119846800
I1024 14:29:05.460500 21201 layer_factory.hpp:77] Creating layer relu_in5b_3x3
I1024 14:29:05.460505 21201 net.cpp:91] Creating Layer relu_in5b_3x3
I1024 14:29:05.460510 21201 net.cpp:425] relu_in5b_3x3 <- bn_in5b_3x3
I1024 14:29:05.460515 21201 net.cpp:386] relu_in5b_3x3 -> bn_in5b_3x3 (in-place)
I1024 14:29:05.460521 21201 net.cpp:141] Setting up relu_in5b_3x3
I1024 14:29:05.460527 21201 net.cpp:148] Top shape: 100 160 8 8 (1024000)
I1024 14:29:05.460530 21201 net.cpp:156] Memory required for data: 1123942800
I1024 14:29:05.460535 21201 layer_factory.hpp:77] Creating layer ch_concat_in5b_chconcat
I1024 14:29:05.460538 21201 net.cpp:91] Creating Layer ch_concat_in5b_chconcat
I1024 14:29:05.460542 21201 net.cpp:425] ch_concat_in5b_chconcat <- bn_in5b_1x1
I1024 14:29:05.460546 21201 net.cpp:425] ch_concat_in5b_chconcat <- bn_in5b_3x3
I1024 14:29:05.460552 21201 net.cpp:399] ch_concat_in5b_chconcat -> ch_concat_in5b_chconcat
I1024 14:29:05.460572 21201 net.cpp:141] Setting up ch_concat_in5b_chconcat
I1024 14:29:05.460577 21201 net.cpp:148] Top shape: 100 336 8 8 (2150400)
I1024 14:29:05.460580 21201 net.cpp:156] Memory required for data: 1132544400
I1024 14:29:05.460583 21201 layer_factory.hpp:77] Creating layer global_pool
I1024 14:29:05.460588 21201 net.cpp:91] Creating Layer global_pool
I1024 14:29:05.460597 21201 net.cpp:425] global_pool <- ch_concat_in5b_chconcat
I1024 14:29:05.460602 21201 net.cpp:399] global_pool -> global_pool
I1024 14:29:05.460623 21201 net.cpp:141] Setting up global_pool
I1024 14:29:05.460628 21201 net.cpp:148] Top shape: 100 336 2 2 (134400)
I1024 14:29:05.460630 21201 net.cpp:156] Memory required for data: 1133082000
I1024 14:29:05.460633 21201 layer_factory.hpp:77] Creating layer fc1
I1024 14:29:05.460640 21201 net.cpp:91] Creating Layer fc1
I1024 14:29:05.460644 21201 net.cpp:425] fc1 <- global_pool
I1024 14:29:05.460649 21201 net.cpp:399] fc1 -> fc1
I1024 14:29:05.460759 21201 net.cpp:141] Setting up fc1
I1024 14:29:05.460764 21201 net.cpp:148] Top shape: 100 10 (1000)
I1024 14:29:05.460767 21201 net.cpp:156] Memory required for data: 1133086000
I1024 14:29:05.460779 21201 layer_factory.hpp:77] Creating layer loss
I1024 14:29:05.460786 21201 net.cpp:91] Creating Layer loss
I1024 14:29:05.460790 21201 net.cpp:425] loss <- fc1
I1024 14:29:05.460794 21201 net.cpp:425] loss <- label
I1024 14:29:05.460803 21201 net.cpp:399] loss -> loss
I1024 14:29:05.460813 21201 layer_factory.hpp:77] Creating layer loss
…
I1024 14:29:05.461684 21201 net.cpp:313] The NetState phase (1) differed from the phase (0) specified by a rule in layer cifar
I1024 14:29:05.461707 21201 net.cpp:313] The NetState phase (1) differed from the phase (0) specified by a rule in layer loss
I1024 14:29:05.461915 21201 net.cpp:49] Initializing net from parameters: 
name: "CIFAR10_quick"
state {
  phase: TEST
}
layer {
  name: "cifar"
  type: "Data"
  top: "data"
  top: "label"
  include {
    phase: TEST
  }
  transform_param {
    mean_file: "examples/cifar10/1parts/mean.binaryproto.0"
  }
  data_param {
    source: "examples/cifar10/1parts/cifar10_test_lmdb.0"
    batch_size: 32
    backend: LMDB
  }
}
layer {
  name: "conv_conv1"
  type: "Convolution"
  bottom: "data"
  top: "conv_conv1"
  convolution_param {
    num_output: 96
    bias_term: false
    pad: 1
    kernel_size: 3
    stride: 1
    weight_filler {
      type: "xavier"
    }
  }
}
layer {
  name: "bn_conv1"
  type: "BatchNorm"
  bottom: "conv_conv1"
  top: "bn_conv1"
  batch_norm_param {
    use_global_stats: false
    moving_average_fraction: 0.9
    eps: 0.0001
    scale_filler {
      type: "constant"
      value: 1
    }
    bias_filler {
      type: "constant"
      value: 0
    }
  }
}
layer {
  name: "relu_conv1"
  type: "ReLU"
  bottom: "bn_conv1"
  top: "bn_conv1"
}
layer {
  name: "conv_in3a_1x1"
  type: "Convolution"
  bottom: "bn_conv1"
  top: "conv_in3a_1x1"
  convolution_param {
    num_output: 32
    bias_term: false
    kernel_size: 1
    stride: 1
    weight_filler {
      type: "xavier"
    }
  }
}
layer {
  name: "bn_in3a_1x1"
  type: "BatchNorm"
  bottom: "conv_in3a_1x1"
  top: "bn_in3a_1x1"
  batch_norm_param {
    use_global_stats: false
    moving_average_fraction: 0.9
    eps: 0.0001
    scale_filler {
      type: "constant"
      value: 1
    }
    bias_filler {
      type: "constant"
      value: 0
    }
  }
}
layer {
  name: "relu_in3a_1x1"
  type: "ReLU"
  bottom: "bn_in3a_1x1"
  top: "bn_in3a_1x1"
}
layer {
  name: "conv_in3a_3x3"
  type: "Convolution"
  bottom: "bn_conv1"
  top: "conv_in3a_3x3"
  convolution_param {
    num_output: 32
    bias_term: false
    pad: 1
    kernel_size: 3
    stride: 1
    weight_filler {
      type: "xavier"
    }
  }
}
layer {
  name: "bn_in3a_3x3"
  type: "BatchNorm"
  bottom: "conv_in3a_3x3"
  top: "bn_in3a_3x3"
  batch_norm_param {
    use_global_stats: false
    moving_average_fraction: 0.9
    eps: 0.0001
    scale_filler {
      type: "constant"
      value: 1
    }
    bias_filler {
      type: "constant"
      value: 0
    }
  }
}
layer {
  name: "relu_in3a_3x3"
  type: "ReLU"
  bottom: "bn_in3a_3x3"
  top: "bn_in3a_3x3"
}
layer {
  name: "ch_concat_in3a_chconcat"
  type: "Concat"
  bottom: "bn_in3a_1x1"
  bottom: "bn_in3a_3x3"
  top: "ch_concat_in3a_chconcat"
}
layer {
  name: "conv_in3b_1x1"
  type: "Convolution"
  bottom: "ch_concat_in3a_chconcat"
  top: "conv_in3b_1x1"
  convolution_param {
    num_output: 32
    bias_term: false
    kernel_size: 1
    stride: 1
    weight_filler {
      type: "xavier"
    }
  }
}
layer {
  name: "bn_in3b_1x1"
  type: "BatchNorm"
  bottom: "conv_in3b_1x1"
  top: "bn_in3b_1x1"
  batch_norm_param {
    use_global_stats: false
    moving_average_fraction: 0.9
    eps: 0.0001
    scale_filler {
      type: "constant"
      value: 1
    }
    bias_filler {
      type: "constant"
      value: 0
    }
  }
}
layer {
  name: "relu_in3b_1x1"
  type: "ReLU"
  bottom: "bn_in3b_1x1"
  top: "bn_in3b_1x1"
}
layer {
  name: "conv_in3b_3x3"
  type: "Convolution"
  bottom: "ch_concat_in3a_chconcat"
  top: "conv_in3b_3x3"
  convolution_param {
    num_output: 48
    bias_term: false
    pad: 1
    kernel_size: 3
    stride: 1
    weight_filler {
      type: "xavier"
    }
  }
}
layer {
  name: "bn_in3b_3x3"
  type: "BatchNorm"
  bottom: "conv_in3b_3x3"
  top: "bn_in3b_3x3"
  batch_norm_param {
    use_global_stats: false
    moving_average_fraction: 0.9
    eps: 0.0001
    scale_filler {
      type: "constant"
      value: 1
    }
    bias_filler {
      type: "constant"
      value: 0
    }
  }
}
layer {
  name: "relu_in3b_3x3"
  type: "ReLU"
  bottom: "bn_in3b_3x3"
  top: "bn_in3b_3x3"
}
layer {
  name: "ch_concat_in3b_chconcat"
  type: "Concat"
  bottom: "bn_in3b_1x1"
  bottom: "bn_in3b_3x3"
  top: "ch_concat_in3b_chconcat"
}
layer {
  name: "conv_in3c_3x3"
  type: "Convolution"
  bottom: "ch_concat_in3b_chconcat"
  top: "conv_in3c_3x3"
  convolution_param {
    num_output: 80
    bias_term: false
    pad: 1
    kernel_size: 3
    stride: 2
    weight_filler {
      type: "xavier"
    }
  }
}
layer {
  name: "bn_in3c_3x3"
  type: "BatchNorm"
  bottom: "conv_in3c_3x3"
  top: "bn_in3c_3x3"
  batch_norm_param {
    use_global_stats: false
    moving_average_fraction: 0.9
    eps: 0.0001
    scale_filler {
      type: "constant"
      value: 1
    }
    bias_filler {
      type: "constant"
      value: 0
    }
  }
}
layer {
  name: "relu_in3c_3x3"
  type: "ReLU"
  bottom: "bn_in3c_3x3"
  top: "bn_in3c_3x3"
}
layer {
  name: "max_pool_in3c_pool"
  type: "Pooling"
  bottom: "ch_concat_in3b_chconcat"
  top: "max_pool_in3c_pool"
  pooling_param {
    pool: MAX
    kernel_size: 3
    stride: 2
  }
}
layer {
  name: "ch_concat_in3c_chconcat"
  type: "Concat"
  bottom: "bn_in3c_3x3"
  bottom: "max_pool_in3c_pool"
  top: "ch_concat_in3c_chconcat"
}
layer {
  name: "conv_in4a_1x1"
  type: "Convolution"
  bottom: "ch_concat_in3c_chconcat"
  top: "conv_in4a_1x1"
  convolution_param {
    num_output: 112
    bias_term: false
    kernel_size: 1
    stride: 1
    weight_filler {
      type: "xavier"
    }
  }
}
layer {
  name: "bn_in4a_1x1"
  type: "BatchNorm"
  bottom: "conv_in4a_1x1"
  top: "bn_in4a_1x1"
  batch_norm_param {
    use_global_stats: false
    moving_average_fraction: 0.9
    eps: 0.0001
    scale_filler {
      type: "constant"
      value: 1
    }
    bias_filler {
      type: "constant"
      value: 0
    }
  }
}
layer {
  name: "relu_in4a_1x1"
  type: "ReLU"
  bottom: "bn_in4a_1x1"
  top: "bn_in4a_1x1"
}
layer {
  name: "conv_in4a_3x3"
  type: "Convolution"
  bottom: "ch_concat_in3c_chconcat"
  top: "conv_in4a_3x3"
  convolution_param {
    num_output: 48
    bias_term: false
    pad: 1
    kernel_size: 3
    stride: 1
    weight_filler {
      type: "xavier"
    }
  }
}
layer {
  name: "bn_in4a_3x3"
  type: "BatchNorm"
  bottom: "conv_in4a_3x3"
  top: "bn_in4a_3x3"
  batch_norm_param {
    use_global_stats: false
    moving_average_fraction: 0.9
    eps: 0.0001
    scale_filler {
      type: "constant"
      value: 1
    }
    bias_filler {
      type: "constant"
      value: 0
    }
  }
}
layer {
  name: "relu_in4a_3x3"
  type: "ReLU"
  bottom: "bn_in4a_3x3"
  top: "bn_in4a_3x3"
}
layer {
  name: "ch_concat_in4a_chconcat"
  type: "Concat"
  bottom: "bn_in4a_1x1"
  bottom: "bn_in4a_3x3"
  top: "ch_concat_in4a_chconcat"
}
layer {
  name: "conv_in4b_1x1"
  type: "Convolution"
  bottom: "ch_concat_in4a_chconcat"
  top: "conv_in4b_1x1"
  convolution_param {
    num_output: 96
    bias_term: false
    kernel_size: 1
    stride: 1
    weight_filler {
      type: "xavier"
    }
  }
}
layer {
  name: "bn_in4b_1x1"
  type: "BatchNorm"
  bottom: "conv_in4b_1x1"
  top: "bn_in4b_1x1"
  batch_norm_param {
    use_global_stats: false
    moving_average_fraction: 0.9
    eps: 0.0001
    scale_filler {
      type: "constant"
      value: 1
    }
    bias_filler {
      type: "constant"
      value: 0
    }
  }
}
layer {
  name: "relu_in4b_1x1"
  type: "ReLU"
  bottom: "bn_in4b_1x1"
  top: "bn_in4b_1x1"
}
layer {
  name: "conv_in4b_3x3"
  type: "Convolution"
  bottom: "ch_concat_in4a_chconcat"
  top: "conv_in4b_3x3"
  convolution_param {
    num_output: 64
    bias_term: false
    pad: 1
    kernel_size: 3
    stride: 1
    weight_filler {
      type: "xavier"
    }
  }
}
layer {
  name: "bn_in4b_3x3"
  type: "BatchNorm"
  bottom: "conv_in4b_3x3"
  top: "bn_in4b_3x3"
  batch_norm_param {
    use_global_stats: false
    moving_average_fraction: 0.9
    eps: 0.0001
    scale_filler {
      type: "constant"
      value: 1
    }
    bias_filler {
      type: "constant"
      value: 0
    }
  }
}
layer {
  name: "relu_in4b_3x3"
  type: "ReLU"
  bottom: "bn_in4b_3x3"
  top: "bn_in4b_3x3"
}
layer {
  name: "ch_concat_in4b_chconcat"
  type: "Concat"
  bottom: "bn_in4b_1x1"
  bottom: "bn_in4b_3x3"
  top: "ch_concat_in4b_chconcat"
}
layer {
  name: "conv_in4c_1x1"
  type: "Convolution"
  bottom: "ch_concat_in4b_chconcat"
  top: "conv_in4c_1x1"
  convolution_param {
    num_output: 80
    bias_term: false
    kernel_size: 1
    stride: 1
    weight_filler {
      type: "xavier"
    }
  }
}
layer {
  name: "bn_in4c_1x1"
  type: "BatchNorm"
  bottom: "conv_in4c_1x1"
  top: "bn_in4c_1x1"
  batch_norm_param {
    use_global_stats: false
    moving_average_fraction: 0.9
    eps: 0.0001
    scale_filler {
      type: "constant"
      value: 1
    }
    bias_filler {
      type: "constant"
      value: 0
    }
  }
}
layer {
  name: "relu_in4c_1x1"
  type: "ReLU"
  bottom: "bn_in4c_1x1"
  top: "bn_in4c_1x1"
}
layer {
  name: "conv_in4c_3x3"
  type: "Convolution"
  bottom: "ch_concat_in4b_chconcat"
  top: "conv_in4c_3x3"
  convolution_param {
    num_output: 80
    bias_term: false
    pad: 1
    kernel_size: 3
    stride: 1
    weight_filler {
      type: "xavier"
    }
  }
}
layer {
  name: "bn_in4c_3x3"
  type: "BatchNorm"
  bottom: "conv_in4c_3x3"
  top: "bn_in4c_3x3"
  batch_norm_param {
    use_global_stats: false
    moving_average_fraction: 0.9
    eps: 0.0001
    scale_filler {
      type: "constant"
      value: 1
    }
    bias_filler {
      type: "constant"
      value: 0
    }
  }
}
layer {
  name: "relu_in4c_3x3"
  type: "ReLU"
  bottom: "bn_in4c_3x3"
  top: "bn_in4c_3x3"
}
layer {
  name: "ch_concat_in4c_chconcat"
  type: "Concat"
  bottom: "bn_in4c_1x1"
  bottom: "bn_in4c_3x3"
  top: "ch_concat_in4c_chconcat"
}
layer {
  name: "conv_in4d_1x1"
  type: "Convolution"
  bottom: "ch_concat_in4c_chconcat"
  top: "conv_in4d_1x1"
  convolution_param {
    num_output: 48
    bias_term: false
    kernel_size: 1
    stride: 1
    weight_filler {
      type: "xavier"
    }
  }
}
layer {
  name: "bn_in4d_1x1"
  type: "BatchNorm"
  bottom: "conv_in4d_1x1"
  top: "bn_in4d_1x1"
  batch_norm_param {
    use_global_stats: false
    moving_average_fraction: 0.9
    eps: 0.0001
    scale_filler {
      type: "constant"
      value: 1
    }
    bias_filler {
      type: "constant"
      value: 0
    }
  }
}
layer {
  name: "relu_in4d_1x1"
  type: "ReLU"
  bottom: "bn_in4d_1x1"
  top: "bn_in4d_1x1"
}
layer {
  name: "conv_in4d_3x3"
  type: "Convolution"
  bottom: "ch_concat_in4c_chconcat"
  top: "conv_in4d_3x3"
  convolution_param {
    num_output: 96
    bias_term: false
    pad: 1
    kernel_size: 3
    stride: 1
    weight_filler {
      type: "xavier"
    }
  }
}
layer {
  name: "bn_in4d_3x3"
  type: "BatchNorm"
  bottom: "conv_in4d_3x3"
  top: "bn_in4d_3x3"
  batch_norm_param {
    use_global_stats: false
    moving_average_fraction: 0.9
    eps: 0.0001
    scale_filler {
      type: "constant"
      value: 1
    }
    bias_filler {
      type: "constant"
      value: 0
    }
  }
}
layer {
  name: "relu_in4d_3x3"
  type: "ReLU"
  bottom: "bn_in4d_3x3"
  top: "bn_in4d_3x3"
}
layer {
  name: "ch_concat_in4d_chconcat"
  type: "Concat"
  bottom: "bn_in4d_1x1"
  bottom: "bn_in4d_3x3"
  top: "ch_concat_in4d_chconcat"
}
layer {
  name: "conv_in4e_3x3"
  type: "Convolution"
  bottom: "ch_concat_in4d_chconcat"
  top: "conv_in4e_3x3"
  convolution_param {
    num_output: 96
    bias_term: false
    pad: 1
    kernel_size: 3
    stride: 2
    weight_filler {
      type: "xavier"
    }
  }
}
layer {
  name: "bn_in4e_3x3"
  type: "BatchNorm"
  bottom: "conv_in4e_3x3"
  top: "bn_in4e_3x3"
  batch_norm_param {
    use_global_stats: false
    moving_average_fraction: 0.9
    eps: 0.0001
    scale_filler {
      type: "constant"
      value: 1
    }
    bias_filler {
      type: "constant"
      value: 0
    }
  }
}
layer {
  name: "relu_in4e_3x3"
  type: "ReLU"
  bottom: "bn_in4e_3x3"
  top: "bn_in4e_3x3"
}
layer {
  name: "max_pool_in4e_pool"
  type: "Pooling"
  bottom: "ch_concat_in4d_chconcat"
  top: "max_pool_in4e_pool"
  pooling_param {
    pool: MAX
    kernel_size: 3
    stride: 2
  }
}
layer {
  name: "ch_concat_in4e_chconcat"
  type: "Concat"
  bottom: "bn_in4e_3x3"
  bottom: "max_pool_in4e_pool"
  top: "ch_concat_in4e_chconcat"
}
layer {
  name: "conv_in5a_1x1"
  type: "Convolution"
  bottom: "ch_concat_in4e_chconcat"
  top: "conv_in5a_1x1"
  convolution_param {
    num_output: 176
    bias_term: false
    kernel_size: 1
    stride: 1
    weight_filler {
      type: "xavier"
    }
  }
}
layer {
  name: "bn_in5a_1x1"
  type: "BatchNorm"
  bottom: "conv_in5a_1x1"
  top: "bn_in5a_1x1"
  batch_norm_param {
    use_global_stats: false
    moving_average_fraction: 0.9
    eps: 0.0001
    scale_filler {
      type: "constant"
      value: 1
    }
    bias_filler {
      type: "constant"
      value: 0
    }
  }
}
layer {
  name: "relu_in5a_1x1"
  type: "ReLU"
  bottom: "bn_in5a_1x1"
  top: "bn_in5a_1x1"
}
layer {
  name: "conv_in5a_3x3"
  type: "Convolution"
  bottom: "ch_concat_in4e_chconcat"
  top: "conv_in5a_3x3"
  convolution_param {
    num_output: 160
    bias_term: false
    pad: 1
    kernel_size: 3
    stride: 1
    weight_filler {
      type: "xavier"
    }
  }
}
layer {
  name: "bn_in5a_3x3"
  type: "BatchNorm"
  bottom: "conv_in5a_3x3"
  top: "bn_in5a_3x3"
  batch_norm_param {
    use_global_stats: false
    moving_average_fraction: 0.9
    eps: 0.0001
    scale_filler {
      type: "constant"
      value: 1
    }
    bias_filler {
      type: "constant"
      value: 0
    }
  }
}
layer {
  name: "relu_in5a_3x3"
  type: "ReLU"
  bottom: "bn_in5a_3x3"
  top: "bn_in5a_3x3"
}
layer {
  name: "ch_concat_in5a_chconcat"
  type: "Concat"
  bottom: "bn_in5a_1x1"
  bottom: "bn_in5a_3x3"
  top: "ch_concat_in5a_chconcat"
}
layer {
  name: "conv_in5b_1x1"
  type: "Convolution"
  bottom: "ch_concat_in5a_chconcat"
  top: "conv_in5b_1x1"
  convolution_param {
    num_output: 176
    bias_term: false
    kernel_size: 1
    stride: 1
    weight_filler {
      type: "xavier"
    }
  }
}
layer {
  name: "bn_in5b_1x1"
  type: "BatchNorm"
  bottom: "conv_in5b_1x1"
  top: "bn_in5b_1x1"
  batch_norm_param {
    use_global_stats: false
    moving_average_fraction: 0.9
    eps: 0.0001
    scale_filler {
      type: "constant"
      value: 1
    }
    bias_filler {
      type: "constant"
      value: 0
    }
  }
}
layer {
  name: "relu_in5b_1x1"
  type: "ReLU"
  bottom: "bn_in5b_1x1"
  top: "bn_in5b_1x1"
}
layer {
  name: "conv_in5b_3x3"
  type: "Convolution"
  bottom: "ch_concat_in5a_chconcat"
  top: "conv_in5b_3x3"
  convolution_param {
    num_output: 160
    bias_term: false
    pad: 1
    kernel_size: 3
    stride: 1
    weight_filler {
      type: "xavier"
    }
  }
}
layer {
  name: "bn_in5b_3x3"
  type: "BatchNorm"
  bottom: "conv_in5b_3x3"
  top: "bn_in5b_3x3"
  batch_norm_param {
    use_global_stats: false
    moving_average_fraction: 0.9
    eps: 0.0001
    scale_filler {
      type: "constant"
      value: 1
    }
    bias_filler {
      type: "constant"
      value: 0
    }
  }
}
layer {
  name: "relu_in5b_3x3"
  type: "ReLU"
  bottom: "bn_in5b_3x3"
  top: "bn_in5b_3x3"
}
layer {
  name: "ch_concat_in5b_chconcat"
  type: "Concat"
  bottom: "bn_in5b_1x1"
  bottom: "bn_in5b_3x3"
  top: "ch_concat_in5b_chconcat"
}
layer {
  name: "global_pool"
  type: "Pooling"
  bottom: "ch_concat_in5b_chconcat"
  top: "global_pool"
  pooling_param {
    pool: AVE
    kernel_size: 7
    stride: 1
  }
}
layer {
  name: "fc1"
  type: "InnerProduct"
  bottom: "global_pool"
  top: "fc1"
  inner_product_param {
    num_output: 10
    weight_filler {
      type: "xavier"
    }
    bias_filler {
      type: "constant"
      value: 0
    }
  }
}
layer {
  name: "accuracy"
  type: "Accuracy"
  bottom: "fc1"
  bottom: "label"
  top: "accuracy"
  include {
    phase: TEST
  }
}
I1024 14:29:05.462134 21201 layer_factory.hpp:77] Creating layer cifar
I1024 14:29:05.462190 21201 net.cpp:91] Creating Layer cifar
I1024 14:29:05.462198 21201 net.cpp:399] cifar -> data
I1024 14:29:05.462205 21201 net.cpp:399] cifar -> label
I1024 14:29:05.462213 21201 data_transformer.cpp:25] Loading mean file from: examples/cifar10/1parts/mean.binaryproto.0
I1024 14:29:05.463088 21211 db_lmdb.cpp:38] Opened lmdb examples/cifar10/1parts/cifar10_test_lmdb.0
I1024 14:29:05.463145 21201 data_layer.cpp:41] output data size: 32,3,32,32
I1024 14:29:05.463874 21201 net.cpp:141] Setting up cifar
I1024 14:29:05.463881 21201 net.cpp:148] Top shape: 32 3 32 32 (98304)
I1024 14:29:05.463884 21201 net.cpp:148] Top shape: 32 (32)
I1024 14:29:05.463887 21201 net.cpp:156] Memory required for data: 393344
I1024 14:29:05.463889 21201 layer_factory.hpp:77] Creating layer conv_conv1
I1024 14:29:05.463896 21201 net.cpp:91] Creating Layer conv_conv1
I1024 14:29:05.463897 21201 net.cpp:425] conv_conv1 <- data
I1024 14:29:05.463902 21201 net.cpp:399] conv_conv1 -> conv_conv1
I1024 14:29:05.464093 21201 net.cpp:141] Setting up conv_conv1
I1024 14:29:05.464098 21201 net.cpp:148] Top shape: 32 96 32 32 (3145728)
I1024 14:29:05.464100 21201 net.cpp:156] Memory required for data: 12976256
I1024 14:29:05.464107 21201 layer_factory.hpp:77] Creating layer bn_conv1
I1024 14:29:05.464112 21201 net.cpp:91] Creating Layer bn_conv1
I1024 14:29:05.464113 21201 net.cpp:425] bn_conv1 <- conv_conv1
I1024 14:29:05.464116 21201 net.cpp:399] bn_conv1 -> bn_conv1
I1024 14:29:05.464285 21201 net.cpp:141] Setting up bn_conv1
I1024 14:29:05.464292 21201 net.cpp:148] Top shape: 32 96 32 32 (3145728)
I1024 14:29:05.464293 21201 net.cpp:156] Memory required for data: 25559168
I1024 14:29:05.464301 21201 layer_factory.hpp:77] Creating layer relu_conv1
I1024 14:29:05.464304 21201 net.cpp:91] Creating Layer relu_conv1
I1024 14:29:05.464306 21201 net.cpp:425] relu_conv1 <- bn_conv1
I1024 14:29:05.464310 21201 net.cpp:386] relu_conv1 -> bn_conv1 (in-place)
I1024 14:29:05.464314 21201 net.cpp:141] Setting up relu_conv1
I1024 14:29:05.464318 21201 net.cpp:148] Top shape: 32 96 32 32 (3145728)
I1024 14:29:05.464323 21201 net.cpp:156] Memory required for data: 38142080
I1024 14:29:05.464325 21201 layer_factory.hpp:77] Creating layer bn_conv1_relu_conv1_0_split
I1024 14:29:05.464330 21201 net.cpp:91] Creating Layer bn_conv1_relu_conv1_0_split
I1024 14:29:05.464334 21201 net.cpp:425] bn_conv1_relu_conv1_0_split <- bn_conv1
I1024 14:29:05.464340 21201 net.cpp:399] bn_conv1_relu_conv1_0_split -> bn_conv1_relu_conv1_0_split_0
I1024 14:29:05.464347 21201 net.cpp:399] bn_conv1_relu_conv1_0_split -> bn_conv1_relu_conv1_0_split_1
I1024 14:29:05.464375 21201 net.cpp:141] Setting up bn_conv1_relu_conv1_0_split
I1024 14:29:05.464380 21201 net.cpp:148] Top shape: 32 96 32 32 (3145728)
I1024 14:29:05.464382 21201 net.cpp:148] Top shape: 32 96 32 32 (3145728)
I1024 14:29:05.464385 21201 net.cpp:156] Memory required for data: 63307904
I1024 14:29:05.464388 21201 layer_factory.hpp:77] Creating layer conv_in3a_1x1
I1024 14:29:05.464398 21201 net.cpp:91] Creating Layer conv_in3a_1x1
I1024 14:29:05.464402 21201 net.cpp:425] conv_in3a_1x1 <- bn_conv1_relu_conv1_0_split_0
I1024 14:29:05.464407 21201 net.cpp:399] conv_in3a_1x1 -> conv_in3a_1x1
I1024 14:29:05.464525 21201 net.cpp:141] Setting up conv_in3a_1x1
I1024 14:29:05.464531 21201 net.cpp:148] Top shape: 32 32 32 32 (1048576)
I1024 14:29:05.464534 21201 net.cpp:156] Memory required for data: 67502208
I1024 14:29:05.464536 21201 layer_factory.hpp:77] Creating layer bn_in3a_1x1
I1024 14:29:05.464545 21201 net.cpp:91] Creating Layer bn_in3a_1x1
I1024 14:29:05.464550 21201 net.cpp:425] bn_in3a_1x1 <- conv_in3a_1x1
I1024 14:29:05.464555 21201 net.cpp:399] bn_in3a_1x1 -> bn_in3a_1x1
I1024 14:29:05.464818 21201 net.cpp:141] Setting up bn_in3a_1x1
I1024 14:29:05.464825 21201 net.cpp:148] Top shape: 32 32 32 32 (1048576)
I1024 14:29:05.464829 21201 net.cpp:156] Memory required for data: 71696512
I1024 14:29:05.464839 21201 layer_factory.hpp:77] Creating layer relu_in3a_1x1
I1024 14:29:05.464845 21201 net.cpp:91] Creating Layer relu_in3a_1x1
I1024 14:29:05.464848 21201 net.cpp:425] relu_in3a_1x1 <- bn_in3a_1x1
I1024 14:29:05.464855 21201 net.cpp:386] relu_in3a_1x1 -> bn_in3a_1x1 (in-place)
I1024 14:29:05.464861 21201 net.cpp:141] Setting up relu_in3a_1x1
I1024 14:29:05.464874 21201 net.cpp:148] Top shape: 32 32 32 32 (1048576)
I1024 14:29:05.464877 21201 net.cpp:156] Memory required for data: 75890816
I1024 14:29:05.464882 21201 layer_factory.hpp:77] Creating layer conv_in3a_3x3
I1024 14:29:05.464890 21201 net.cpp:91] Creating Layer conv_in3a_3x3
I1024 14:29:05.464895 21201 net.cpp:425] conv_in3a_3x3 <- bn_conv1_relu_conv1_0_split_1
I1024 14:29:05.464900 21201 net.cpp:399] conv_in3a_3x3 -> conv_in3a_3x3
I1024 14:29:05.465099 21201 net.cpp:141] Setting up conv_in3a_3x3
I1024 14:29:05.465106 21201 net.cpp:148] Top shape: 32 32 32 32 (1048576)
I1024 14:29:05.465107 21201 net.cpp:156] Memory required for data: 80085120
I1024 14:29:05.465111 21201 layer_factory.hpp:77] Creating layer bn_in3a_3x3
I1024 14:29:05.465121 21201 net.cpp:91] Creating Layer bn_in3a_3x3
I1024 14:29:05.465126 21201 net.cpp:425] bn_in3a_3x3 <- conv_in3a_3x3
I1024 14:29:05.465131 21201 net.cpp:399] bn_in3a_3x3 -> bn_in3a_3x3
I1024 14:29:05.465315 21201 net.cpp:141] Setting up bn_in3a_3x3
I1024 14:29:05.465322 21201 net.cpp:148] Top shape: 32 32 32 32 (1048576)
I1024 14:29:05.465325 21201 net.cpp:156] Memory required for data: 84279424
I1024 14:29:05.465334 21201 layer_factory.hpp:77] Creating layer relu_in3a_3x3
I1024 14:29:05.465340 21201 net.cpp:91] Creating Layer relu_in3a_3x3
I1024 14:29:05.465344 21201 net.cpp:425] relu_in3a_3x3 <- bn_in3a_3x3
I1024 14:29:05.465349 21201 net.cpp:386] relu_in3a_3x3 -> bn_in3a_3x3 (in-place)
I1024 14:29:05.465355 21201 net.cpp:141] Setting up relu_in3a_3x3
I1024 14:29:05.465360 21201 net.cpp:148] Top shape: 32 32 32 32 (1048576)
I1024 14:29:05.465366 21201 net.cpp:156] Memory required for data: 88473728
I1024 14:29:05.465369 21201 layer_factory.hpp:77] Creating layer ch_concat_in3a_chconcat
I1024 14:29:05.465373 21201 net.cpp:91] Creating Layer ch_concat_in3a_chconcat
I1024 14:29:05.465378 21201 net.cpp:425] ch_concat_in3a_chconcat <- bn_in3a_1x1
I1024 14:29:05.465382 21201 net.cpp:425] ch_concat_in3a_chconcat <- bn_in3a_3x3
I1024 14:29:05.465389 21201 net.cpp:399] ch_concat_in3a_chconcat -> ch_concat_in3a_chconcat
I1024 14:29:05.465407 21201 net.cpp:141] Setting up ch_concat_in3a_chconcat
I1024 14:29:05.465414 21201 net.cpp:148] Top shape: 32 64 32 32 (2097152)
I1024 14:29:05.465415 21201 net.cpp:156] Memory required for data: 96862336
I1024 14:29:05.465420 21201 layer_factory.hpp:77] Creating layer ch_concat_in3a_chconcat_ch_concat_in3a_chconcat_0_split
I1024 14:29:05.465426 21201 net.cpp:91] Creating Layer ch_concat_in3a_chconcat_ch_concat_in3a_chconcat_0_split
I1024 14:29:05.465430 21201 net.cpp:425] ch_concat_in3a_chconcat_ch_concat_in3a_chconcat_0_split <- ch_concat_in3a_chconcat
I1024 14:29:05.465433 21201 net.cpp:399] ch_concat_in3a_chconcat_ch_concat_in3a_chconcat_0_split -> ch_concat_in3a_chconcat_ch_concat_in3a_chconcat_0_split_0
I1024 14:29:05.465440 21201 net.cpp:399] ch_concat_in3a_chconcat_ch_concat_in3a_chconcat_0_split -> ch_concat_in3a_chconcat_ch_concat_in3a_chconcat_0_split_1
I1024 14:29:05.465461 21201 net.cpp:141] Setting up ch_concat_in3a_chconcat_ch_concat_in3a_chconcat_0_split
I1024 14:29:05.465464 21201 net.cpp:148] Top shape: 32 64 32 32 (2097152)
I1024 14:29:05.465467 21201 net.cpp:148] Top shape: 32 64 32 32 (2097152)
I1024 14:29:05.465469 21201 net.cpp:156] Memory required for data: 113639552
I1024 14:29:05.465471 21201 layer_factory.hpp:77] Creating layer conv_in3b_1x1
I1024 14:29:05.465476 21201 net.cpp:91] Creating Layer conv_in3b_1x1
I1024 14:29:05.465478 21201 net.cpp:425] conv_in3b_1x1 <- ch_concat_in3a_chconcat_ch_concat_in3a_chconcat_0_split_0
I1024 14:29:05.465482 21201 net.cpp:399] conv_in3b_1x1 -> conv_in3b_1x1
I1024 14:29:05.465636 21201 net.cpp:141] Setting up conv_in3b_1x1
I1024 14:29:05.465641 21201 net.cpp:148] Top shape: 32 32 32 32 (1048576)
I1024 14:29:05.465644 21201 net.cpp:156] Memory required for data: 117833856
I1024 14:29:05.465647 21201 layer_factory.hpp:77] Creating layer bn_in3b_1x1
I1024 14:29:05.465652 21201 net.cpp:91] Creating Layer bn_in3b_1x1
I1024 14:29:05.465656 21201 net.cpp:425] bn_in3b_1x1 <- conv_in3b_1x1
I1024 14:29:05.465664 21201 net.cpp:399] bn_in3b_1x1 -> bn_in3b_1x1
I1024 14:29:05.465831 21201 net.cpp:141] Setting up bn_in3b_1x1
I1024 14:29:05.465836 21201 net.cpp:148] Top shape: 32 32 32 32 (1048576)
I1024 14:29:05.465837 21201 net.cpp:156] Memory required for data: 122028160
I1024 14:29:05.465842 21201 layer_factory.hpp:77] Creating layer relu_in3b_1x1
I1024 14:29:05.465847 21201 net.cpp:91] Creating Layer relu_in3b_1x1
I1024 14:29:05.465848 21201 net.cpp:425] relu_in3b_1x1 <- bn_in3b_1x1
I1024 14:29:05.465850 21201 net.cpp:386] relu_in3b_1x1 -> bn_in3b_1x1 (in-place)
I1024 14:29:05.465854 21201 net.cpp:141] Setting up relu_in3b_1x1
I1024 14:29:05.465857 21201 net.cpp:148] Top shape: 32 32 32 32 (1048576)
I1024 14:29:05.465859 21201 net.cpp:156] Memory required for data: 126222464
I1024 14:29:05.465862 21201 layer_factory.hpp:77] Creating layer conv_in3b_3x3
I1024 14:29:05.465869 21201 net.cpp:91] Creating Layer conv_in3b_3x3
I1024 14:29:05.465873 21201 net.cpp:425] conv_in3b_3x3 <- ch_concat_in3a_chconcat_ch_concat_in3a_chconcat_0_split_1
I1024 14:29:05.465875 21201 net.cpp:399] conv_in3b_3x3 -> conv_in3b_3x3
I1024 14:29:05.466064 21201 net.cpp:141] Setting up conv_in3b_3x3
I1024 14:29:05.466069 21201 net.cpp:148] Top shape: 32 48 32 32 (1572864)
I1024 14:29:05.466071 21201 net.cpp:156] Memory required for data: 132513920
I1024 14:29:05.466073 21201 layer_factory.hpp:77] Creating layer bn_in3b_3x3
I1024 14:29:05.466076 21201 net.cpp:91] Creating Layer bn_in3b_3x3
I1024 14:29:05.466079 21201 net.cpp:425] bn_in3b_3x3 <- conv_in3b_3x3
I1024 14:29:05.466084 21201 net.cpp:399] bn_in3b_3x3 -> bn_in3b_3x3
I1024 14:29:05.466241 21201 net.cpp:141] Setting up bn_in3b_3x3
I1024 14:29:05.466246 21201 net.cpp:148] Top shape: 32 48 32 32 (1572864)
I1024 14:29:05.466249 21201 net.cpp:156] Memory required for data: 138805376
I1024 14:29:05.466253 21201 layer_factory.hpp:77] Creating layer relu_in3b_3x3
I1024 14:29:05.466258 21201 net.cpp:91] Creating Layer relu_in3b_3x3
I1024 14:29:05.466259 21201 net.cpp:425] relu_in3b_3x3 <- bn_in3b_3x3
I1024 14:29:05.466262 21201 net.cpp:386] relu_in3b_3x3 -> bn_in3b_3x3 (in-place)
I1024 14:29:05.466265 21201 net.cpp:141] Setting up relu_in3b_3x3
I1024 14:29:05.466267 21201 net.cpp:148] Top shape: 32 48 32 32 (1572864)
I1024 14:29:05.466269 21201 net.cpp:156] Memory required for data: 145096832
I1024 14:29:05.466271 21201 layer_factory.hpp:77] Creating layer ch_concat_in3b_chconcat
I1024 14:29:05.466275 21201 net.cpp:91] Creating Layer ch_concat_in3b_chconcat
I1024 14:29:05.466277 21201 net.cpp:425] ch_concat_in3b_chconcat <- bn_in3b_1x1
I1024 14:29:05.466279 21201 net.cpp:425] ch_concat_in3b_chconcat <- bn_in3b_3x3
I1024 14:29:05.466284 21201 net.cpp:399] ch_concat_in3b_chconcat -> ch_concat_in3b_chconcat
I1024 14:29:05.466295 21201 net.cpp:141] Setting up ch_concat_in3b_chconcat
I1024 14:29:05.466300 21201 net.cpp:148] Top shape: 32 80 32 32 (2621440)
I1024 14:29:05.466301 21201 net.cpp:156] Memory required for data: 155582592
I1024 14:29:05.466303 21201 layer_factory.hpp:77] Creating layer ch_concat_in3b_chconcat_ch_concat_in3b_chconcat_0_split
I1024 14:29:05.466306 21201 net.cpp:91] Creating Layer ch_concat_in3b_chconcat_ch_concat_in3b_chconcat_0_split
I1024 14:29:05.466308 21201 net.cpp:425] ch_concat_in3b_chconcat_ch_concat_in3b_chconcat_0_split <- ch_concat_in3b_chconcat
I1024 14:29:05.466311 21201 net.cpp:399] ch_concat_in3b_chconcat_ch_concat_in3b_chconcat_0_split -> ch_concat_in3b_chconcat_ch_concat_in3b_chconcat_0_split_0
I1024 14:29:05.466315 21201 net.cpp:399] ch_concat_in3b_chconcat_ch_concat_in3b_chconcat_0_split -> ch_concat_in3b_chconcat_ch_concat_in3b_chconcat_0_split_1
I1024 14:29:05.466333 21201 net.cpp:141] Setting up ch_concat_in3b_chconcat_ch_concat_in3b_chconcat_0_split
I1024 14:29:05.466337 21201 net.cpp:148] Top shape: 32 80 32 32 (2621440)
I1024 14:29:05.466341 21201 net.cpp:148] Top shape: 32 80 32 32 (2621440)
I1024 14:29:05.466342 21201 net.cpp:156] Memory required for data: 176554112
I1024 14:29:05.466344 21201 layer_factory.hpp:77] Creating layer conv_in3c_3x3
I1024 14:29:05.466354 21201 net.cpp:91] Creating Layer conv_in3c_3x3
I1024 14:29:05.466357 21201 net.cpp:425] conv_in3c_3x3 <- ch_concat_in3b_chconcat_ch_concat_in3b_chconcat_0_split_0
I1024 14:29:05.466361 21201 net.cpp:399] conv_in3c_3x3 -> conv_in3c_3x3
I1024 14:29:05.466646 21201 net.cpp:141] Setting up conv_in3c_3x3
I1024 14:29:05.466651 21201 net.cpp:148] Top shape: 32 80 16 16 (655360)
I1024 14:29:05.466653 21201 net.cpp:156] Memory required for data: 179175552
I1024 14:29:05.466656 21201 layer_factory.hpp:77] Creating layer bn_in3c_3x3
I1024 14:29:05.466660 21201 net.cpp:91] Creating Layer bn_in3c_3x3
I1024 14:29:05.466663 21201 net.cpp:425] bn_in3c_3x3 <- conv_in3c_3x3
I1024 14:29:05.466666 21201 net.cpp:399] bn_in3c_3x3 -> bn_in3c_3x3
I1024 14:29:05.466823 21201 net.cpp:141] Setting up bn_in3c_3x3
I1024 14:29:05.466827 21201 net.cpp:148] Top shape: 32 80 16 16 (655360)
I1024 14:29:05.466830 21201 net.cpp:156] Memory required for data: 181796992
I1024 14:29:05.466837 21201 layer_factory.hpp:77] Creating layer relu_in3c_3x3
I1024 14:29:05.466841 21201 net.cpp:91] Creating Layer relu_in3c_3x3
I1024 14:29:05.466843 21201 net.cpp:425] relu_in3c_3x3 <- bn_in3c_3x3
I1024 14:29:05.466846 21201 net.cpp:386] relu_in3c_3x3 -> bn_in3c_3x3 (in-place)
I1024 14:29:05.466850 21201 net.cpp:141] Setting up relu_in3c_3x3
I1024 14:29:05.466853 21201 net.cpp:148] Top shape: 32 80 16 16 (655360)
I1024 14:29:05.466856 21201 net.cpp:156] Memory required for data: 184418432
I1024 14:29:05.466857 21201 layer_factory.hpp:77] Creating layer max_pool_in3c_pool
I1024 14:29:05.466859 21201 net.cpp:91] Creating Layer max_pool_in3c_pool
I1024 14:29:05.466862 21201 net.cpp:425] max_pool_in3c_pool <- ch_concat_in3b_chconcat_ch_concat_in3b_chconcat_0_split_1
I1024 14:29:05.466866 21201 net.cpp:399] max_pool_in3c_pool -> max_pool_in3c_pool
I1024 14:29:05.466886 21201 net.cpp:141] Setting up max_pool_in3c_pool
I1024 14:29:05.466889 21201 net.cpp:148] Top shape: 32 80 16 16 (655360)
I1024 14:29:05.466892 21201 net.cpp:156] Memory required for data: 187039872
I1024 14:29:05.466893 21201 layer_factory.hpp:77] Creating layer ch_concat_in3c_chconcat
I1024 14:29:05.466897 21201 net.cpp:91] Creating Layer ch_concat_in3c_chconcat
I1024 14:29:05.466898 21201 net.cpp:425] ch_concat_in3c_chconcat <- bn_in3c_3x3
I1024 14:29:05.466902 21201 net.cpp:425] ch_concat_in3c_chconcat <- max_pool_in3c_pool
I1024 14:29:05.466904 21201 net.cpp:399] ch_concat_in3c_chconcat -> ch_concat_in3c_chconcat
I1024 14:29:05.466917 21201 net.cpp:141] Setting up ch_concat_in3c_chconcat
I1024 14:29:05.466922 21201 net.cpp:148] Top shape: 32 160 16 16 (1310720)
I1024 14:29:05.466923 21201 net.cpp:156] Memory required for data: 192282752
I1024 14:29:05.466925 21201 layer_factory.hpp:77] Creating layer ch_concat_in3c_chconcat_ch_concat_in3c_chconcat_0_split
I1024 14:29:05.466928 21201 net.cpp:91] Creating Layer ch_concat_in3c_chconcat_ch_concat_in3c_chconcat_0_split
I1024 14:29:05.466930 21201 net.cpp:425] ch_concat_in3c_chconcat_ch_concat_in3c_chconcat_0_split <- ch_concat_in3c_chconcat
I1024 14:29:05.466934 21201 net.cpp:399] ch_concat_in3c_chconcat_ch_concat_in3c_chconcat_0_split -> ch_concat_in3c_chconcat_ch_concat_in3c_chconcat_0_split_0
I1024 14:29:05.466938 21201 net.cpp:399] ch_concat_in3c_chconcat_ch_concat_in3c_chconcat_0_split -> ch_concat_in3c_chconcat_ch_concat_in3c_chconcat_0_split_1
I1024 14:29:05.466958 21201 net.cpp:141] Setting up ch_concat_in3c_chconcat_ch_concat_in3c_chconcat_0_split
I1024 14:29:05.466962 21201 net.cpp:148] Top shape: 32 160 16 16 (1310720)
I1024 14:29:05.466964 21201 net.cpp:148] Top shape: 32 160 16 16 (1310720)
I1024 14:29:05.466966 21201 net.cpp:156] Memory required for data: 202768512
I1024 14:29:05.466969 21201 layer_factory.hpp:77] Creating layer conv_in4a_1x1
I1024 14:29:05.466974 21201 net.cpp:91] Creating Layer conv_in4a_1x1
I1024 14:29:05.466976 21201 net.cpp:425] conv_in4a_1x1 <- ch_concat_in3c_chconcat_ch_concat_in3c_chconcat_0_split_0
I1024 14:29:05.466980 21201 net.cpp:399] conv_in4a_1x1 -> conv_in4a_1x1
I1024 14:29:05.467139 21201 net.cpp:141] Setting up conv_in4a_1x1
I1024 14:29:05.467144 21201 net.cpp:148] Top shape: 32 112 16 16 (917504)
I1024 14:29:05.467146 21201 net.cpp:156] Memory required for data: 206438528
I1024 14:29:05.467149 21201 layer_factory.hpp:77] Creating layer bn_in4a_1x1
I1024 14:29:05.467154 21201 net.cpp:91] Creating Layer bn_in4a_1x1
I1024 14:29:05.467156 21201 net.cpp:425] bn_in4a_1x1 <- conv_in4a_1x1
I1024 14:29:05.467159 21201 net.cpp:399] bn_in4a_1x1 -> bn_in4a_1x1
I1024 14:29:05.467316 21201 net.cpp:141] Setting up bn_in4a_1x1
I1024 14:29:05.467320 21201 net.cpp:148] Top shape: 32 112 16 16 (917504)
I1024 14:29:05.467322 21201 net.cpp:156] Memory required for data: 210108544
I1024 14:29:05.467327 21201 layer_factory.hpp:77] Creating layer relu_in4a_1x1
I1024 14:29:05.467331 21201 net.cpp:91] Creating Layer relu_in4a_1x1
I1024 14:29:05.467334 21201 net.cpp:425] relu_in4a_1x1 <- bn_in4a_1x1
I1024 14:29:05.467335 21201 net.cpp:386] relu_in4a_1x1 -> bn_in4a_1x1 (in-place)
I1024 14:29:05.467339 21201 net.cpp:141] Setting up relu_in4a_1x1
I1024 14:29:05.467341 21201 net.cpp:148] Top shape: 32 112 16 16 (917504)
I1024 14:29:05.467344 21201 net.cpp:156] Memory required for data: 213778560
I1024 14:29:05.467346 21201 layer_factory.hpp:77] Creating layer conv_in4a_3x3
I1024 14:29:05.467352 21201 net.cpp:91] Creating Layer conv_in4a_3x3
I1024 14:29:05.467355 21201 net.cpp:425] conv_in4a_3x3 <- ch_concat_in3c_chconcat_ch_concat_in3c_chconcat_0_split_1
I1024 14:29:05.467358 21201 net.cpp:399] conv_in4a_3x3 -> conv_in4a_3x3
I1024 14:29:05.467682 21201 net.cpp:141] Setting up conv_in4a_3x3
I1024 14:29:05.467687 21201 net.cpp:148] Top shape: 32 48 16 16 (393216)
I1024 14:29:05.467689 21201 net.cpp:156] Memory required for data: 215351424
I1024 14:29:05.467692 21201 layer_factory.hpp:77] Creating layer bn_in4a_3x3
I1024 14:29:05.467695 21201 net.cpp:91] Creating Layer bn_in4a_3x3
I1024 14:29:05.467697 21201 net.cpp:425] bn_in4a_3x3 <- conv_in4a_3x3
I1024 14:29:05.467701 21201 net.cpp:399] bn_in4a_3x3 -> bn_in4a_3x3
I1024 14:29:05.467857 21201 net.cpp:141] Setting up bn_in4a_3x3
I1024 14:29:05.467862 21201 net.cpp:148] Top shape: 32 48 16 16 (393216)
I1024 14:29:05.467864 21201 net.cpp:156] Memory required for data: 216924288
I1024 14:29:05.467869 21201 layer_factory.hpp:77] Creating layer relu_in4a_3x3
I1024 14:29:05.467875 21201 net.cpp:91] Creating Layer relu_in4a_3x3
I1024 14:29:05.467878 21201 net.cpp:425] relu_in4a_3x3 <- bn_in4a_3x3
I1024 14:29:05.467880 21201 net.cpp:386] relu_in4a_3x3 -> bn_in4a_3x3 (in-place)
I1024 14:29:05.467885 21201 net.cpp:141] Setting up relu_in4a_3x3
I1024 14:29:05.467886 21201 net.cpp:148] Top shape: 32 48 16 16 (393216)
I1024 14:29:05.467888 21201 net.cpp:156] Memory required for data: 218497152
I1024 14:29:05.467890 21201 layer_factory.hpp:77] Creating layer ch_concat_in4a_chconcat
I1024 14:29:05.467893 21201 net.cpp:91] Creating Layer ch_concat_in4a_chconcat
I1024 14:29:05.467895 21201 net.cpp:425] ch_concat_in4a_chconcat <- bn_in4a_1x1
I1024 14:29:05.467897 21201 net.cpp:425] ch_concat_in4a_chconcat <- bn_in4a_3x3
I1024 14:29:05.467900 21201 net.cpp:399] ch_concat_in4a_chconcat -> ch_concat_in4a_chconcat
I1024 14:29:05.467914 21201 net.cpp:141] Setting up ch_concat_in4a_chconcat
I1024 14:29:05.467918 21201 net.cpp:148] Top shape: 32 160 16 16 (1310720)
I1024 14:29:05.467921 21201 net.cpp:156] Memory required for data: 223740032
I1024 14:29:05.467922 21201 layer_factory.hpp:77] Creating layer ch_concat_in4a_chconcat_ch_concat_in4a_chconcat_0_split
I1024 14:29:05.467926 21201 net.cpp:91] Creating Layer ch_concat_in4a_chconcat_ch_concat_in4a_chconcat_0_split
I1024 14:29:05.467927 21201 net.cpp:425] ch_concat_in4a_chconcat_ch_concat_in4a_chconcat_0_split <- ch_concat_in4a_chconcat
I1024 14:29:05.467931 21201 net.cpp:399] ch_concat_in4a_chconcat_ch_concat_in4a_chconcat_0_split -> ch_concat_in4a_chconcat_ch_concat_in4a_chconcat_0_split_0
I1024 14:29:05.467936 21201 net.cpp:399] ch_concat_in4a_chconcat_ch_concat_in4a_chconcat_0_split -> ch_concat_in4a_chconcat_ch_concat_in4a_chconcat_0_split_1
I1024 14:29:05.467964 21201 net.cpp:141] Setting up ch_concat_in4a_chconcat_ch_concat_in4a_chconcat_0_split
I1024 14:29:05.467969 21201 net.cpp:148] Top shape: 32 160 16 16 (1310720)
I1024 14:29:05.467972 21201 net.cpp:148] Top shape: 32 160 16 16 (1310720)
I1024 14:29:05.467973 21201 net.cpp:156] Memory required for data: 234225792
I1024 14:29:05.467975 21201 layer_factory.hpp:77] Creating layer conv_in4b_1x1
I1024 14:29:05.467980 21201 net.cpp:91] Creating Layer conv_in4b_1x1
I1024 14:29:05.467983 21201 net.cpp:425] conv_in4b_1x1 <- ch_concat_in4a_chconcat_ch_concat_in4a_chconcat_0_split_0
I1024 14:29:05.467986 21201 net.cpp:399] conv_in4b_1x1 -> conv_in4b_1x1
I1024 14:29:05.468134 21201 net.cpp:141] Setting up conv_in4b_1x1
I1024 14:29:05.468139 21201 net.cpp:148] Top shape: 32 96 16 16 (786432)
I1024 14:29:05.468142 21201 net.cpp:156] Memory required for data: 237371520
I1024 14:29:05.468144 21201 layer_factory.hpp:77] Creating layer bn_in4b_1x1
I1024 14:29:05.468147 21201 net.cpp:91] Creating Layer bn_in4b_1x1
I1024 14:29:05.468150 21201 net.cpp:425] bn_in4b_1x1 <- conv_in4b_1x1
I1024 14:29:05.468153 21201 net.cpp:399] bn_in4b_1x1 -> bn_in4b_1x1
I1024 14:29:05.468312 21201 net.cpp:141] Setting up bn_in4b_1x1
I1024 14:29:05.468317 21201 net.cpp:148] Top shape: 32 96 16 16 (786432)
I1024 14:29:05.468318 21201 net.cpp:156] Memory required for data: 240517248
I1024 14:29:05.468322 21201 layer_factory.hpp:77] Creating layer relu_in4b_1x1
I1024 14:29:05.468327 21201 net.cpp:91] Creating Layer relu_in4b_1x1
I1024 14:29:05.468329 21201 net.cpp:425] relu_in4b_1x1 <- bn_in4b_1x1
I1024 14:29:05.468333 21201 net.cpp:386] relu_in4b_1x1 -> bn_in4b_1x1 (in-place)
I1024 14:29:05.468335 21201 net.cpp:141] Setting up relu_in4b_1x1
I1024 14:29:05.468338 21201 net.cpp:148] Top shape: 32 96 16 16 (786432)
I1024 14:29:05.468341 21201 net.cpp:156] Memory required for data: 243662976
I1024 14:29:05.468343 21201 layer_factory.hpp:77] Creating layer conv_in4b_3x3
I1024 14:29:05.468348 21201 net.cpp:91] Creating Layer conv_in4b_3x3
I1024 14:29:05.468350 21201 net.cpp:425] conv_in4b_3x3 <- ch_concat_in4a_chconcat_ch_concat_in4a_chconcat_0_split_1
I1024 14:29:05.468354 21201 net.cpp:399] conv_in4b_3x3 -> conv_in4b_3x3
I1024 14:29:05.468798 21201 net.cpp:141] Setting up conv_in4b_3x3
I1024 14:29:05.468806 21201 net.cpp:148] Top shape: 32 64 16 16 (524288)
I1024 14:29:05.468809 21201 net.cpp:156] Memory required for data: 245760128
I1024 14:29:05.468816 21201 layer_factory.hpp:77] Creating layer bn_in4b_3x3
I1024 14:29:05.468824 21201 net.cpp:91] Creating Layer bn_in4b_3x3
I1024 14:29:05.468828 21201 net.cpp:425] bn_in4b_3x3 <- conv_in4b_3x3
I1024 14:29:05.468834 21201 net.cpp:399] bn_in4b_3x3 -> bn_in4b_3x3
I1024 14:29:05.468994 21201 net.cpp:141] Setting up bn_in4b_3x3
I1024 14:29:05.468998 21201 net.cpp:148] Top shape: 32 64 16 16 (524288)
I1024 14:29:05.469000 21201 net.cpp:156] Memory required for data: 247857280
I1024 14:29:05.469005 21201 layer_factory.hpp:77] Creating layer relu_in4b_3x3
I1024 14:29:05.469009 21201 net.cpp:91] Creating Layer relu_in4b_3x3
I1024 14:29:05.469012 21201 net.cpp:425] relu_in4b_3x3 <- bn_in4b_3x3
I1024 14:29:05.469014 21201 net.cpp:386] relu_in4b_3x3 -> bn_in4b_3x3 (in-place)
I1024 14:29:05.469017 21201 net.cpp:141] Setting up relu_in4b_3x3
I1024 14:29:05.469020 21201 net.cpp:148] Top shape: 32 64 16 16 (524288)
I1024 14:29:05.469022 21201 net.cpp:156] Memory required for data: 249954432
I1024 14:29:05.469024 21201 layer_factory.hpp:77] Creating layer ch_concat_in4b_chconcat
I1024 14:29:05.469027 21201 net.cpp:91] Creating Layer ch_concat_in4b_chconcat
I1024 14:29:05.469030 21201 net.cpp:425] ch_concat_in4b_chconcat <- bn_in4b_1x1
I1024 14:29:05.469033 21201 net.cpp:425] ch_concat_in4b_chconcat <- bn_in4b_3x3
I1024 14:29:05.469035 21201 net.cpp:399] ch_concat_in4b_chconcat -> ch_concat_in4b_chconcat
I1024 14:29:05.469049 21201 net.cpp:141] Setting up ch_concat_in4b_chconcat
I1024 14:29:05.469053 21201 net.cpp:148] Top shape: 32 160 16 16 (1310720)
I1024 14:29:05.469055 21201 net.cpp:156] Memory required for data: 255197312
I1024 14:29:05.469066 21201 layer_factory.hpp:77] Creating layer ch_concat_in4b_chconcat_ch_concat_in4b_chconcat_0_split
I1024 14:29:05.469072 21201 net.cpp:91] Creating Layer ch_concat_in4b_chconcat_ch_concat_in4b_chconcat_0_split
I1024 14:29:05.469075 21201 net.cpp:425] ch_concat_in4b_chconcat_ch_concat_in4b_chconcat_0_split <- ch_concat_in4b_chconcat
I1024 14:29:05.469079 21201 net.cpp:399] ch_concat_in4b_chconcat_ch_concat_in4b_chconcat_0_split -> ch_concat_in4b_chconcat_ch_concat_in4b_chconcat_0_split_0
I1024 14:29:05.469084 21201 net.cpp:399] ch_concat_in4b_chconcat_ch_concat_in4b_chconcat_0_split -> ch_concat_in4b_chconcat_ch_concat_in4b_chconcat_0_split_1
I1024 14:29:05.469105 21201 net.cpp:141] Setting up ch_concat_in4b_chconcat_ch_concat_in4b_chconcat_0_split
I1024 14:29:05.469108 21201 net.cpp:148] Top shape: 32 160 16 16 (1310720)
I1024 14:29:05.469111 21201 net.cpp:148] Top shape: 32 160 16 16 (1310720)
I1024 14:29:05.469112 21201 net.cpp:156] Memory required for data: 265683072
I1024 14:29:05.469115 21201 layer_factory.hpp:77] Creating layer conv_in4c_1x1
I1024 14:29:05.469120 21201 net.cpp:91] Creating Layer conv_in4c_1x1
I1024 14:29:05.469121 21201 net.cpp:425] conv_in4c_1x1 <- ch_concat_in4b_chconcat_ch_concat_in4b_chconcat_0_split_0
I1024 14:29:05.469125 21201 net.cpp:399] conv_in4c_1x1 -> conv_in4c_1x1
I1024 14:29:05.469267 21201 net.cpp:141] Setting up conv_in4c_1x1
I1024 14:29:05.469271 21201 net.cpp:148] Top shape: 32 80 16 16 (655360)
I1024 14:29:05.469274 21201 net.cpp:156] Memory required for data: 268304512
I1024 14:29:05.469275 21201 layer_factory.hpp:77] Creating layer bn_in4c_1x1
I1024 14:29:05.469280 21201 net.cpp:91] Creating Layer bn_in4c_1x1
I1024 14:29:05.469282 21201 net.cpp:425] bn_in4c_1x1 <- conv_in4c_1x1
I1024 14:29:05.469285 21201 net.cpp:399] bn_in4c_1x1 -> bn_in4c_1x1
I1024 14:29:05.469449 21201 net.cpp:141] Setting up bn_in4c_1x1
I1024 14:29:05.469452 21201 net.cpp:148] Top shape: 32 80 16 16 (655360)
I1024 14:29:05.469455 21201 net.cpp:156] Memory required for data: 270925952
I1024 14:29:05.469463 21201 layer_factory.hpp:77] Creating layer relu_in4c_1x1
I1024 14:29:05.469466 21201 net.cpp:91] Creating Layer relu_in4c_1x1
I1024 14:29:05.469468 21201 net.cpp:425] relu_in4c_1x1 <- bn_in4c_1x1
I1024 14:29:05.469471 21201 net.cpp:386] relu_in4c_1x1 -> bn_in4c_1x1 (in-place)
I1024 14:29:05.469475 21201 net.cpp:141] Setting up relu_in4c_1x1
I1024 14:29:05.469477 21201 net.cpp:148] Top shape: 32 80 16 16 (655360)
I1024 14:29:05.469480 21201 net.cpp:156] Memory required for data: 273547392
I1024 14:29:05.469481 21201 layer_factory.hpp:77] Creating layer conv_in4c_3x3
I1024 14:29:05.469485 21201 net.cpp:91] Creating Layer conv_in4c_3x3
I1024 14:29:05.469487 21201 net.cpp:425] conv_in4c_3x3 <- ch_concat_in4b_chconcat_ch_concat_in4b_chconcat_0_split_1
I1024 14:29:05.469491 21201 net.cpp:399] conv_in4c_3x3 -> conv_in4c_3x3
I1024 14:29:05.469960 21201 net.cpp:141] Setting up conv_in4c_3x3
I1024 14:29:05.469965 21201 net.cpp:148] Top shape: 32 80 16 16 (655360)
I1024 14:29:05.469966 21201 net.cpp:156] Memory required for data: 276168832
I1024 14:29:05.469969 21201 layer_factory.hpp:77] Creating layer bn_in4c_3x3
I1024 14:29:05.469974 21201 net.cpp:91] Creating Layer bn_in4c_3x3
I1024 14:29:05.469975 21201 net.cpp:425] bn_in4c_3x3 <- conv_in4c_3x3
I1024 14:29:05.469979 21201 net.cpp:399] bn_in4c_3x3 -> bn_in4c_3x3
I1024 14:29:05.470134 21201 net.cpp:141] Setting up bn_in4c_3x3
I1024 14:29:05.470139 21201 net.cpp:148] Top shape: 32 80 16 16 (655360)
I1024 14:29:05.470141 21201 net.cpp:156] Memory required for data: 278790272
I1024 14:29:05.470145 21201 layer_factory.hpp:77] Creating layer relu_in4c_3x3
I1024 14:29:05.470149 21201 net.cpp:91] Creating Layer relu_in4c_3x3
I1024 14:29:05.470150 21201 net.cpp:425] relu_in4c_3x3 <- bn_in4c_3x3
I1024 14:29:05.470154 21201 net.cpp:386] relu_in4c_3x3 -> bn_in4c_3x3 (in-place)
I1024 14:29:05.470156 21201 net.cpp:141] Setting up relu_in4c_3x3
I1024 14:29:05.470158 21201 net.cpp:148] Top shape: 32 80 16 16 (655360)
I1024 14:29:05.470165 21201 net.cpp:156] Memory required for data: 281411712
I1024 14:29:05.470167 21201 layer_factory.hpp:77] Creating layer ch_concat_in4c_chconcat
I1024 14:29:05.470170 21201 net.cpp:91] Creating Layer ch_concat_in4c_chconcat
I1024 14:29:05.470172 21201 net.cpp:425] ch_concat_in4c_chconcat <- bn_in4c_1x1
I1024 14:29:05.470175 21201 net.cpp:425] ch_concat_in4c_chconcat <- bn_in4c_3x3
I1024 14:29:05.470178 21201 net.cpp:399] ch_concat_in4c_chconcat -> ch_concat_in4c_chconcat
I1024 14:29:05.470191 21201 net.cpp:141] Setting up ch_concat_in4c_chconcat
I1024 14:29:05.470196 21201 net.cpp:148] Top shape: 32 160 16 16 (1310720)
I1024 14:29:05.470197 21201 net.cpp:156] Memory required for data: 286654592
I1024 14:29:05.470199 21201 layer_factory.hpp:77] Creating layer ch_concat_in4c_chconcat_ch_concat_in4c_chconcat_0_split
I1024 14:29:05.470202 21201 net.cpp:91] Creating Layer ch_concat_in4c_chconcat_ch_concat_in4c_chconcat_0_split
I1024 14:29:05.470204 21201 net.cpp:425] ch_concat_in4c_chconcat_ch_concat_in4c_chconcat_0_split <- ch_concat_in4c_chconcat
I1024 14:29:05.470208 21201 net.cpp:399] ch_concat_in4c_chconcat_ch_concat_in4c_chconcat_0_split -> ch_concat_in4c_chconcat_ch_concat_in4c_chconcat_0_split_0
I1024 14:29:05.470212 21201 net.cpp:399] ch_concat_in4c_chconcat_ch_concat_in4c_chconcat_0_split -> ch_concat_in4c_chconcat_ch_concat_in4c_chconcat_0_split_1
I1024 14:29:05.470230 21201 net.cpp:141] Setting up ch_concat_in4c_chconcat_ch_concat_in4c_chconcat_0_split
I1024 14:29:05.470234 21201 net.cpp:148] Top shape: 32 160 16 16 (1310720)
I1024 14:29:05.470237 21201 net.cpp:148] Top shape: 32 160 16 16 (1310720)
I1024 14:29:05.470238 21201 net.cpp:156] Memory required for data: 297140352
I1024 14:29:05.470240 21201 layer_factory.hpp:77] Creating layer conv_in4d_1x1
I1024 14:29:05.470244 21201 net.cpp:91] Creating Layer conv_in4d_1x1
I1024 14:29:05.470247 21201 net.cpp:425] conv_in4d_1x1 <- ch_concat_in4c_chconcat_ch_concat_in4c_chconcat_0_split_0
I1024 14:29:05.470250 21201 net.cpp:399] conv_in4d_1x1 -> conv_in4d_1x1
I1024 14:29:05.470373 21201 net.cpp:141] Setting up conv_in4d_1x1
I1024 14:29:05.470377 21201 net.cpp:148] Top shape: 32 48 16 16 (393216)
I1024 14:29:05.470379 21201 net.cpp:156] Memory required for data: 298713216
I1024 14:29:05.470382 21201 layer_factory.hpp:77] Creating layer bn_in4d_1x1
I1024 14:29:05.470386 21201 net.cpp:91] Creating Layer bn_in4d_1x1
I1024 14:29:05.470387 21201 net.cpp:425] bn_in4d_1x1 <- conv_in4d_1x1
I1024 14:29:05.470391 21201 net.cpp:399] bn_in4d_1x1 -> bn_in4d_1x1
I1024 14:29:05.470547 21201 net.cpp:141] Setting up bn_in4d_1x1
I1024 14:29:05.470551 21201 net.cpp:148] Top shape: 32 48 16 16 (393216)
I1024 14:29:05.470553 21201 net.cpp:156] Memory required for data: 300286080
I1024 14:29:05.470558 21201 layer_factory.hpp:77] Creating layer relu_in4d_1x1
I1024 14:29:05.470561 21201 net.cpp:91] Creating Layer relu_in4d_1x1
I1024 14:29:05.470562 21201 net.cpp:425] relu_in4d_1x1 <- bn_in4d_1x1
I1024 14:29:05.470566 21201 net.cpp:386] relu_in4d_1x1 -> bn_in4d_1x1 (in-place)
I1024 14:29:05.470568 21201 net.cpp:141] Setting up relu_in4d_1x1
I1024 14:29:05.470571 21201 net.cpp:148] Top shape: 32 48 16 16 (393216)
I1024 14:29:05.470572 21201 net.cpp:156] Memory required for data: 301858944
I1024 14:29:05.470574 21201 layer_factory.hpp:77] Creating layer conv_in4d_3x3
I1024 14:29:05.470578 21201 net.cpp:91] Creating Layer conv_in4d_3x3
I1024 14:29:05.470582 21201 net.cpp:425] conv_in4d_3x3 <- ch_concat_in4c_chconcat_ch_concat_in4c_chconcat_0_split_1
I1024 14:29:05.470584 21201 net.cpp:399] conv_in4d_3x3 -> conv_in4d_3x3
I1024 14:29:05.471555 21201 net.cpp:141] Setting up conv_in4d_3x3
I1024 14:29:05.471562 21201 net.cpp:148] Top shape: 32 96 16 16 (786432)
I1024 14:29:05.471565 21201 net.cpp:156] Memory required for data: 305004672
I1024 14:29:05.471567 21201 layer_factory.hpp:77] Creating layer bn_in4d_3x3
I1024 14:29:05.471571 21201 net.cpp:91] Creating Layer bn_in4d_3x3
I1024 14:29:05.471575 21201 net.cpp:425] bn_in4d_3x3 <- conv_in4d_3x3
I1024 14:29:05.471577 21201 net.cpp:399] bn_in4d_3x3 -> bn_in4d_3x3
I1024 14:29:05.471746 21201 net.cpp:141] Setting up bn_in4d_3x3
I1024 14:29:05.471750 21201 net.cpp:148] Top shape: 32 96 16 16 (786432)
I1024 14:29:05.471752 21201 net.cpp:156] Memory required for data: 308150400
I1024 14:29:05.471757 21201 layer_factory.hpp:77] Creating layer relu_in4d_3x3
I1024 14:29:05.471760 21201 net.cpp:91] Creating Layer relu_in4d_3x3
I1024 14:29:05.471761 21201 net.cpp:425] relu_in4d_3x3 <- bn_in4d_3x3
I1024 14:29:05.471765 21201 net.cpp:386] relu_in4d_3x3 -> bn_in4d_3x3 (in-place)
I1024 14:29:05.471770 21201 net.cpp:141] Setting up relu_in4d_3x3
I1024 14:29:05.471771 21201 net.cpp:148] Top shape: 32 96 16 16 (786432)
I1024 14:29:05.471773 21201 net.cpp:156] Memory required for data: 311296128
I1024 14:29:05.471776 21201 layer_factory.hpp:77] Creating layer ch_concat_in4d_chconcat
I1024 14:29:05.471778 21201 net.cpp:91] Creating Layer ch_concat_in4d_chconcat
I1024 14:29:05.471781 21201 net.cpp:425] ch_concat_in4d_chconcat <- bn_in4d_1x1
I1024 14:29:05.471782 21201 net.cpp:425] ch_concat_in4d_chconcat <- bn_in4d_3x3
I1024 14:29:05.471786 21201 net.cpp:399] ch_concat_in4d_chconcat -> ch_concat_in4d_chconcat
I1024 14:29:05.471798 21201 net.cpp:141] Setting up ch_concat_in4d_chconcat
I1024 14:29:05.471801 21201 net.cpp:148] Top shape: 32 144 16 16 (1179648)
I1024 14:29:05.471803 21201 net.cpp:156] Memory required for data: 316014720
I1024 14:29:05.471806 21201 layer_factory.hpp:77] Creating layer ch_concat_in4d_chconcat_ch_concat_in4d_chconcat_0_split
I1024 14:29:05.471810 21201 net.cpp:91] Creating Layer ch_concat_in4d_chconcat_ch_concat_in4d_chconcat_0_split
I1024 14:29:05.471812 21201 net.cpp:425] ch_concat_in4d_chconcat_ch_concat_in4d_chconcat_0_split <- ch_concat_in4d_chconcat
I1024 14:29:05.471815 21201 net.cpp:399] ch_concat_in4d_chconcat_ch_concat_in4d_chconcat_0_split -> ch_concat_in4d_chconcat_ch_concat_in4d_chconcat_0_split_0
I1024 14:29:05.471819 21201 net.cpp:399] ch_concat_in4d_chconcat_ch_concat_in4d_chconcat_0_split -> ch_concat_in4d_chconcat_ch_concat_in4d_chconcat_0_split_1
I1024 14:29:05.471839 21201 net.cpp:141] Setting up ch_concat_in4d_chconcat_ch_concat_in4d_chconcat_0_split
I1024 14:29:05.471843 21201 net.cpp:148] Top shape: 32 144 16 16 (1179648)
I1024 14:29:05.471844 21201 net.cpp:148] Top shape: 32 144 16 16 (1179648)
I1024 14:29:05.471846 21201 net.cpp:156] Memory required for data: 325451904
I1024 14:29:05.471848 21201 layer_factory.hpp:77] Creating layer conv_in4e_3x3
I1024 14:29:05.471853 21201 net.cpp:91] Creating Layer conv_in4e_3x3
I1024 14:29:05.471854 21201 net.cpp:425] conv_in4e_3x3 <- ch_concat_in4d_chconcat_ch_concat_in4d_chconcat_0_split_0
I1024 14:29:05.471858 21201 net.cpp:399] conv_in4e_3x3 -> conv_in4e_3x3
I1024 14:29:05.472355 21201 net.cpp:141] Setting up conv_in4e_3x3
I1024 14:29:05.472359 21201 net.cpp:148] Top shape: 32 96 8 8 (196608)
I1024 14:29:05.472360 21201 net.cpp:156] Memory required for data: 326238336
I1024 14:29:05.472363 21201 layer_factory.hpp:77] Creating layer bn_in4e_3x3
I1024 14:29:05.472368 21201 net.cpp:91] Creating Layer bn_in4e_3x3
I1024 14:29:05.472370 21201 net.cpp:425] bn_in4e_3x3 <- conv_in4e_3x3
I1024 14:29:05.472373 21201 net.cpp:399] bn_in4e_3x3 -> bn_in4e_3x3
I1024 14:29:05.472537 21201 net.cpp:141] Setting up bn_in4e_3x3
I1024 14:29:05.472540 21201 net.cpp:148] Top shape: 32 96 8 8 (196608)
I1024 14:29:05.472543 21201 net.cpp:156] Memory required for data: 327024768
I1024 14:29:05.472548 21201 layer_factory.hpp:77] Creating layer relu_in4e_3x3
I1024 14:29:05.472553 21201 net.cpp:91] Creating Layer relu_in4e_3x3
I1024 14:29:05.472558 21201 net.cpp:425] relu_in4e_3x3 <- bn_in4e_3x3
I1024 14:29:05.472561 21201 net.cpp:386] relu_in4e_3x3 -> bn_in4e_3x3 (in-place)
I1024 14:29:05.472565 21201 net.cpp:141] Setting up relu_in4e_3x3
I1024 14:29:05.472568 21201 net.cpp:148] Top shape: 32 96 8 8 (196608)
I1024 14:29:05.472570 21201 net.cpp:156] Memory required for data: 327811200
I1024 14:29:05.472573 21201 layer_factory.hpp:77] Creating layer max_pool_in4e_pool
I1024 14:29:05.472578 21201 net.cpp:91] Creating Layer max_pool_in4e_pool
I1024 14:29:05.472584 21201 net.cpp:425] max_pool_in4e_pool <- ch_concat_in4d_chconcat_ch_concat_in4d_chconcat_0_split_1
I1024 14:29:05.472589 21201 net.cpp:399] max_pool_in4e_pool -> max_pool_in4e_pool
I1024 14:29:05.472635 21201 net.cpp:141] Setting up max_pool_in4e_pool
I1024 14:29:05.472637 21201 net.cpp:148] Top shape: 32 144 8 8 (294912)
I1024 14:29:05.472653 21201 net.cpp:156] Memory required for data: 328990848
I1024 14:29:05.472656 21201 layer_factory.hpp:77] Creating layer ch_concat_in4e_chconcat
I1024 14:29:05.472658 21201 net.cpp:91] Creating Layer ch_concat_in4e_chconcat
I1024 14:29:05.472661 21201 net.cpp:425] ch_concat_in4e_chconcat <- bn_in4e_3x3
I1024 14:29:05.472662 21201 net.cpp:425] ch_concat_in4e_chconcat <- max_pool_in4e_pool
I1024 14:29:05.472666 21201 net.cpp:399] ch_concat_in4e_chconcat -> ch_concat_in4e_chconcat
I1024 14:29:05.472679 21201 net.cpp:141] Setting up ch_concat_in4e_chconcat
I1024 14:29:05.472682 21201 net.cpp:148] Top shape: 32 240 8 8 (491520)
I1024 14:29:05.472684 21201 net.cpp:156] Memory required for data: 330956928
I1024 14:29:05.472687 21201 layer_factory.hpp:77] Creating layer ch_concat_in4e_chconcat_ch_concat_in4e_chconcat_0_split
I1024 14:29:05.472694 21201 net.cpp:91] Creating Layer ch_concat_in4e_chconcat_ch_concat_in4e_chconcat_0_split
I1024 14:29:05.472697 21201 net.cpp:425] ch_concat_in4e_chconcat_ch_concat_in4e_chconcat_0_split <- ch_concat_in4e_chconcat
I1024 14:29:05.472699 21201 net.cpp:399] ch_concat_in4e_chconcat_ch_concat_in4e_chconcat_0_split -> ch_concat_in4e_chconcat_ch_concat_in4e_chconcat_0_split_0
I1024 14:29:05.472703 21201 net.cpp:399] ch_concat_in4e_chconcat_ch_concat_in4e_chconcat_0_split -> ch_concat_in4e_chconcat_ch_concat_in4e_chconcat_0_split_1
I1024 14:29:05.472723 21201 net.cpp:141] Setting up ch_concat_in4e_chconcat_ch_concat_in4e_chconcat_0_split
I1024 14:29:05.472726 21201 net.cpp:148] Top shape: 32 240 8 8 (491520)
I1024 14:29:05.472728 21201 net.cpp:148] Top shape: 32 240 8 8 (491520)
I1024 14:29:05.472730 21201 net.cpp:156] Memory required for data: 334889088
I1024 14:29:05.472733 21201 layer_factory.hpp:77] Creating layer conv_in5a_1x1
I1024 14:29:05.472738 21201 net.cpp:91] Creating Layer conv_in5a_1x1
I1024 14:29:05.472739 21201 net.cpp:425] conv_in5a_1x1 <- ch_concat_in4e_chconcat_ch_concat_in4e_chconcat_0_split_0
I1024 14:29:05.472743 21201 net.cpp:399] conv_in5a_1x1 -> conv_in5a_1x1
I1024 14:29:05.472982 21201 net.cpp:141] Setting up conv_in5a_1x1
I1024 14:29:05.472986 21201 net.cpp:148] Top shape: 32 176 8 8 (360448)
I1024 14:29:05.472987 21201 net.cpp:156] Memory required for data: 336330880
I1024 14:29:05.472991 21201 layer_factory.hpp:77] Creating layer bn_in5a_1x1
I1024 14:29:05.472995 21201 net.cpp:91] Creating Layer bn_in5a_1x1
I1024 14:29:05.472996 21201 net.cpp:425] bn_in5a_1x1 <- conv_in5a_1x1
I1024 14:29:05.472999 21201 net.cpp:399] bn_in5a_1x1 -> bn_in5a_1x1
I1024 14:29:05.473161 21201 net.cpp:141] Setting up bn_in5a_1x1
I1024 14:29:05.473165 21201 net.cpp:148] Top shape: 32 176 8 8 (360448)
I1024 14:29:05.473167 21201 net.cpp:156] Memory required for data: 337772672
I1024 14:29:05.473171 21201 layer_factory.hpp:77] Creating layer relu_in5a_1x1
I1024 14:29:05.473175 21201 net.cpp:91] Creating Layer relu_in5a_1x1
I1024 14:29:05.473176 21201 net.cpp:425] relu_in5a_1x1 <- bn_in5a_1x1
I1024 14:29:05.473179 21201 net.cpp:386] relu_in5a_1x1 -> bn_in5a_1x1 (in-place)
I1024 14:29:05.473183 21201 net.cpp:141] Setting up relu_in5a_1x1
I1024 14:29:05.473186 21201 net.cpp:148] Top shape: 32 176 8 8 (360448)
I1024 14:29:05.473187 21201 net.cpp:156] Memory required for data: 339214464
I1024 14:29:05.473189 21201 layer_factory.hpp:77] Creating layer conv_in5a_3x3
I1024 14:29:05.473193 21201 net.cpp:91] Creating Layer conv_in5a_3x3
I1024 14:29:05.473196 21201 net.cpp:425] conv_in5a_3x3 <- ch_concat_in4e_chconcat_ch_concat_in4e_chconcat_0_split_1
I1024 14:29:05.473199 21201 net.cpp:399] conv_in5a_3x3 -> conv_in5a_3x3
I1024 14:29:05.474819 21201 net.cpp:141] Setting up conv_in5a_3x3
I1024 14:29:05.474826 21201 net.cpp:148] Top shape: 32 160 8 8 (327680)
I1024 14:29:05.474833 21201 net.cpp:156] Memory required for data: 340525184
I1024 14:29:05.474838 21201 layer_factory.hpp:77] Creating layer bn_in5a_3x3
I1024 14:29:05.474843 21201 net.cpp:91] Creating Layer bn_in5a_3x3
I1024 14:29:05.474844 21201 net.cpp:425] bn_in5a_3x3 <- conv_in5a_3x3
I1024 14:29:05.474848 21201 net.cpp:399] bn_in5a_3x3 -> bn_in5a_3x3
I1024 14:29:05.475016 21201 net.cpp:141] Setting up bn_in5a_3x3
I1024 14:29:05.475020 21201 net.cpp:148] Top shape: 32 160 8 8 (327680)
I1024 14:29:05.475023 21201 net.cpp:156] Memory required for data: 341835904
I1024 14:29:05.475028 21201 layer_factory.hpp:77] Creating layer relu_in5a_3x3
I1024 14:29:05.475030 21201 net.cpp:91] Creating Layer relu_in5a_3x3
I1024 14:29:05.475033 21201 net.cpp:425] relu_in5a_3x3 <- bn_in5a_3x3
I1024 14:29:05.475035 21201 net.cpp:386] relu_in5a_3x3 -> bn_in5a_3x3 (in-place)
I1024 14:29:05.475039 21201 net.cpp:141] Setting up relu_in5a_3x3
I1024 14:29:05.475042 21201 net.cpp:148] Top shape: 32 160 8 8 (327680)
I1024 14:29:05.475044 21201 net.cpp:156] Memory required for data: 343146624
I1024 14:29:05.475045 21201 layer_factory.hpp:77] Creating layer ch_concat_in5a_chconcat
I1024 14:29:05.475049 21201 net.cpp:91] Creating Layer ch_concat_in5a_chconcat
I1024 14:29:05.475050 21201 net.cpp:425] ch_concat_in5a_chconcat <- bn_in5a_1x1
I1024 14:29:05.475052 21201 net.cpp:425] ch_concat_in5a_chconcat <- bn_in5a_3x3
I1024 14:29:05.475055 21201 net.cpp:399] ch_concat_in5a_chconcat -> ch_concat_in5a_chconcat
I1024 14:29:05.475075 21201 net.cpp:141] Setting up ch_concat_in5a_chconcat
I1024 14:29:05.475078 21201 net.cpp:148] Top shape: 32 336 8 8 (688128)
I1024 14:29:05.475080 21201 net.cpp:156] Memory required for data: 345899136
I1024 14:29:05.475082 21201 layer_factory.hpp:77] Creating layer ch_concat_in5a_chconcat_ch_concat_in5a_chconcat_0_split
I1024 14:29:05.475085 21201 net.cpp:91] Creating Layer ch_concat_in5a_chconcat_ch_concat_in5a_chconcat_0_split
I1024 14:29:05.475087 21201 net.cpp:425] ch_concat_in5a_chconcat_ch_concat_in5a_chconcat_0_split <- ch_concat_in5a_chconcat
I1024 14:29:05.475090 21201 net.cpp:399] ch_concat_in5a_chconcat_ch_concat_in5a_chconcat_0_split -> ch_concat_in5a_chconcat_ch_concat_in5a_chconcat_0_split_0
I1024 14:29:05.475095 21201 net.cpp:399] ch_concat_in5a_chconcat_ch_concat_in5a_chconcat_0_split -> ch_concat_in5a_chconcat_ch_concat_in5a_chconcat_0_split_1
I1024 14:29:05.475116 21201 net.cpp:141] Setting up ch_concat_in5a_chconcat_ch_concat_in5a_chconcat_0_split
I1024 14:29:05.475118 21201 net.cpp:148] Top shape: 32 336 8 8 (688128)
I1024 14:29:05.475121 21201 net.cpp:148] Top shape: 32 336 8 8 (688128)
I1024 14:29:05.475122 21201 net.cpp:156] Memory required for data: 351404160
I1024 14:29:05.475124 21201 layer_factory.hpp:77] Creating layer conv_in5b_1x1
I1024 14:29:05.475129 21201 net.cpp:91] Creating Layer conv_in5b_1x1
I1024 14:29:05.475131 21201 net.cpp:425] conv_in5b_1x1 <- ch_concat_in5a_chconcat_ch_concat_in5a_chconcat_0_split_0
I1024 14:29:05.475134 21201 net.cpp:399] conv_in5b_1x1 -> conv_in5b_1x1
I1024 14:29:05.475459 21201 net.cpp:141] Setting up conv_in5b_1x1
I1024 14:29:05.475463 21201 net.cpp:148] Top shape: 32 176 8 8 (360448)
I1024 14:29:05.475466 21201 net.cpp:156] Memory required for data: 352845952
I1024 14:29:05.475468 21201 layer_factory.hpp:77] Creating layer bn_in5b_1x1
I1024 14:29:05.475471 21201 net.cpp:91] Creating Layer bn_in5b_1x1
I1024 14:29:05.475474 21201 net.cpp:425] bn_in5b_1x1 <- conv_in5b_1x1
I1024 14:29:05.475477 21201 net.cpp:399] bn_in5b_1x1 -> bn_in5b_1x1
I1024 14:29:05.475642 21201 net.cpp:141] Setting up bn_in5b_1x1
I1024 14:29:05.475646 21201 net.cpp:148] Top shape: 32 176 8 8 (360448)
I1024 14:29:05.475648 21201 net.cpp:156] Memory required for data: 354287744
I1024 14:29:05.475652 21201 layer_factory.hpp:77] Creating layer relu_in5b_1x1
I1024 14:29:05.475656 21201 net.cpp:91] Creating Layer relu_in5b_1x1
I1024 14:29:05.475657 21201 net.cpp:425] relu_in5b_1x1 <- bn_in5b_1x1
I1024 14:29:05.475659 21201 net.cpp:386] relu_in5b_1x1 -> bn_in5b_1x1 (in-place)
I1024 14:29:05.475667 21201 net.cpp:141] Setting up relu_in5b_1x1
I1024 14:29:05.475670 21201 net.cpp:148] Top shape: 32 176 8 8 (360448)
I1024 14:29:05.475672 21201 net.cpp:156] Memory required for data: 355729536
I1024 14:29:05.475674 21201 layer_factory.hpp:77] Creating layer conv_in5b_3x3
I1024 14:29:05.475678 21201 net.cpp:91] Creating Layer conv_in5b_3x3
I1024 14:29:05.475682 21201 net.cpp:425] conv_in5b_3x3 <- ch_concat_in5a_chconcat_ch_concat_in5a_chconcat_0_split_1
I1024 14:29:05.475685 21201 net.cpp:399] conv_in5b_3x3 -> conv_in5b_3x3
I1024 14:29:05.477807 21201 net.cpp:141] Setting up conv_in5b_3x3
I1024 14:29:05.477815 21201 net.cpp:148] Top shape: 32 160 8 8 (327680)
I1024 14:29:05.477818 21201 net.cpp:156] Memory required for data: 357040256
I1024 14:29:05.477820 21201 layer_factory.hpp:77] Creating layer bn_in5b_3x3
I1024 14:29:05.477824 21201 net.cpp:91] Creating Layer bn_in5b_3x3
I1024 14:29:05.477826 21201 net.cpp:425] bn_in5b_3x3 <- conv_in5b_3x3
I1024 14:29:05.477830 21201 net.cpp:399] bn_in5b_3x3 -> bn_in5b_3x3
I1024 14:29:05.477999 21201 net.cpp:141] Setting up bn_in5b_3x3
I1024 14:29:05.478003 21201 net.cpp:148] Top shape: 32 160 8 8 (327680)
I1024 14:29:05.478005 21201 net.cpp:156] Memory required for data: 358350976
I1024 14:29:05.478010 21201 layer_factory.hpp:77] Creating layer relu_in5b_3x3
I1024 14:29:05.478014 21201 net.cpp:91] Creating Layer relu_in5b_3x3
I1024 14:29:05.478018 21201 net.cpp:425] relu_in5b_3x3 <- bn_in5b_3x3
I1024 14:29:05.478019 21201 net.cpp:386] relu_in5b_3x3 -> bn_in5b_3x3 (in-place)
I1024 14:29:05.478022 21201 net.cpp:141] Setting up relu_in5b_3x3
I1024 14:29:05.478025 21201 net.cpp:148] Top shape: 32 160 8 8 (327680)
I1024 14:29:05.478027 21201 net.cpp:156] Memory required for data: 359661696
I1024 14:29:05.478029 21201 layer_factory.hpp:77] Creating layer ch_concat_in5b_chconcat
I1024 14:29:05.478032 21201 net.cpp:91] Creating Layer ch_concat_in5b_chconcat
I1024 14:29:05.478034 21201 net.cpp:425] ch_concat_in5b_chconcat <- bn_in5b_1x1
I1024 14:29:05.478037 21201 net.cpp:425] ch_concat_in5b_chconcat <- bn_in5b_3x3
I1024 14:29:05.478040 21201 net.cpp:399] ch_concat_in5b_chconcat -> ch_concat_in5b_chconcat
I1024 14:29:05.478054 21201 net.cpp:141] Setting up ch_concat_in5b_chconcat
I1024 14:29:05.478056 21201 net.cpp:148] Top shape: 32 336 8 8 (688128)
I1024 14:29:05.478058 21201 net.cpp:156] Memory required for data: 362414208
I1024 14:29:05.478060 21201 layer_factory.hpp:77] Creating layer global_pool
I1024 14:29:05.478063 21201 net.cpp:91] Creating Layer global_pool
I1024 14:29:05.478065 21201 net.cpp:425] global_pool <- ch_concat_in5b_chconcat
I1024 14:29:05.478070 21201 net.cpp:399] global_pool -> global_pool
I1024 14:29:05.478082 21201 net.cpp:141] Setting up global_pool
I1024 14:29:05.478085 21201 net.cpp:148] Top shape: 32 336 2 2 (43008)
I1024 14:29:05.478086 21201 net.cpp:156] Memory required for data: 362586240
I1024 14:29:05.478088 21201 layer_factory.hpp:77] Creating layer fc1
I1024 14:29:05.478093 21201 net.cpp:91] Creating Layer fc1
I1024 14:29:05.478096 21201 net.cpp:425] fc1 <- global_pool
I1024 14:29:05.478098 21201 net.cpp:399] fc1 -> fc1
I1024 14:29:05.478202 21201 net.cpp:141] Setting up fc1
I1024 14:29:05.478206 21201 net.cpp:148] Top shape: 32 10 (320)
I1024 14:29:05.478209 21201 net.cpp:156] Memory required for data: 362587520
I1024 14:29:05.478211 21201 layer_factory.hpp:77] Creating layer accuracy
I1024 14:29:05.478215 21201 net.cpp:91] Creating Layer accuracy
I1024 14:29:05.478217 21201 net.cpp:425] accuracy <- fc1
I1024 14:29:05.478219 21201 net.cpp:425] accuracy <- label
I1024 14:29:05.478222 21201 net.cpp:399] accuracy -> accuracy
…
